signals/anomaly_detector_model.pth (torch, 208933 bytes, 7 tensors)

network.0.weight f4 [128, 320]
-0.05902486 -0.021679599 0.030347416 -0.012183028 0.03892794 0.04277626 -0.01185918 0.0066451537
-0.01790444 -0.053700544 0.0048208665 -0.015849208 -0.040793054 0.0025088738 0.016534483 -0.036696263
0.04894887 -0.0016222309 0.023608144 -0.016748434 0.042717457 -0.021837214 -0.059969313 0.0058247834
0.020623626 -0.03562398 0.0036052072 -0.009609552 0.03886395 -0.025358459 -0.056752164 -0.0051513943
-0.051614914 -0.031200768 0.030952083 -0.027947634 0.023997966 -0.051650595 -0.008330029 -0.044220515
-0.054160688 -0.011693487 -0.0036966915 -0.025110615 0.0034310382 0.043754276 -0.008995289 -0.004123953
0.016618945 -0.053115427 -0.039190993 0.022029309 0.04708671 -0.04223498 -0.022842666 0.00892628
-0.017767316 0.026643617 0.0153462 -0.024014752 -0.051680017 0.051066652 0.026407009 -0.022712786
-0.035346467 0.0023801476 -0.049162213 -0.029464705 0.050285663 0.034637522 -0.002595473 0.022291439
0.050136343 -0.044119004 0.025388043 -0.04313704 0.015617403 0.0015441523 -0.042366054 0.04184986
0.002396525 -0.057994626 0.035495494 -1.7297383e-05 0.047651805 0.029292837 0.034769375 -0.03553456
0.042122502 -0.012775833 -0.053246208 -0.040694878 -0.053392973 0.016112734 -0.042783994 0.046655566
-0.027807014 -0.0434278 -0.0065554753 0.014579734 -0.046237953 0.020768488 -0.02205602 0.051222507
0.026085861 -0.011845717 -0.005517763 0.035489984 0.031108575 0.027101424 -0.012542931 0.011368128
0.0045248102 -0.058024064 0.037645604 0.04725491 -0.012603281 -0.022672687 0.007619518 0.03777662
-0.013419015 -0.023176676 0.041249704 0.03797037 -0.028586661 0.0073001306 0.030755734 -0.031959087
-0.01785765 -0.030712422 0.030237071 -0.039649874 0.010452631 -0.0026264538 0.03367524 -0.058766685
-0.040181052 -0.010408638 -0.035232555 -0.0013560987 0.047331758 -0.04180845 0.010378747 -0.0047005997
0.0060262904 -0.05957697 -0.021338506 -0.048298318 -0.017166287 0.012066631 -0.0035137536 -0.010264173
-0.01813653 -0.052507903 0.03166517 0.030451575 0.027638065 -0.007814998 -0.008033967 -0.058671646
-0.032183427 0.041545156 0.02418359 0.020206172 -0.010963426 -0.009001854 0.023246743 0.03908986
-0.010847315 -0.047501698 0.00047172542 -0.0035888536 -0.033258643 -0.047178097 0.046782702 -0.0027503318
-0.056274723 -0.023349375 -0.0076849028 -0.045985084 0.0016725195 -0.0022449773 -0.05608672 0.023154208
-0.050988253 0.019153005 0.007917693 -0.016218208 -0.011262692 -0.0139796445 0.015177671 0.0036065618
0.019821541 -0.029686911 0.021157213 -0.014460303 0.034862626 0.012306117 -0.05122327 -0.02993282
0.022880668 -0.016138297 -0.014270658 0.043015588 -0.039119106 -0.050079834 0.043124482 0.01438429
-0.038942207 0.047130827 -0.03663162 -0.0028488825 0.033219304 -0.005819042 -0.055565834 0.013110635
-0.04856631 -0.011544529 -0.051910747 -0.034293663 -0.008911589 -0.049524155 -0.006439675 0.011282959
0.002187254 -0.04010378 -0.05399577 0.041550152 -0.03544433 -0.026511367 -0.024862736 -0.037141334
0.024730606 -0.011083555 -0.000865987 0.039425712 -0.049156945 0.0040035066 -0.029552236 -0.022367487
0.042736653 -0.0046048667 -0.03881921 -0.042107496 0.048673414 0.049895506 -0.026725573 0.0144540565
-0.0046393345 0.014998668 0.044569626 0.0021197526 0.0021133318 0.050238367 0.03273954 0.016667489
00000000: 0dc4 71bd 6a99 b1bc 259b f83c 539b 47bc
00000010: e772 1f3d 2936 2f3d 024d 42bc 97bf d93b
00000020: 55ac 92bc 1af5 5bbd 5cf8 9d3b 33d6 81bc
00000030: 9e16 27bd eb6b 243b 5373 873c d24e 16bd
00000040: 9c7e 483d 09a1 d4ba de65 c13c 0334 89bc
00000050: 80f8 2e3d f5e3 b2bc 62a2 75bd d3dd be3b
00000060: e1f2 a83c 73ea 11bd 5745 6c3b 6271 1dbc
00000070: ce2f 1f3d 8bbc cfbc f574 68bd 07cd a8bb
00000080: 296a 53bd c198 ffbc 398f fd3c 70f2 e4bc
00000090: 6297 c43c 938f 53bd ad7a 08bc 9220 35bd
000000a0: 99d7 5dbd 0a96 3fbc 3144 72bb c7b4 cdbc
000000b0: 45db 603b af37 333d fa60 13bc 3a22 87bb
000000c0: 7424 883c 908f 59bd bc86 20bd cf76 b43c
000000d0: fedd 403d 96fe 2cbd 8b20 bbbc 883f 123c
000000e0: c38c 91bc b743 da3c a16e 7b3c 96ba c4bc
000000f0: 6dae 53bd 442b 513d 8353 d83c 2a10 babc
00000100: 75c7 10bd 40fc 1b3b 515e 49bd f75f f1bc
00000110: 57f8 4d3d 13e0 0d3d d018 2abb 899c b63c
00000120: c45b 4d3d 21b6 34bd 96fa cf3c 77b0 30bd
00000130: 23e0 7f3c 2765 ca3a 0788 2dbd c26a 2b3d
00000140: 040f 1d3b c68b 6dbd b963 113d d919 91b7
00000150: 8a2e 433d 88f7 ef3c 556a 0e3d b08c 11bd
00000160: a588 2c3d ba51 51bc b218 5abd acaf 26bd
00000170: 97b2 5abd dafe 833c 453e 2fbd e819 3f3d
00000180: 89cb e3bc 59e1 31bd 50cf d6bb d6df 6e3c
00000190: 0264 3dbd ad22 aa3c d4ae b4bc b1ce 513d
000001a0: 04b2 d53c 8a14 42bc 5ace b4bb f25d 113d
000001b0: 69d7 fe3c ce03 de3c de80 4dbc 6241 3a3c
000001c0: dc44 943b a4aa 6dbd 4732 1a3d 5d8e 413d
000001d0: fe7d 4ebc 12bc b9bc 26ad f93b a8bb 1a3d
000001e0: 6edb 5bbc 03dd bdbc 73f5 283d d286 1b3d
000001f0: 932e eabc ef35 ef3b 73f3 fb3c 88e7 02bd
00000200: 354a 92bc 9e98 fbbc bcb3 f73c e867 22bd
00000210: 8341 2b3c 9520 2cbb 0cef 093d 56b5 70bd
00000220: e394 24bd fe88 2abc 0350 10bd 1fbf b1ba
00000230: f2de 413d 563f 2bbd 9f0b 2a3c 7d07 9abb
00000240: 3078 c53b fb06 74bd 17ce aebc 75d4 45bd
00000250: 50a0 8cbc 1eb3 453c 0147 66bb 102b 28bc
00000260: 0f93 94bc 8712 57bd 56b3 013d 9575 f93c
00000270: 3969 e23c 7a0a 00bc e6a0 03bc ae51 70bd
00000280: c5d2 03bd 412b 2a3d aa1c c63c 6a87 a53c
00000290: f19f 33bc 837c 13bc f46f be3c b01c 203d
000002a0: f0b8 31bc 2491 42bd ea51 f739 f932 6bbb
000002b0: 373a 08bd d23d 41bd 389f 3f3d e93e 34bb
000002c0: 5380 66bd 3047 bfbc a3d1 fbbb db5a 3cbd
000002d0: 7138 db3a 7820 13bb 30bb 65bd e5ad bd3c
000002e0: 0fd9 50bd c3e6 9c3c 36b9 013c 0cdc 84bc
000002f0: 2787 38bc e10a 65bc c4ab 783c 115c 6c3b
00000300: c960 a23c f731 f3bc e451 ad3c e8ea 6cbc
00000310: 1dcc 0e3d 999f 493c 7ecf 51bd ac35 f5bc
00000320: 3d70 bb3c 7634 84bc 7acf 69bc 1d31 303d
00000330: 5b3b 20bd 8320 4dbd 4ca3 303d 16ac 6b3c
00000340: dd81 1fbd 410c 413d 0a0b 16bd 51b4 3abb
00000350: f710 083d aaad bebb 0099 63bd fdcd 563c
00000360: 78ed 46bd 4425 3dbc 5da0 54bd 8377 0cbd
00000370: ea01 12bc d7d9 4abd e903 d3bb 29dc 383c
00000380: 0858 0f3b dc43 24bd ab2a 5dbd 7e30 2a3d
00000390: 132e 11bd 5e2e d9bc f0ac cbbc 8321 18bd
000003a0: d797 ca3c cd97 35bc 6703 63ba db7c 213d
000003b0: cb58 49bd d92f 833b 8817 f2bc 053c b7bc
000003c0: a10c 2f3d 6ce4 96bb e400 1fbd e978 2cbd
000003d0: c65d 473d 3b5f 4c3d 97ef dabc b5d0 6c3c
000003e0: 8f05 98bb f9bc 753c a48e 363d 8ceb 0a3b
000003f0: d37f 0a3b bfc6 4d3d e519 063d 428a 883c

network.0.bias f4 [128]
-0.058766957 -0.03917199 0.101008944 0.16702807 -0.05354603 0.16725421 0.10711684 0.12890154
0.15148108 -0.024566185 0.11323608 0.13371822 -0.037979737 -0.05787804 0.061070714 -0.027211258
0.007838748 0.0047365096 0.11469532 -0.05981073 0.090194546 -0.011467166 0.15311466 0.09206959
-0.028637877 0.120218515 -0.02590986 -0.0402979 0.13738 0.041813314 0.16657057 -0.046986826
-0.058481302 0.16126211 0.12551376 -0.030188862 0.009032322 -0.047076903 0.14797659 0.15596926
0.15657973 -0.05925444 -0.034829747 -0.027363274 -0.037592117 0.022656396 0.122043684 0.1255024
0.13943139 0.15924963 0.11909357 0.067493916 -0.008594587 0.10150835 0.11552999 -0.0065565216
0.09497474 0.020767989 0.12599199 0.13264185 -0.009835026 0.016627094 0.1240736 0.09099096
0.067335635 -0.00061991747 -0.05102043 -0.042960014 -0.040537618 0.090663634 -0.0583588 -0.0018211044
0.08156657 0.077853985 -0.05277335 -0.048254676 -0.036686044 0.09905603 0.016445542 0.16242403
0.0022427465 0.11211342 -0.039363135 -0.027029773 -0.0015843378 0.07154275 0.15228665 -0.060414746
-0.056757554 -0.031065242 0.13759947 -0.030027086 0.08500151 -0.058028694 0.106039874 -0.030432597
0.14084123 0.099496454 0.056904793 0.13323334 -0.027386377 0.15030302 0.12666531 0.08010649
-0.038222097 -0.0076954495 0.146026 -0.04009944 0.1664707 0.13728191 0.0043705623 0.12632114
0.38782915 -0.0070758867 0.12005929 0.13934438 -0.04929632 0.135916 0.11413988 0.0007275902
0.13931811 0.104823664 -0.05344658 0.075404786 0.03640204 -0.059304994 -0.056498017 0.06672942
00000000: 9fb5 70bd cf72 20bd c7dd ce3d 6809 2b3e
00000010: 1553 5bbd b044 2b3e 1360 db3d c4fe 033e
00000020: db1d 1b3e 063f c9bc 51e8 e73d 6eed 083e
00000030: a490 1bbd 8611 6dbd 4925 7a3d 25ea debc
00000040: 186e 003c b934 9b3b 61e5 ea3d 19fc 74bd
00000050: ebb7 b83d c8e0 3bbc 17ca 1c3e fb8e bc3d
00000060: fb99 eabc 2035 f63d ea40 d4bc 690f 25bd
00000070: 58ad 0c3e 7044 2b3d 7a91 2a3e 4275 40bd
00000080: 178a 6fbd e521 253e ae86 003e a24e f7bc
00000090: 4efc 133c b6d3 40bd 2d87 173e 68b6 1f3e
000000a0: 7056 203e c9b4 72bd a3a9 0ebd f228 e0bc
000000b0: 31fa 19bd e899 b93c 0af2 f93d b383 003e
000000c0: 1ac7 0e3e 5612 233e 54e7 f33d 403a 8a3d
000000d0: 50d0 0cbc 9ce3 cf3d fd9a ec3d 17d8 d6bb
000000e0: 1e82 c23d a121 aa3c 0b04 013e 44d3 073e
000000f0: 1723 21bc 8b35 883c 4d1a fe3d 7859 ba3d
00000100: 44e7 893d f581 22ba ccfa 50bd d7f6 2fbd
00000110: c60a 26bd dbad b93d a309 6fbd 20b2 eeba
00000120: 600c a73d e971 9f3d de28 58bd b2a6 45bd
00000130: 1b44 16bd e3dd ca3d cdb8 863c 7c52 263e
00000140: 0bfb 123b b99b e53d 3d3b 21bd 8b6d ddbc
00000150: 8ea9 cfba 0185 923d 08f1 1b3e 7475 77bd
00000160: 9c7a 68bd 897c febc e0e6 0c3e 5dfb f5bc
00000170: 4615 ae3d 7faf 6dbd 6f2b d93d c84d f9bc
00000180: af38 103e ccc4 cb3d 0015 693d 526e 083e
00000190: 6559 e0bc 09e9 193e 8db4 013e df0e a43d
000001a0: c68e 1cbd 1c2a fcbb d787 153e 4f3f 24bd
000001b0: 4c77 2a3e a193 0c3e ef36 8f3b 545a 013e
000001c0: 8b91 c63e d7dc e7bb a5e1 f53d 4bb0 0e3e
000001d0: f0ea 49bd 902d 0b3e 2bc2 e93d c0bb 3e3a
000001e0: 68a9 0e3e caad d63d cdea 5abd d36d 9a3d
000001f0: 4e1a 153d cbe9 72bd 776a 67bd 6fa9 883d

network.2.weight f4 [64, 128]
-0.08384072 -0.022108242 -0.0439613 0.00512629 0.010751724 -0.07635102 0.08781543 -0.056906495
0.0542709 0.0026202574 -0.010227859 0.011665724 -0.038670007 -0.0794178 0.05113279 -0.04111283
0.08777007 -0.04497604 -0.06500142 0.036617555 0.04229281 -0.0066981465 -0.077517554 -0.041361123
-0.017420724 0.055345155 0.011066675 -0.06177551 -0.009762846 0.08479593 0.009394944 -0.08449956
-0.048603512 0.06111189 0.057264052 0.046062388 -0.040476043 -0.022015266 0.0683062 0.030641422
0.06703813 -0.07732529 -0.06797432 0.0003687963 0.031745978 0.025262982 -0.015292637 -0.05066086
0.07539847 0.06659869 -0.032538883 -0.086223945 0.077590816 -0.055555616 -0.082196996 -0.010463774
-0.054888293 -0.0534339 -0.028292917 -0.08306815 -0.0039852783 -0.0680435 -0.01712966 0.027975023
-0.06431961 -0.063788064 -0.001042746 0.06220665 -0.014906041 -0.015083127 -0.0065201 0.04449556
-0.012245737 -0.0074500963 0.051907666 -0.0033750013 -0.08017212 0.06749604 0.05813148 -0.043586943
0.021943532 0.022877097 0.060194872 0.06860175 0.07385481 0.033168502 -0.06831054 -0.06890563
0.043742634 -0.039931946 0.023556538 -0.06026545 0.05737097 -0.023271501 0.049056165 0.039616965
-0.01185862 -0.010327779 -0.057630807 0.030399077 0.045842193 0.07018382 -0.03454065 -0.055816777
-0.042611483 -0.03384806 -0.039976664 -0.08564882 -0.08143062 -0.072532326 -0.05410079 -0.08257379
0.045807324 -0.0002850294 0.030858837 0.025070377 0.044645928 0.001209639 0.0074242204 0.0783597
-0.08023877 -0.01044365 -0.046255387 -0.06957932 0.0042771995 -0.032592736 -0.028685723 -0.04121008
0.08953795 -0.03111493 0.053133268 0.19365522 -0.18256937 0.12667815 0.14429688 0.18371397
0.08759306 0.057967644 0.16988994 0.19361228 -0.09562257 -0.1487215 0.06660969 -0.030129958
-0.011246246 -0.014295956 0.045363765 0.03044798 0.0054519214 -0.0750008 0.15741053 0.1957747
0.079192966 0.10874089 0.014029928 0.023601048 0.112308204 0.14169402 0.062396057 0.03394214
-0.050556965 0.236274 0.15259005 0.003922372 -0.03857376 0.05809688 0.10283744 0.16471626
0.20556249 0.041396223 0.055279948 -0.059030764 -0.04131522 -0.071741745 0.121235564 0.08866927
0.095679276 0.30050835 0.05067594 0.09448066 0.071103014 0.046284217 0.050608683 -0.044519838
0.02938109 -0.04545619 0.05735026 0.07233917 0.034125187 -0.0065370407 0.030102411 0.069416545
0.019990485 0.017746145 -0.21449858 -0.055717837 0.053111095 0.025749493 -0.0663849 0.0047621503
0.05857132 0.025299296 -0.19815919 0.031975046 -0.20178288 0.102028884 -0.072886884 0.18519276
-0.0280427 0.11674152 0.030802635 -0.07186841 0.033107173 0.05247303 0.12297037 0.041928228
0.03835586 0.011271657 0.13624546 -0.046609934 0.065046355 -0.1547867 0.09003737 0.019994542
0.1018206 0.07816174 0.11364949 0.13045987 0.018729437 0.147241 0.14338022 0.02030166
0.009594284 0.029920515 0.12904394 -0.05953808 0.11496043 0.004134168 0.02576506 0.07411017
0.6081849 -0.06628667 0.080340154 0.12213984 -0.07380367 0.12960579 0.12393865 -0.010150865
0.13827334 0.037882652 -0.06036482 0.007505588 0.03456714 -0.07350165 0.053265896 0.108496316
00000000: afb4 abbd 581c b5bc c410 34bd 70fa a73b
00000010: 0028 303c ec5d 9cbd 93d8 b33d c916 69bd
00000020: 2a4b 5e3d a0b8 2b3b c092 27bc 9821 3f3c
00000030: 7164 1ebd cda5 a2bd 9e70 513d ed65 28bd
00000040: cbc0 b33d cc38 38bd 771f 85bd 4afc 153d
00000050: 3a3b 2d3d 207c dbbb 86c1 9ebd 486a 29bd
00000060: e8b5 8ebc 9ab1 623d 0051 353c 5108 7dbd
00000070: 58f4 1fbc 7da9 ad3d 40ed 193c 1b0e adbd
00000080: 7a14 47bd 7650 7a3d b68d 6a3d eaab 3c3d
00000090: 35ca 25bd 5c59 b4bc 1fe4 8b3d b803 fb3c
000000a0: 494b 893d b95c 9ebd 1f36 8bbd 005b c139
000000b0: 1208 023d 50f4 ce3c f88d 7abc c381 4fbd
000000c0: 836a 9a3d e564 883d 7e47 05bd 2e96 b0bd
000000d0: efe7 9e3d 498e 63bd e656 a8bd 4070 2bbc
000000e0: 8cd2 60bd 81dd 5abd 8cc6 e7bc a21f aabd
000000f0: f096 82bb 645a 8bbd 8053 8cbc e02b e53c
00000100: 00ba 83bd 51a3 82bd c0ac 88ba 66cc 7e3d
00000110: 7838 74bc 381f 77bc 90a6 d5bb fa40 363d
00000120: 58a2 48bc f01f f4bb 229d 543d 202f 5dbb
00000130: 4831 a4bd 5d3b 8a3d 461b 6e3d 3988 32bd
00000140: ecc2 b33c c068 bb3c e68e 763d 137f 8c3d
00000150: 3141 973d b2db 073d 65e6 8bbd 651e 8dbd
00000160: 7a2b 333d ae8f 23bd a4f9 c03c e8d8 76bd
00000170: d2fd 6a3d e0a3 bebc 1eef 483d 6645 223d
00000180: a84a 42bc d835 29bc 480e 6cbd 7c07 f93c
00000190: 06c5 3b3d 89bc 8f3d 7f7a 0dbd 22a0 64bd
000001a0: 6189 2ebd 43a4 0abd 92be 23bd a668 afbd
000001b0: 19c5 a6bd d48b 94bd ca98 5dbd 721c a9bd
000001c0: 76a0 3b3d 0070 95b9 accb fc3c 6460 cd3c
000001d0: a6de 363d c08c 9e3a e046 f33b 0d7b a03d
000001e0: 3954 a4bd d81b 2bbc 4a76 3dbd 9a7f 8ebd
000001f0: c027 8c3b f67f 05bd 52fe eabc e7cb 28bd
00000200: ac5f b73d bde4 febc 45a2 593d 8e4d 463e
00000210: 77f3 3abe ebb7 013e 90c2 133e 841f 3c3e
00000220: fe63 b33d 7b6f 6d3d a1f7 2d3e 4c42 463e
00000230: c4d5 c3bd 734a 18be a96a 883d 1ad3 f6bc
00000240: 2d42 38bc 9639 6abc 5bcf 393d 0b6e f93c
00000250: 08a6 b23b 059a 99bd 3a30 213e 2a79 483e
00000260: ec2f a23d 8bb3 de3d c8dd 653c fc56 c13c
00000270: d801 e63d 3d18 113e 0293 7f3d ea06 0b3d
00000280: d214 4fbd d0f1 713e 9140 1c3e 3e87 803b
00000290: 85ff 1dbd fef6 6d3d 709c d23d 61ab 283e
000002a0: f97e 523e 168f 293d 3a6d 623d 3eca 71bd
000002b0: 263a 29bd 56ed 92bd 5a4a f83d 3c98 b53d
000002c0: 7ff3 c33d 3bdc 993e 9391 4f3d 147f c13d
000002d0: 759e 913d 8594 3d3d 0d4b 4f3d 6f5a 36bd
000002e0: 9db0 f03c 4530 3abd 1be8 6a3d 8f26 943d
000002f0: dac6 0b3d ac34 d6bb 5599 f63c 432a 8e3d
00000300: 16c3 a33c 5d60 913c 84a5 5bbe 6338 64bd
00000310: 058b 593d 9af0 d23c cef4 87bd d00b 9c3b
00000320: 7be8 6f3d 7840 cf3c 3eea 4abe 44f8 023d
00000330: 2ca0 4ebe 85f4 d03d b845 95bd 2ca3 3d3e
00000340: ceb9 e5bc 2e16 ef3d cf55 fc3c bf2f 93bd
00000350: 639b 073d f6ed 563d e4d7 fb3d efbc 2b3d
00000360: 091b 1d3d c2ac 383c ee83 0b3e 0fea 3ebd
00000370: 0637 853d 6880 1ebe 8365 b83d 98cb a33c
00000380: 5287 d03d 4313 a03d 10c1 e83d 4697 053e
00000390: 7a6e 993c 58c6 163e 44d2 123e ab4f a63c
000003a0: 5831 1d3c de1b f53c 1824 043e 34de 73bd
000003b0: 6070 eb3d ea77 873b 3f11 d33c 13c7 973d
000003c0: 01b2 1b3f 4ec1 87bd 6189 a43d 7424 fa3d
000003d0: 6126 97bd 61b7 043e 8cd3 fd3d d04f 26bc
000003e0: 8797 0d3e d72a 1b3d 1a41 77bd 6ff1 f53b
000003f0: 4696 0d3d 0888 96bd 572d 5a3d 5133 de3d

network.2.bias f4 [64]
-0.046980068 0.1269676 0.061178796 -0.043973424 -0.05696556 0.09392385 0.09885266 0.13082258
0.0523787 0.013720565 0.13168786 0.16586992 0.15679649 0.12621917 0.079540126 -0.027797889
-0.033753503 0.13572249 -0.052946996 -0.08530864 -0.0060991608 -0.010467578 0.101950966 0.054289423
0.051183317 0.018849887 0.077166766 0.16599652 -0.016220612 0.008360616 0.038402308 0.056922484
-0.015255835 0.010944645 -0.0881 0.006932496 0.05869425 0.11826309 -0.07587397 0.032406982
0.023055432 0.10305826 0.0307927 0.03944958 -0.045843698 -0.049617007 0.032529157 -0.01368315
-0.049643762 0.007442463 -0.0034398655 0.079078026 0.10756632 0.04484583 -0.015046343 0.056910753
0.07012476 -0.089143604 0.03681872 0.13568734 -0.059131965 0.15075049 0.10461654 -0.02882938
00000000: 2c6e 40bd cb03 023e 9e96 7a3d 7a1d 34bd
00000010: b854 69bd 265b c03d 4373 ca3d 5bf6 053e
00000020: 0c8b 563d 38cc 603c 2fd9 063e ced9 293e
00000030: 428f 203e 993f 013e efe5 a23d 66b8 e3bc
00000040: 1d41 0abd d6fa 0a3e f3de 58bd 4cb6 aebd
00000050: 78db c7bb 3480 2bbc abcb d03d 965e 5e3d
00000060: 99a5 513d 146b 9a3c 9c09 9e3d fefa 293e
00000070: 17e1 84bc f7fa 083c bd4b 1d3d 8d27 693d
00000080: 9cf3 79bc 2b51 333c c66d b4bd fe29 e33b
00000090: 6269 703d eb33 f23d d063 9bbd 2fbd 043d
000000a0: bfde bc3c 3610 d33d f940 fc3c e295 213d
000000b0: 9ac6 3bbd 343b 4bbd 4b3d 053d 4a2f 60bc
000000c0: 4257 4bbd e8df f33b 5e6f 61bb a9f3 a13d
000000d0: bb4b dc3d 43b0 373d f084 76bc 401b 693d
000000e0: 929d 8f3d ec90 b6bd 3acf 163d 9ff1 0a3e
000000f0: 5c34 72bd 565e 1a3e 3241 d63d 982b ecbc

network.4.weight f4 [32, 64]
0.060774803 0.13436198 -0.036859777 -0.048494957 -0.106950216 0.110585816 0.07782605 0.08248899
0.016247878 -0.029234985 0.1535026 0.18150756 0.008092853 0.054202892 0.17072767 -0.008015221
-0.03449496 0.04816584 0.0554024 -0.064723566 -0.023716 -0.06968516 0.10881235 0.18656565
-0.083746016 -0.042779807 0.18685275 0.18719135 -0.11576531 -0.11779339 -0.075811625 0.10127484
-0.09173794 -0.1156593 0.12247576 0.029799528 0.118490726 0.13070947 0.008379935 0.057365272
0.078876145 0.2458845 -0.114439294 0.040704753 -0.071535975 -0.08593695 -0.023869617 0.074484676
-0.060176764 -0.18702681 -0.08897865 -0.17456332 0.038382202 -0.096389785 0.05956 0.16102473
-0.042342782 0.07977286 0.21086785 0.113057666 0.011348739 0.17326672 0.024221439 -0.057495467
0.041407585 0.13234094 0.09780106 -0.103367835 0.07345653 0.17045909 0.15409487 0.14857788
0.0074471226 0.027509585 0.21845235 0.17455241 0.0231778 0.14070956 0.16777687 0.03480006
-0.07633903 0.195687 -0.09912708 -0.10675952 -0.09773879 0.08857233 0.02581002 -0.033692542
-0.09735748 -0.16933644 0.09092486 -0.02645286 -0.06344611 -0.02296777 0.0044688582 -0.029463997
-0.015982762 -0.055884413 -0.020548435 0.0063353684 0.07834951 0.105908915 0.09442355 0.17832275
0.010925606 -0.12004565 -0.1200866 -0.03902699 -0.0632515 0.04606794 -0.1555047 -0.025284246
-0.05902929 -0.15081872 -0.24737288 -0.24307434 0.1208951 0.06162262 0.056498602 -0.033799414
0.0070423037 0.049427185 0.12529859 0.16232762 0.11632857 0.02175156 -0.17680456 -0.14626487
0.098911166 0.14596418 0.0055097034 0.116417274 0.04035699 0.104335815 0.12882695 0.063558005
0.09948398 0.11033266 0.1520047 0.0031914506 0.084427014 0.21767189 0.027916059 -0.058679543
0.0821472 0.13983925 0.0018038409 0.014185637 -0.07433048 -0.06647307 0.11471578 0.09131536
-0.021051593 -0.10855707 0.18715115 0.207949 0.059748996 0.0004021461 -0.09168298 0.034841202
-0.06528001 0.09723324 -0.0324643 -0.0033565296 0.13970108 0.18141188 0.038876012 0.16026206
-0.07535044 0.2209874 -0.015003947 -0.031407148 0.082564585 0.0638828 0.14034149 -0.046741612
-0.02005815 -0.1444892 -0.14000389 -0.07426135 0.10363579 -0.07740092 -0.002861306 0.20831233
0.007068881 -0.07664332 0.023447314 0.16897571 -0.1188599 0.21539722 0.020890754 -0.11924265
0.012205213 0.049291987 -0.00275065 0.10607591 0.0030645728 -0.027061522 0.07095821 0.06053187
0.038709164 -0.047066018 -0.09232329 -0.009677727 -0.13218953 -0.1145518 -0.1378959 -0.025420979
0.05713956 0.036902532 0.006927967 -0.08425592 0.05673249 0.00010022521 -0.031205246 -0.02208297
0.12107891 0.057674635 -0.087013096 0.04088764 0.090791196 0.08408037 -0.059975907 0.07747014
0.09165947 -0.12773034 0.037014484 -0.09162249 -0.081955716 0.0780145 -0.07262929 0.039531887
0.041166484 0.09065269 0.078144394 0.098298475 -0.083671 0.098198324 -0.059492122 0.009767309
-0.0011143386 -0.13320589 0.05878707 -0.142124 -0.09397195 -0.098340794 -0.11182797 0.043864876
0.06363362 0.0252956 -0.119103745 -0.04461681 -0.123998836 0.006890898 0.006987709 0.03163329
00000000: 00ef 783d 3096 093e 47fa 16bd a6a2 46bd
00000010: b708 dbbd d17a e23d 4463 9f3d fdef a83d
00000020: 451a 853c 357e efbc c92f 1d3e 1edd 393e
00000030: e397 043c da03 5e3d 3cd3 2e3e 4652 03bc
00000040: 964a 0dbd 8b49 453d a1ed 623d ca8d 84bd
00000050: 0f48 c2bc 18b7 8ebd 02d9 de3d 110b 3f3e
00000060: 0883 abbd e139 2fbd 5456 3f3e 17af 3f3e
00000070: 5d16 edbd a93d f1bd 2043 9bbd 2f69 cf3d
00000080: 1ae1 bbbd c8de ecbd 92d4 fa3d 241e f43c
00000090: 44ab f23d b4d8 053e ff4b 093c d9f7 6a3d
000000a0: d189 a13d 25c9 7b3e 265f eabd 07ba 263d
000000b0: 7481 92bd b6ff afbd 378a c3bc 6c8b 983d
000000c0: e97b 76bd f583 3fbe 703a b6bd bac0 32be
000000d0: a836 1d3d 0268 c5bd 30f5 733d abe3 243e
000000e0: a06f 2dbd f45f a33d beed 573e c78a e73d
000000f0: 10f0 393c d56c 313e 0a6c c63c 5e80 6bbd
00000100: 009b 293d 6284 073e ec4b c83d 84b2 d3bd
00000110: 6170 963d d48c 2e3e 0ccb 1d3e cd24 183e
00000120: fe06 f43b c85b e13c f9b1 5f3e debd 323e
00000130: 5fdf bd3c 2b16 103e b3cd 2b3e 828a 0e3d
00000140: a357 9cbd 2c62 483e 2303 cbbd bca4 dabd
00000150: 462b c8bd 6965 b53d 896f d33c 3101 0abd
00000160: 5c63 c7bd 8866 2dbe d036 ba3d abb3 d8bc
00000170: 09f0 81bd e826 bcbc 806f 923b 7b5e f1bc
00000180: 48ee 82bc 0ee7 64bd 3155 a8bc ec98 cf3b
00000190: b575 a03d c6e6 d83d 2261 c13d 3d9a 363e
000001a0: 5001 333c 7eda f5bd f7ef f5bd c4da 1fbd
000001b0: 018a 81bd bcb1 3c3d a03c 1fbe e820 cfbc
000001c0: b2c8 71bd 3970 1abe 514f 7dbe 7be8 78be
000001d0: da97 f73d 0068 7c3d 146b 673d 4171 0abd
000001e0: 20c3 e63b 2974 4a3d 464e 003e 3639 263e
000001f0: ac3d ee3d 5430 b23c 410c 35be 75c6 15be
00000200: f091 ca3d a277 153e be8a b43b 2e6c ee3d
00000210: 5f4d 253d 04ae d53d 36eb 033e b32a 823d
00000220: 42be cb3d 17f6 e13d 1fa7 1b3e a827 513b
00000230: 12e8 ac3d 61e5 5e3e 38b0 e43c f659 70bd
00000240: cb3c a83d 0532 0f3e db6e ec3a e06a 683c
00000250: 943a 98bd 0823 88bd 1bf0 ea3d 8c03 bb3d
00000260: 6474 acbc 2b53 debd 8da4 3f3e 95f0 543e
00000270: 5dbb 743d 23d7 d239 49c4 bbbd a6b5 0e3d
00000280: 87b1 85bd 3922 c73d 49f9 04bd 39f9 5bbb
00000290: cd0d 0f3e 09c4 393e 743c 1f3d bd1b 243e
000002a0: 5551 9abd 854a 623e 1dd3 75bc c8a4 00bd
000002b0: 9f17 a93d fcd4 823d aeb5 0f3e 2274 3fbd
000002c0: fd50 a4bc faf4 13be 2e5d 0fbe 5616 98bd
000002d0: 003f d43d 6084 9ebd c084 3bbb d44f 553e
000002e0: 12a2 e73b 2cf7 9cbd 9514 c03c f807 2d3e
000002f0: d26c f3bd 1791 5c3e 1623 ab3c 7e35 f4bd
00000300: 60f8 473c 65e6 493d 4044 34bb 543e d93d
00000310: 00d7 483b 20b0 ddbc 8a52 913d 44f0 773d
00000320: 808d 1e3d 4cc8 40bd fe13 bdbd 548f 1ebc
00000330: b15c 07be 229a eabd 9534 0dbe a83f d0bc
00000340: 2c0b 6a3d 1c27 173d 0004 e33b 5e8e acbd
00000350: 5460 683d 0030 d238 25a2 ffbc 58e7 b4bc
00000360: 38f8 f73d 3d3c 6c3d ec33 b2bd cc79 273d
00000370: bcf0 b93d 5432 ac3d 4ca9 75bd aaa8 9e3d
00000380: f6b7 bb3d becb 02be 809c 173d 92a4 bbbd
00000390: 66d8 a7bd 11c6 9f3d aabe 94bd 30ec 213d
000003a0: 309e 283d 1ea8 b93d 2b0a a03d b650 c93d
000003b0: b45b abbd 341c c93d 03ae 73bd 1007 203c
000003c0: 000f 92ba 2067 08be b6ca 703d f488 11be
000003d0: 5e74 c0bd e666 c9bd 1006 e5bd a8ab 333d
000003e0: 5852 823d b838 cf3c aaec f3bd 1ec0 36bd
000003f0: 1af3 fdbd 0bcd e13b 27f9 e43b e991 013d

network.4.bias f4 [32]
0.12721506 0.003530569 0.20027108 -0.03065951 0.19541131 -0.016183686 -0.11377357 0.08247352
0.020186648 -0.061395347 0.06848585 -0.027364453 -0.112118155 0.015481371 0.08006406 -0.05764905
0.14497758 -0.11276586 0.12598507 0.11045139 0.10477295 0.029485485 -0.09502734 -0.028168242
0.03872626 0.060316857 -0.051142026 -0.07821165 0.09376742 0.023016958 0.08296282 -0.024311442
00000000: aa44 023e 1e61 673b dd13 4d3e a729 fbbc
00000010: e719 483e a693 84bc 1e02 e9bd e0e7 a83d
00000020: 785e a53c b079 7bbd 4f42 8c3d 6b2b e0bc
00000030: 349e e5bd 94a5 7d3c a0f8 a33d 6921 6cbd
00000040: 0175 143e caf1 e6bd 3b02 013e 5734 e23d
00000050: 3393 d63d 8b8b f13c b29d c2bd 16c1 e6bc
00000060: 6d9f 1e3d cf0e 773d 4d7a 51bd 6e2d a0bd
00000070: 2209 c03d 0f8e bc3c 69e8 a93d ca28 c7bc

network.6.weight f4 [1, 32]
-0.18616503 -0.12185492 -0.17171149 -0.055674024 -0.18113238 -0.21752128 -0.08887756 0.23194295
0.22337322 0.017486267 0.054333344 0.07330448 0.15531375 -0.1353585 -0.14606553 0.18397872
-0.16927962 -0.03329405 -0.17766719 -0.21294549 -0.22280037 0.010274378 -0.10328967 0.11401587
0.18630217 0.06853376 -0.19030793 0.1170213 0.009212339 0.1477755 0.07334698 0.04992109
00000000: 0ca2 3ebe 138f f9bd 23d5 2fbe 720a 64bd
00000010: c47a 39be e6bd 5ebe 7005 b6bd 7482 6d3e
00000020: f3bb 643e 5c3f 8f3c a48c 5e3d a920 963d
00000030: 910a 1f3e 6b9b 0abe 3492 15be eb64 3c3e
00000040: a357 2dbe 575f 08bd 63ee 35be 620e 5abe
00000050: c825 64be dd55 283c 8989 d3bd 2781 e93d
00000060: ffc5 3e3e 6e5b 8c3d 15e0 42be dda8 ef3d
00000070: 5aef 163c 7652 173e f136 963d 0f7a 4c3d
