signals/MultiSignalClassifier_model.pth (torch, 276825 bytes, 11 tensors)

shared_layer.0.weight f4 [128, 320]
00000000: 30d6 06bd 1cfa 49bc 623a 16bd 3a29 fcbc
00000010: 8057 373a aa30 0f3d 7d56 52bd cc2c 523d
00000020: 25d2 22bd 9cc1 a43c 6c1a 3e3d 9f24 4ebd
00000030: dbf0 62bd a8d5 b8bc 785a e6bb f6f4 12bd
00000040: b8a0 203d 29f4 25bd 2c87 223d befa 263d
00000050: c5a5 34bd d0d0 633d df9b eebc 666f 99bc
00000060: 1e4b 213d 48d2 003d 68e8 243d 9030 013d
00000070: 60cb bc3c 9097 a83c 3ccb 10bd 001f fe3c
00000080: 88f0 aabb 8cf4 e23c 14c1 e93c 4078 65bc
00000090: 0e75 093d 40f8 393c 0af0 b6bc ec21 e23c
000000a0: 78cd 2bbc ace7 f53c 8041 143d 34bd efbc
000000b0: d40f 9f3c 2c52 463d c1a1 26bd 6b0c 38bd
000000c0: 1926 53bd 5468 f53c aea5 553d fcbb c23c
000000d0: 40b3 133d 70b8 3a3d ea5c 043d a007 723b
000000e0: 249a 53bc 34e4 243d 50cf d13b 487d 303c
000000f0: 00d7 efb9 8cd3 12bc 8ef8 84bc 1ba4 24bd
00000100: d2b8 1c3d ce07 593d 22b7 8bbc d0e5 ef3c
00000110: cce2 0fbd d702 5cbd 4886 aabc e069 063c
00000120: 3c23 9c3c 0cd1 3e3d 382b 4abc 3006 0abd
00000130: 58b5 f13c 9448 143d 7af8 88bc 90dc 593c
00000140: a43a 38bd 3823 fb3c 0e66 86bc 3803 023d
00000150: a67a c8bc e88e dabb 9055 a5bc 6080 0b3b
00000160: 5017 3a3d d8b9 0bbd b091 6d3c e876 7d3c
00000170: 309d 383c 04f1 f63c b2b8 9dbc e072 343d
00000180: 144e dc3c 3eaa 4d3d 0051 bfb9 ac91 d2bc
00000190: c66a a8bc 44a8 113d 1842 1b3c 4e86 2dbd
000001a0: dbb1 5dbd 422a 193d 9288 83bc d02a 983b
000001b0: e062 323d 39d8 4fbd 68b9 c3bc e0cf 64bd
000001c0: 6244 dfbc 4865 9abc 98b9 183c 2053 87bc
000001d0: 60af a23c 1678 153d f025 a5bb b294 3abd
000001e0: 3859 78bc a811 843c 0c7e b0bc 8567 13bd
000001f0: 6179 cfbc 0893 1b3c e683 14bd 44a2 39bd
00000200: 48b1 c9bb 7078 333d 704d d53c c0ab b33b
00000210: 4008 00ba 76e9 b1bc b082 7a3c 6ca4 553d
00000220: 628d 323d 4689 b4bc 58bc 58bd 88e3 9a3b
00000230: f606 053d 4e22 0a3d 88bf 8ebc c0c9 083c
00000240: b4b3 c93c 600a 85bc 4848 94bb 572a 56bd
00000250: 7036 22bd 4848 1b3d d021 923b 4c0e bb3c
00000260: c04f f1bc 3ac6 1b3d e050 b7bc 5829 a83c
00000270: 70e7 5f3d beb2 81bc 405d 48bc 0409 e7bc
00000280: 4e1d cebc 74e3 a1bc 7e4c 8cbc dc97 363d
00000290: 50d3 e63b fa73 3dbd e8aa 413d 4a3c bfbc
000002a0: bc1e 913c b8bf 9d3b c196 fdbc a871 203d
000002b0: 5d83 5abd d03f b83c 4899 c53b 760f 233d
000002c0: b8af c43b 8c82 a53c 5e29 90bc aff7 2ebd
000002d0: 90a4 fa3b 7edb 24bd 7717 25bd 8c49 2ebc
000002e0: 8cc8 ab3c e075 71bb 703d 1b3c d02b e53b
000002f0: 5e38 05bd 70e9 443c 204f 003c 14de 8dbc
00000300: 242a 0e3d 0cbf cc3c 6d8c 02bd 5eb4 5b3d
00000310: 303d f53b 17d1 45bd 52db 193d 0d87 37bd
00000320: 00fb 353c f43c 34bc e939 dcbc c05f 7f3c
00000330: 72a8 503d e03d e53b 4e55 01bd f81c 703c
00000340: e065 123c 17af 14bd ec11 1e3d 0024 5ebb
00000350: c406 4c3d 0d9c 29bd 22e1 22bd 16c0 59bd
00000360: 90a0 e63b f0c3 5d3c abaa 30bd ee0a 453d
00000370: b061 01bd 80ba 123d e9b4 dcbc a0d0 bd3c
00000380: 9873 483c dc77 913c 5e9d 1bbd 22a8 1e3d
00000390: 0b03 2abd 4033 253d f023 03bd deab 533d
000003a0: 066e 563d a55c d0bc 50b8 4c3b b0b5 3fbc
000003b0: 90b3 913b aef6 4c3d 14c7 b83c aa3f f8bc
000003c0: d0c7 9a3c a2a9 133d 1bcf 0fbd a0e4 e03b
000003d0: a097 e83c eee6 3bbd 204a c0bc 0e24 273d
000003e0: 0032 9fbb a092 3d3c 5a8f 273d 3863 5d3d
000003f0: 940d 843c 706d ebbc 64b1 103d b81c 20bd
-0.03291911 -0.012327697 -0.036676772 -0.030781377 0.00069939345 0.03495852 -0.051352013 0.051312253
-0.03975119 0.020111851 0.046411917 -0.050327893 -0.05540548 -0.022562817 -0.0070298277 -0.035878144
0.039215773 -0.040516052 0.03967969 0.04076647 -0.044103403 0.05561906 -0.02912706 -0.018729877
0.039378278 0.03145054 0.040260702 0.031540453 0.023046196 0.020580083 -0.03535007 0.031020641
-0.005216662 0.0277045 0.02853445 -0.014005721 0.033558898 0.011350691 -0.022331256 0.027604066
-0.010485999 0.030017696 0.03619528 -0.029265024 0.019416727 0.04841821 -0.040681604 -0.044933718
-0.051550005 0.029956974 0.052159958 0.023771279 0.036059618 0.04558605 0.032315172 0.0036930814
-0.012915168 0.040256694 0.0064028874 0.010772057 -0.0004574582 -0.0089615695 -0.016231801 -0.040195566
0.038262196 0.05298596 -0.017055098 0.029284388 -0.0351284 -0.053713646 -0.020815983 0.0082039535
0.01905977 0.04658608 -0.012339406 -0.033697307 0.029505417 0.03620203 -0.016720045 0.013297215
-0.0449778 0.030656442 -0.016406085 0.03174135 -0.024472546 -0.006669868 -0.020182401 0.0021286234
0.04543239 -0.03411278 0.014500067 0.015470244 0.011267945 0.030144222 -0.019253109 0.044054866
0.0268927 0.050211184 -0.0003649071 -0.025704227 -0.020558726 0.03556086 0.009476207 -0.04236441
-0.054124694 0.037393816 -0.016056333 0.0046437755 0.043551326 -0.050743315 -0.02389212 -0.055862308
-0.027254287 -0.018847123 0.009321593 -0.01651913 0.019859016 0.036491476 -0.005039923 -0.045551963
-0.01515799 0.0161217 -0.021544479 -0.035987396 -0.025326433 0.009495504 -0.0362586 -0.045320764
-0.006155167 0.04381603 0.026037902 0.0054831207 -0.0004884042 -0.021717768 0.015289947 0.052158758
0.043591864 -0.022038113 -0.052913994 0.004726831 0.03247734 0.03372412 -0.017425314 0.008348882
0.024621822 -0.016240299 -0.004525218 -0.052286472 -0.039602697 0.03791073 0.004459597 0.022833966
-0.029456973 0.03803084 -0.022377431 0.020527527 0.054664075 -0.015832301 -0.012229264 -0.028202541
-0.025160458 -0.019761778 -0.017126318 0.044578418 0.0070442334 -0.046253182 0.04728213 -0.023344178
0.01771485 0.0048141144 -0.030955674 0.03917089 -0.053347934 0.022491366 0.0060302354 0.039809667
0.0060023926 0.020203851 -0.01759785 -0.04271668 0.007649012 -0.040248387 -0.04030558 -0.010637652
0.020969652 -0.003684394 0.009475097 0.0069937482 -0.03252446 0.012018546 0.007831365 -0.01731781
0.034708157 0.024993442 -0.0318722 0.05363881 0.0074841008 -0.048295107 0.037562676 -0.04480653
0.011107206 -0.0110008605 -0.026883082 0.015586793 0.050941892 0.0069959015 -0.031575494 0.014655344
0.008935422 -0.03629979 0.03859131 -0.003389597 0.04981114 -0.041408587 -0.039765485 -0.053161703
0.0070381835 0.013535485 -0.04313151 0.048106126 -0.031587303 0.03582239 -0.026941733 0.02317077
0.012234591 0.017757349 -0.037991874 0.038734563 -0.04150681 0.04033208 -0.032016695 0.051677577
0.05235102 -0.025434801 0.0031237788 -0.0117010325 0.0044464543 0.05003994 0.022555865 -0.030303795
0.018894106 0.036050446 -0.03510962 0.0068631917 0.028392613 -0.04587453 -0.023472846 0.04080587
-0.0048582554 0.011570603 0.040908195 0.0540497 0.016119756 -0.028738707 0.035325423 -0.03908989

shared_layer.0.bias f4 [128]
00000000: 802a 40bd 5362 fa3b 505a 163e 0466 30bd
00000010: db01 863d 58bf e23d 24ef 293d fa74 c63b
00000020: 36ae 10bd 65de ba3d b920 613d dcb7 2a3e
00000030: 9551 103d 3c3e 523d 5fab e23c 1ad3 443e
00000040: 1886 e23d dde2 373d b047 29bd f957 363d
00000050: 4776 f03b aa89 5cbd 2258 0cbc 5cd8 5bbd
00000060: e59e 503e 0e27 543d aa5a 883a 2824 4d3d
00000070: 1e31 213e 58a1 8c3d 6b0e 5a3e d336 73bd
00000080: 7659 db3c c43f 41bd e727 ac3d 8d6c b0bc
00000090: faca f43c bf3e 9b3d a144 a53d eedb 30bd
000000a0: 9229 aeba 8385 f8bc d316 e13d 25d7 31bd
000000b0: 3119 c13d de55 85bc 57ba ea3d e141 2fbd
000000c0: f6bf 64bd 766d b7bc c2be 553d 4083 a3ba
000000d0: e58e 0c3d 5e39 60bc fa51 9d3d 7ce3 30bc
000000e0: a8ba 0ebc a4b7 5e3d 7a51 4f3d 8d22 8a3d
000000f0: 6f90 4f3c 4f81 01bd a700 d3ba 8171 8d3d
00000100: 9ef1 163e 1edb 22bd 306c 64bd e8a1 853d
00000110: 7715 043d ce9d 8ebc ba30 20bd 31d3 e43d
00000120: 1b7d 213e 9fd5 4c3c d9dd c6bc bd68 bc3d
00000130: 3c72 2ebd 3cec 113d 386a 1f3c e75e 0b3d
00000140: ab02 30bd 6310 4abd ad2f a43d 1ef6 e43d
00000150: 6aaa a6bc 82d5 cf3d da19 bebc 0ab8 9ebc
00000160: 10ea de3d 2683 40bd 68fb 573d ac22 c93b
00000170: 63d0 d4bc d466 8bbb 10b8 31bb 6de3 4a3d
00000180: 44d2 f7bc 5151 b03c 2543 cf3b 573c c1bb
00000190: 11af 6d3d 1dbe 533d b0bb 653b 285f d9bc
000001a0: 8053 61bc c6ce fbbc cd9a 683d cd6d bc3d
000001b0: 260b cbbc 1dfb 0c3d 9b99 563c 30df 34bc
000001c0: 1bbc 53bd 6317 11bc eb85 a7bb ad2a d03d
000001d0: 84f8 673d daa6 52bd 2745 993b 4c23 3ebd
000001e0: 10fc 053d c272 723d 6ee8 4b3e c15e aa3d
000001f0: 4e20 46bd c55f ee3d a9e2 163d 18ef f3bc
-0.04691553 0.0076411157 0.14682889 -0.04306604 0.06543323 0.11071652 0.041487828 0.006056425
-0.03532239 0.0912445 0.054962847 0.166717 0.035234053 0.051328883 0.027669607 0.19221154
0.110607326 0.044894088 -0.041328132 0.04451749 0.0073383185 -0.053842224 -0.008565934 -0.053673133
0.20373113 0.051795058 0.0010402997 0.05008331 0.15741393 0.068667114 0.21294563 -0.059378456
0.026776057 -0.047179952 0.08406048 -0.021536136 0.029881943 0.07580327 0.080697306 -0.04317849
-0.0013287535 -0.0303371 0.109906815 -0.04341807 0.09428633 -0.016276296 0.11461323 -0.042787436
-0.05584713 -0.022391062 0.052183874 -0.0012475029 0.034315962 -0.013685552 0.076816514 -0.010796424
-0.0087114945 0.054374352 0.05061481 0.06744871 0.012668713 -0.03161746 -0.0016098217 0.06906415
0.14740607 -0.039759748 -0.05576724 0.06525022 0.032247033 -0.017409232 -0.03910897 0.11173094
0.1577038 0.012502103 -0.024275707 0.09199665 -0.04258941 0.03562568 0.009729914 0.034026053
-0.042971294 -0.049332034 0.08016906 0.11179756 -0.020344932 0.10148145 -0.023205686 -0.019374866
0.10884488 -0.047000073 0.052729994 0.0061381664 -0.025978273 -0.0042542014 -0.0027117766 0.049533296
-0.03025163 0.02152315 0.006325143 -0.0058970856 0.058028284 0.051694978 0.0035054497 -0.026534632
-0.013752818 -0.030738246 0.056788255 0.0920063 -0.02478559 0.034419168 0.013098146 -0.01103954
-0.051693063 -0.0088556735 -0.0051124 0.1016439 0.056633487 -0.051428653 0.004677433 -0.04642038
0.03271109 0.059191473 0.19912884 0.08318854 -0.048370652 0.1163936 0.036837254 -0.029777095

shared_layer.2.weight f4 [64, 128]
00000000: 84c0 4bbd 7516 8cbd 4a64 60be d3ba 943d
00000010: ba27 d93d 6220 febd 6c3d 7d3b 337c 98bd
00000020: 0f02 9b3d be05 e4bc 9699 3ebd c08d f8bd
00000030: 4867 b7bd 3eb7 b9bd edf9 8b3e 7ed0 80be
00000040: 26e8 f1bd 7016 b53d 4679 5b3d a837 78bd
00000050: 061d 34bd 40ce 3e3b 52cc c0bd 3784 923d
00000060: d954 d83d 9a34 b93c bfb6 ae3c 348e 143d
00000070: 3777 623d a102 35bd 505a 8e3d cb7e 93bd
00000080: 7633 b4bd e2e0 a9bd ba16 29bc c9e8 113d
00000090: ce27 c5bd 1b6b 9cbd 73a8 c4bc 100f f6bc
000000a0: 79f3 85bd 567d 603d 8864 203d c58a 873d
000000b0: d0ee bbbc a1f9 6abd 7375 fcbc 5e98 aebd
000000c0: b2d3 4c3d 6006 bc3c caac 4e3c 3007 2bbd
000000d0: 11c7 82bd 101a 3b3d cf08 f4bc 7ac8 073d
000000e0: da7a 323d 7a98 233d a60b 52bd f632 9bbc
000000f0: 2097 b5bd a8fa c1bd 26b5 61bd fa0f 423d
00000100: 5f1e c2bb e364 a63c 201b 4b3b b1ae 1cbe
00000110: bc2b 8b3d 3cf9 db3c d31b 853d da2b 233e
00000120: d088 cebd 6ac7 373d 102a ddbc 7cc9 bd3b
00000130: 321d 2a3d 9a8b 2b3e e30f 7fbc 0a4b 2f3d
00000140: 7742 973c 2f52 0fbc 7624 353d d004 633d
00000150: 5c24 dd3c b2d9 663c df53 aa3d cd84 b3bd
00000160: b58f 61bd 71d7 843d 72f5 933d 3a20 663d
00000170: 8155 843d bba3 69bd ab41 3f3c 19cf 253b
00000180: da4c 74bd 2406 0b3c 33b7 c63e ce90 7cbc
00000190: 5f7b b53d 0535 cebd 08f8 b3bd 2f01 953d
000001a0: f76f 423c e047 973b 7d46 acbd 8af5 bdbd
000001b0: 1a51 3a3d 13ab 973d 9d1f 11bd 709c e5bc
000001c0: 7840 eebc afec bb3e bd75 bbbc 071e 0dbb
000001d0: b7cf 46bc 2e61 1b3d 4a1e 97bc d35c 9ebd
000001e0: caf0 d83d 2ba0 b13d a535 13be 3629 86bb
000001f0: 88c4 113c d7a7 383c d3ad 193d 1b8f 953d
00000200: 903f e23b 56e7 613d 2365 83ba 01c3 b73c
00000210: 1cae 5d3d 465e 103e 92b5 f6bc 4084 f7bc
00000220: ad90 86bd 842c 883b d814 22bb 3439 9d3d
00000230: b1d7 5f3d 1d5e fb3c f967 a9be 7986 5f3e
00000240: fa39 8e3c 8231 b13d 24ba 62bd a86b c83d
00000250: bbb3 14bd b7a7 33bd 0185 983d d6fc a23c
00000260: 0677 333e 2582 c63d dabb ba3d 97e0 26bd
00000270: 4eb1 e93d 2263 823d c9f7 753e 29a6 dcbc
00000280: c7e2 f4bc 5530 66bd f4cd a03d 2cdb b23d
00000290: 7750 9b3d 35c1 d23c d251 be3d bd32 803d
000002a0: 6bbd 143d f82b 7d3d 01fa 093e 1efd 2a3c
000002b0: e389 1c3e 643a cf3c 330b e83d 0897 213c
000002c0: aa32 a8bd df6e 03bd e90d e73c a0c4 453c
000002d0: 882d 243d d837 4cbd 0f85 58bc e10a a5bd
000002e0: 1a3d 133d a66a 18bd 954d 2b3d 4496 be3d
000002f0: 53c6 dd3d 885a 9c3d 6369 86bd 46cb b23d
00000300: 6e65 113e 2e86 6b3c 3293 8cbd 18a2 2a3d
00000310: 1d0b 4fbc 0c30 d13c 3e8e 70bd c3d0 d73c
00000320: fd19 7e3d d70b 9abd 987c 5c3d 4b01 e83d
00000330: fc84 a33c c9f5 30bd c399 46bd 3962 d43d
00000340: 209c 96bd 3b45 b93d 28dd d23d 01ad 383d
00000350: 8c77 99bd a5a7 613d 62e5 6c3d 6378 c9bb
00000360: 519e ec3d 21f6 813d 3cd1 1a3b f0a7 493d
00000370: f770 7fbd a74f 443b a438 dd3b 151f b53d
00000380: b089 73bc e4fa 9eba a923 a0be 4547 c5bc
00000390: a89c 2f3d 5900 a43d 5fd6 993d 8878 ad3c
000003a0: baee 90bc 08a1 30bd 0e7b c73d 211f e1bc
000003b0: 22c6 6a3d 43ee 773d 801e 8cbd 3c2a efbc
000003c0: 61f9 94bd e90d b2be 0141 98bd 5da3 4f3d
000003d0: f05b 8c3b 2858 893d 9c62 ab3d 07a7 2bbc
000003e0: cb29 8f3b a970 793d 5536 6b3e ecc5 4b3d
000003f0: 44ab 5c3d c8fe 253e 8bac 153d a8c7 7fbd
-0.049744144 -0.06840221 -0.21913257 0.072621964 0.1060328 -0.1240852 0.0038641347 -0.07445564
0.07568752 -0.02783477 -0.04653319 -0.12136412 -0.08955246 -0.09068154 0.27339116 -0.25159067
-0.11811857 0.0884217 0.053582452 -0.060599953 -0.04397299 0.0029114634 -0.09413971 0.07154124
0.105630584 0.02260809 0.021327375 0.036268428 0.055289473 -0.04419196 0.069508195 -0.07201918
-0.08798878 -0.08294846 -0.01032036 0.03562239 -0.09626733 -0.07637616 -0.024006104 -0.03003648
-0.06540579 0.05480703 0.039158374 0.06618265 -0.022941023 -0.05736697 -0.030817723 -0.085251555
0.050006576 0.022952259 0.012614438 -0.0417549 -0.06385625 0.045679152 -0.029789357 0.033150174
0.04357419 0.039940335 -0.05128064 -0.018945199 -0.088667154 -0.09471637 -0.055104397 0.047378518
-0.0059240307 0.020311778 0.003099151 -0.15301014 0.06795451 0.026852243 0.06499448 0.15934697
-0.10084689 0.04486791 -0.026997596 0.005791841 0.04153175 0.16752473 -0.0155677525 0.042796172
0.01846431 -0.008747621 0.044224225 0.05542451 0.026994877 0.014089989 0.083167784 -0.08765564
-0.05506869 0.06486405 0.07224549 0.056183077 0.06461621 -0.05704091 0.011673371 0.0025300442
-0.059643604 0.008485351 0.38811645 -0.0154153835 0.08861422 -0.100687064 -0.087875426 0.072756164
0.011867515 0.0046167225 -0.08411882 -0.092753485 0.0454875 0.07405677 -0.03543054 -0.028028697
-0.029083475 0.36704013 -0.02288329 -0.002153279 -0.012134484 0.037934475 -0.01844706 -0.077325486
0.10592802 0.08673128 -0.14375933 -0.004094268 0.008896954 0.011270485 0.037519287 0.07302686
0.00690455 0.05515226 -0.0010024648 0.022431852 0.05412112 0.14098462 -0.030115876 -0.030214429
-0.065705635 0.0041556973 -0.0024731662 0.07676926 0.05464906 0.030684525 -0.33087137 0.21828641
0.01736163 0.08652021 -0.0553533 0.09786159 -0.036304217 -0.043861117 0.074472435 0.019895952
0.17525873 0.09692792 0.09117861 -0.04074153 0.11410771 0.06366564 0.24020304 -0.0269347
-0.029893292 -0.056198437 0.078517824 0.0873321 0.07583707 0.025726894 0.0929295 0.062596776
0.036313456 0.06180951 0.13474275 0.010436324 0.15286975 0.025296398 0.11330261 0.009862669
-0.082127884 -0.032088157 0.028204875 0.012070805 0.040082484 -0.049857944 -0.013215317 -0.080587156
0.035946943 -0.037211083 0.041822035 0.09306005 0.10828843 0.07634455 -0.0656307 0.087301776
0.14198849 0.014375253 -0.06864013 0.04165849 -0.012636927 0.025535606 -0.058729403 0.026344663
0.062036503 -0.075217895 0.05382976 0.113283716 0.019960873 -0.04320315 -0.048486482 0.10370297
-0.07353997 0.09046408 0.102960885 0.045086864 -0.07493505 0.05509152 0.057835944 -0.0061483844
0.11553634 0.063457735 0.0023623249 0.049232423 -0.06236359 0.0029954703 0.006751137 0.08843819
-0.01486437 -0.0012129215 -0.31277207 -0.024081836 0.04287401 0.08007879 0.07511591 0.021175638
-0.017691959 -0.04312232 0.09740268 -0.027480664 0.05731786 0.06052996 -0.06841755 -0.029194944
-0.07274128 -0.34776238 -0.074342735 0.050692905 0.0042834207 0.067062676 0.083684176 -0.010476834
0.004368996 0.060898457 0.22969945 0.0497493 0.05387427 0.16210473 0.036541503 -0.062446266

shared_layer.2.bias f4 [64]
00000000: 5a69 b73d b50c ed3d 9107 cf3d 754d 4e3d
00000010: 24ac 72bd 5024 72bd db30 0f3e c05a bc3c
00000020: dbd4 8cbd 714e 7c3c 2fcf 37bd df20 84bc
00000030: eb0a 13bd 9660 88bd 960e 123e 0ce9 a03c
00000040: 5b32 0d3e cf58 fe3d 2e55 803d 609c b23d
00000050: bf11 bf3d 06d1 0a3c 96dc 95bd 1935 a13d
00000060: c872 06bc c02a ba3a 2dd4 0b3e 1e59 b2bd
00000070: a1e2 96bd 4e9b 0f3e 8ed9 8a3d ea36 87bd
00000080: 26f8 013e f721 ad3b e9cf bc3d 4f43 aebd
00000090: 005e fe3d 8c2a 173e cd4a d43d 840f 1c3e
000000a0: 7e44 09bb 6298 073e 867a 0dbd e198 083e
000000b0: cd51 8cbd ecc0 c5bd 6d17 a8bd c262 a43d
000000c0: f132 6abc 2108 05be 6436 4e3c f4b9 293d
000000d0: 9c81 0a3e 058b d53d 0d44 98bd b744 cc3d
000000e0: 1b4f 9bbd 4373 943c bcf8 043e 5963 72bd
000000f0: 4965 163e d3ec e6bc 76b7 dd3d 16fb 1c3e
0.08955641 0.11574689 0.10108865 0.050366838 -0.059246197 -0.05911666 0.1398348 0.022992492
-0.068765365 0.015399561 -0.04487532 -0.016128955 -0.035899084 -0.06659047 0.14263377 0.019642375
0.1378874 0.12419283 0.06266247 0.087212324 0.09329557 0.008472687 -0.07317464 0.07871456
-0.008206077 0.0014203414 0.13655157 -0.08708404 -0.07367445 0.14024088 0.067797765 -0.06602271
0.12692317 0.00528359 0.09219343 -0.08508932 0.12420273 0.14762324 0.103658296 0.15240294
-0.0020945366 0.13241723 -0.034540676 0.13339569 -0.0685154 -0.096559376 -0.08207593 0.08026649
-0.014294372 -0.12991382 0.01258621 0.041437104 0.13526005 0.104269065 -0.07434855 0.09974044
-0.075834475 0.018121367 0.1298551 -0.059176777 0.14687075 -0.028189098 0.10826008 0.15330157

attention.in_proj_weight f4 [192, 64]
00000000: 43d1 2d3d a27e d1bd f55b eabd baac b5bd
00000010: 0226 a73d 6799 e6bc 44b5 d4bd b42d 17be
00000020: d478 d3bd 4626 eabd 00e6 023c 15de b4bd
00000030: 411f 60bd 3436 a6bd 6af9 db3b e5a2 2c3c
00000040: 11f6 02bd c8ab 83bd 8c64 893d 50ee a43d
00000050: c30e 293d f811 0dbd dcb9 03bd e196 86bd
00000060: 4572 663d ba8e ca3d 6133 a93d 1ce3 38bd
00000070: e4d9 61bd 15e6 343d b11c 0e3e 3e6b 923d
00000080: 4e9c d33d 1fcc 0a3d 4164 e23d 86ac 91bd
00000090: 5bac 293b 4093 7fbc 11fc 003e af1b 063c
000000a0: 1b94 f23d 571f 12be a8ef d43e 9c4f 9ebb
000000b0: bbf4 05bd 6aaf dd3e 5813 1bbd 1f49 823d
000000c0: b94a b63d 5049 9cbd cef7 cb3c 0a31 52bd
000000d0: 0366 54bd 3804 a93c 62ae f03d a8ea ec3d
000000e0: 4bc2 a1bd 365c 993d 90d9 4fbd ca68 e03d
000000f0: 6499 ca3d 891e 15bd fa94 1e3e 5bfb 5abd
00000100: 53bc 973e 7600 2fbc ab33 3dbe f5c1 3dbe
00000110: f9b9 9abd c0f7 e93d 10b8 02bc 0abf d9bd
00000120: 7ce8 7fbd 899d f5bb e000 3c3c 2fa2 b5bd
00000130: 9b53 63bc daef 1abe f072 40be f57c d7bd
00000140: 20a8 793e 7207 193b ed30 5cbc 98e9 1fbe
00000150: 3639 193d 95ce a63d 2c23 303d 79b9 4bbe
00000160: dbdb 1b3d bd60 17be 47d7 633b 1ce3 813d
00000170: 0858 efbc 519a a0bd 6eae 793c 5620 32bd
00000180: 86f1 293d 48ff 223e 29b9 6cbd b269 f53c
00000190: 8550 853d e2a4 01be c36a 1bbd c5e3 c0bc
000001a0: 527d b3bd e0e7 0abd 9962 b33e 0249 7b3c
000001b0: 8f71 403d 0b2d ef3d 4352 883d 3862 a9bd
000001c0: 09ae d6bd e61f 89bd 2239 e3bd 7c4e d3bd
000001d0: e29c 123d bfed 38be 9f1b 6d3d 4991 36be
000001e0: 0020 913d d936 05bd 590c 1d3d fa64 b4bd
000001f0: e54f 2ebd cbbc 9939 6f4e 71bd efbb febb
00000200: acb3 5cbe cf44 6a3d 8064 393e e84b 81bc
00000210: 6fe2 53bd dd46 c8bd 3835 f83d 4bcc da3d
00000220: 7acd a7bd 10ef 1f3e 7103 033e cf0d 1b3d
00000230: 76f3 26bd 888e f5bd a439 483e 2137 883e
00000240: 48c3 33be a86d 333e 2a15 c53d 4c24 293e
00000250: 0708 973d 9928 b03d 2865 023d 232b 57bc
00000260: 2473 04be 894d 1abe b8bd 3dbd 0630 c9bd
00000270: 4c41 12be 4d7a a8bd f7ea d7bb d83c 8d3c
00000280: fc5b f6bc f888 6ebd 47b2 fbbc 7480 6e3d
00000290: 29f1 0d3d d59f 4d3e dfe1 1f3e 331c fb3c
000002a0: 8bbd 2bbd c2db 843c 5741 d3be 7b91 4c3e
000002b0: 7fa0 19bd d103 97be 0d70 09be bf54 423e
000002c0: 5a9a cdbd d63e 15bd 49fa 9a3c 7775 113e
000002d0: df75 353e e9eb 743e 1718 123e b9b9 693c
000002e0: 1eec c9bd cb41 133e d96d af3d a487 dabd
000002f0: 0c36 473c c0c6 5dbc 9e81 353e de1f 103e
00000300: 63bb 68be 862e db3d 7a28 cebd 066f 093e
00000310: 29e2 b7bb b42e 5a3d 4e0d 933d b1c5 d63d
00000320: 3c2e 203d 3382 66bb 5655 f73d 1e36 eabd
00000330: ebc5 b4bd 55b5 0dbe fbb2 87bc f9e2 823e
00000340: bdca a4be 4761 153e 7926 4d3d 3a52 0b3e
00000350: 54b8 4d3e 8981 42bd fa87 96bd 0d56 903d
00000360: fdce d63d 9728 95bd 930c 303e 688a c4bd
00000370: 6b8d bdbd c6ce 0bbe 7d23 d3bc a068 1fbc
00000380: 3ba2 c5bd 9898 fabd 0719 133d f4b3 163e
00000390: 5e14 cb3c 3ade e33d adb7 96bd b610 843d
000003a0: 5b1e 183c b623 f53a 7390 c6be 467a f33c
000003b0: 70d2 e1bd 338d 18be 267d 9fbd 924b 1a3e
000003c0: f264 89bd 8557 ecbd 4b76 f73c 5e72 8bbd
000003d0: c126 8e3d 22f9 2b3e 9d78 e43d 54b5 163e
000003e0: 5c94 85bd e4d1 af3d 2bbe 1dbe 6e38 eebd
000003f0: 8b0a 773d bd6c c33d 1d81 113e 24cf 343e
0.042435896 -0.102292314 -0.11443321 -0.088708356 0.08161546 -0.02814932 -0.10386136 -0.14763528
-0.103257805 -0.11433081 0.007989407 -0.08831421 -0.054717306 -0.08115807 0.006713082 0.010536884
-0.03197295 -0.06429249 0.06708631 0.08053267 0.041273843 -0.034440964 -0.03215967 -0.065717466
0.05626132 0.09890504 0.08261753 -0.045138463 -0.055139437 0.044164736 0.13878132 0.07149361
0.10332547 0.03388607 0.11054278 -0.07112984 0.0025890085 -0.015599072 0.12596156 0.008185311
0.11844655 -0.14269768 0.41589093 -0.0048312675 -0.032704096 0.43297893 -0.037860245 0.06361603
0.08900971 -0.07631171 0.024898436 -0.0513163 -0.0518551 0.020631894 0.11752011 0.11568195
-0.078983866 0.07488291 -0.050744593 0.10957487 0.09892538 -0.036406074 0.15486518 -0.053462368
0.29635867 -0.010681262 -0.18476741 -0.1853102 -0.07555003 0.11424208 -0.007978454 -0.10632141
-0.062477574 -0.0074955863 0.011474818 -0.08868825 -0.013874914 -0.15130559 -0.18793845 -0.105218805
0.24380541 0.0023350385 -0.013439399 -0.15616453 0.037408076 0.08144871 0.043002293 -0.19894971
0.038051467 -0.14782996 0.0034765766 0.06342146 -0.029216781 -0.078419335 0.015239341 -0.04348787
0.0414901 0.15917695 -0.05779377 0.029957626 0.065094985 -0.12660554 -0.037943613 -0.023546109
-0.08764137 -0.03391254 0.35036162 0.015337231 0.046983298 0.11678513 0.06656315 -0.08270687
-0.10482413 -0.06695537 -0.110948816 -0.10317704 0.035794146 -0.18059443 0.05788767 -0.1782886
0.07086182 -0.03252301 0.038341854 -0.08808322 -0.042556662 0.00029323096 -0.05891269 -0.0077738683
-0.21552914 0.057194527 0.18104744 -0.015783265 -0.051729616 -0.09779141 0.12119526 0.10683497
-0.081934884 0.15618539 0.12794282 0.037854966 -0.040759526 -0.11990076 0.19553238 0.2660456
-0.17554963 0.175223 0.09623177 0.16517752 0.07374578 0.086014934 0.03183475 -0.013132843
-0.12934548 -0.1506864 -0.046323508 -0.09823613 -0.14282721 -0.08226452 -0.0065892893 0.017240927
-0.030073158 -0.058236092 -0.030724658 0.05822797 0.034653816 0.20080502 0.15613507 0.030653095
-0.04192881 0.01621807 -0.41260788 0.19977371 -0.037506577 -0.294951 -0.1342165 0.1897764
-0.10039206 -0.03643688 0.018918173 0.14204966 0.17720746 0.23918118 0.14267002 0.014265471
-0.09859489 0.14380567 0.08565874 -0.10670403 0.012158882 -0.013536155 0.17725226 0.14074656
-0.22727732 0.10702233 -0.10066314 0.13421258 -0.005611677 0.053267196 0.07180272 0.104869254
0.039106593 -0.003517282 0.120768234 -0.11436103 -0.08826812 -0.13838704 -0.016564837 0.2556379
-0.32185927 0.1458789 0.05008552 0.13605586 0.20089847 -0.047486816 -0.07350154 0.07047663
0.10488699 -0.072831325 0.17192297 -0.095967114 -0.09255489 -0.13653097 -0.025773758 -0.009729534
-0.09650084 -0.12236136 0.03591254 0.14717084 0.024789985 0.11126371 -0.07359252 0.064485
0.009284581 0.0018702659 -0.3878208 0.02972139 -0.11026466 -0.14897613 -0.07787542 0.1506789
-0.06708707 -0.115401305 0.030207774 -0.06808923 0.069409855 0.16794255 0.11155818 0.14717609
-0.06522438 0.08584955 -0.15404575 -0.11631857 0.06031279 0.095422246 0.14209409 0.17657143

attention.in_proj_bias f4 [192]
00000000: eeda 353d c00b f1bb 2caf 1238 e60a 13bd
00000010: e758 61bc 7570 cfbd 4393 023c 0e01 373c
00000020: f4d5 913d e745 cabc ca07 153e 7430 4fbe
00000030: 29ed 0f3d 7fb9 063e c7d6 e6bd 9dfe 77bc
00000040: d2c6 113e 36e6 e53d d673 8d3e f068 96be
00000050: e44d 55be 6314 0ebe 4d0e 4bbe eb36 873e
00000060: 12fe 1bbe b557 243e 91cc 4fbe d3f5 21be
00000070: 234b a2be 8e36 39be 23af b43e 9ec3 28be
00000080: 2ffc 393e b12e 6bbe cc7e 23be 8f7b 263e
00000090: b902 433e be85 123e b83b 16be e7ca 81be
000000a0: 1aef 28be ef47 3bbe 5a11 1f3e ad5a 22be
000000b0: c255 3a3e 0e11 32be 8e2a a63e 75ce 823e
000000c0: 3839 24be 8b61 07be fe4e 473e 0773 dd3d
000000d0: 5392 32be a47b 983d cec7 07bb 5269 d23d
000000e0: 4664 ec3d 7355 763e bc21 01be 400b 38be
000000f0: 9068 913d 2e94 c6bd 76e3 e2bd 1846 08be
00000100: 33e5 1839 20db 05bb 07fb aa3a 2c16 1c3b
00000110: b3a8 a63a 30b8 203b 4835 693a 2607 faba
00000120: 5ea6 833a c9c2 203b 08db 40bb 7dc8 7eb9
00000130: 9f64 293a 032a 53bb 67d5 463b acdd 253b
00000140: c068 67b9 13bf 74b7 d23a 7bb9 dd60 6438
00000150: 1ebc 04b8 eb7b 1739 77ed 3039 3f56 b9b9
00000160: 657e a139 84a9 32b9 138c 8d39 79f4 4b39
00000170: 68c3 cd39 59eb cb39 94f2 35b9 3be9 8f39
00000180: e8f2 e7b8 2934 8fb7 e71d 0ab9 8132 09b8
00000190: c34f efb8 ea33 88b8 5c61 ed38 851a db38
000001a0: 03bb 023a 15ad bc39 c7df 9c38 01e1 5d39
000001b0: 0881 8338 0ac3 5839 f443 a6b9 f26f 52ba
000001c0: 8eb8 b03a bdad df3a 719c d7ba 2491 b4ba
000001d0: c653 163a fb0c 28ba f006 3dba 4b2b 9aba
000001e0: e0a2 9dba bf1c b937 9a76 c93a ac46 7f3a
000001f0: f262 7aba d1b3 d03a cfd8 863a 49f1 953a
00000200: 3108 25bd 05b0 2abd 7f0e 09bd 93c7 393d
00000210: 3d3a 1c3d 002b 393d fd4d 20bd 41d7 b0bc
00000220: 3292 1a3d 3674 22bd 4833 05bc 02de 30bd
00000230: ccf8 f33b 2ebd 0fbd 937a f53c d0a3 28bd
00000240: e2bb 6fbd 4734 5b3d 8c0b 6dbd 29d3 d13c
00000250: 517a 6a3d 1f9c 61bd fd21 7dbd 958b 8d3d
00000260: 71ce 8a3c d4d9 523d 468b 67bd e111 8a3d
00000270: a798 823d 6281 3cbd 5bb1 54bd f025 743d
00000280: f1d8 3f3d 9c19 573d d540 6fbd 593b 4e3d
00000290: 8d05 86bd 91f0 7d3d 85dc 4abd a23f 213d
000002a0: 398d 29bd 9b1b 573d 1d34 2e3d 7bb4 203d
000002b0: ccc0 5dbd da00 56bd afc9 763d c820 62bd
000002c0: 97d0 463d c489 3abd bbe9 563d 4405 58bd
000002d0: 9755 4dbd 0af5 3dbd c259 383d a3c4 73ba
000002e0: f095 333d 75ff 54bd 33ca adba 411c 46bd
000002f0: 7b73 6d3b 4d5b e0bc c6cb 3d3d d358 443d
0.04439824 -0.007356137 3.4972254e-05 -0.035899065 -0.013754106 -0.10128871 0.00796968 0.011169685
0.071208864 -0.024691535 0.14553753 -0.20233327 0.035138283 0.13156699 -0.11271434 -0.015136388
0.14236 0.1122555 0.27627438 -0.29376936 -0.20830494 -0.13874964 -0.19829674 0.26409087
-0.15233639 0.16049083 -0.2029288 -0.15816431 -0.3169795 -0.18087217 0.3528987 -0.16480872
0.18162607 -0.2296703 -0.15966338 0.16258071 0.19044007 0.14308831 -0.14671218 -0.25350115
-0.1649746 -0.18289159 0.15533963 -0.15854903 0.18196777 -0.17389318 0.32454342 0.2554814
-0.16037452 -0.13220803 0.19463727 0.10812955 -0.17438631 0.074454576 -0.0020718458 0.102739945
0.11542563 0.24056034 -0.12610525 -0.17973042 0.07100022 -0.09696232 -0.11078541 -0.13307989
0.00014581233 -0.0020424798 0.0013044783 0.0023816926 0.0012715071 0.0024523847 0.0008896184 -0.0019075617
0.0010044088 0.0024530164 -0.0029427428 -0.00024298015 0.0006461832 -0.0032221086 0.00303396 0.0025309129
-0.00022068899 -1.4588021e-05 -0.00023959138 5.4449647e-05 -3.164645e-05 0.00014446645 0.0001687313 -0.00035350208
0.00030802484 -0.00017038552 0.0002699798 0.00019450662 0.00039246236 0.00038894525 -0.00017351873 0.00027448856
-0.00011060183 -1.7071217e-05 -0.00013171845 -3.271038e-05 -0.00011411265 -6.494655e-05 0.00011319175 0.000104476734
0.00049869734 0.0003598711 7.4803414e-05 0.00021160023 6.270601e-05 0.00020672023 -0.00031712616 -0.00080275454
0.0013482736 0.0017065328 -0.0016449821 -0.0013776165 0.0005734529 -0.00064106256 -0.00072108116 -0.001176217
-0.001202669 2.2067105e-05 0.0015370429 0.0009738009 -0.0009551487 0.001592273 0.0010288003 0.0011439706
-0.040291015 -0.04167177 -0.03346109 0.045356344 0.038141478 0.045207024 -0.039136875 -0.021587016
0.03773708 -0.03966161 -0.008129902 -0.043180473 0.0074454304 -0.035092525 0.029965675 -0.04117185
-0.05852879 0.053516652 -0.05787234 0.025613384 0.057245556 -0.05508053 -0.061799992 0.06911389
0.016944142 0.05147727 -0.056529306 0.067416914 0.063767724 -0.046021827 -0.05192695 0.059606493
0.04683775 0.052514657 -0.058411438 0.050349567 -0.065440275 0.061997 -0.04952671 0.039367326
-0.041394446 0.05251656 0.042530168 0.03923462 -0.054138944 -0.052246906 0.060250934 -0.055207044
0.04853877 -0.04554154 0.052468996 -0.052739397 -0.050130453 -0.046376266 0.045007475 -0.00092990155
0.043844163 -0.052001435 -0.0013259113 -0.04836679 0.0036232162 -0.027387286 0.04633691 0.047936272

attention.out_proj.weight f4 [64, 64]
00000000: fee6 0cbd a2ad f4bd 7bb1 b93d 71d0 ffbc
00000010: 3b64 ebbc 4a27 bf3d 4369 31bd 739f 9e3d
00000020: f4f6 053e 3050 b73d c9e4 9b3d bef0 2a3d
00000030: 5262 403d c6a7 343d 3bf9 dcbc 5b6e 9d3d
00000040: af75 f3bc 3069 6ebd c056 33bd 30e9 c3bc
00000050: 535a 05bd 6f6b 943c 5ee1 a53d 7dfe f6bc
00000060: 392b 6d3d 9c61 50bd 0336 a9bd 0f11 aebc
00000070: 3564 b8bd 3b5b f13c 87c2 b63c f58d 2bbd
00000080: f6ad 073e 73bc 40bd bb05 b73d 1dd3 af3d
00000090: ba0c 70bd ba21 173e c2ca 35bd 8ba3 323e
000000a0: 977c acbd a8b6 4cbc 101b d33d 1a7c fe3d
000000b0: c1b2 83bd 3ab2 5cbd 9956 cc3d 4a17 2abe
000000c0: 26f2 033e 21a4 b5bc f844 f23d 95af 1fbd
000000d0: 5b09 d5bd e6a2 45bb ec3c 043e 0781 83bc
000000e0: 4993 083e 13ad 5abd 08dd 293d 97c1 57bc
000000f0: 9870 a9bd 070c f0bd 1ffa 5cb9 00ba cc3d
00000100: 75b3 09bd 5b92 063e 3b91 8a3d 419f 00be
00000110: 8d92 e4bd 8991 1bbd d4c9 173e 1f35 7ebd
00000120: cdba d9bd 2997 7cbb ecfa d83d 1c42 4dbd
00000130: dbcc 433d f430 533d f545 9b3d a2bb e83d
00000140: 4564 173d 98d4 8a3d 2cd4 d93d 857f 8b3d
00000150: a5b9 27be 3334 47bc a7af fd3d 004c 2fbd
00000160: 7ff1 6ebd e444 65bc da51 b73d b47a bdbd
00000170: 1320 a03d 4384 41bd 3bc7 de3d 963e 2ebd
00000180: eb3b 353d 8535 88bd b202 8c3d 40ba 7c3b
00000190: 0231 01bd 34af 613d c169 8bbc 8e03 cebd
000001a0: 6e41 2f3e 1c97 09be 00f6 0cbe 5478 313d
000001b0: 5b0f 94bb ff21 1a3d 82d5 95bd 340a b3bd
000001c0: 3bb9 943d 35b7 26bd 3bcc cdbd 4c30 25bd
000001d0: d9c5 0c3e 6d1f 64bd 2f16 a93d 78ff bbbd
000001e0: c2ab 80bc 3387 1c3e af73 eabd 7794 993d
000001f0: a028 29bb 7bb7 d1bb fdfb ccbd b048 ab3d
00000200: 8eb3 1a3d 813c de3c b0fb 0dbd ae3d f63c
00000210: b9c7 b33a 477b b2bc acb4 babd 6e9b b3bd
00000220: d7c2 9dbc 9f1e 753d 82ee d63d daad dabc
00000230: d4d6 c6bd 5e36 1f3d 8aa2 a83b ce40 a7bb
00000240: 89bf 853d e64a 1d3d ae74 aa3d 6b90 15bc
00000250: 215c f23d 92ff bd3c 5212 82bb 0693 3fbd
00000260: c4e2 933d 0a9b a83d f2f6 b7bc 44c5 35bd
00000270: 5923 4b3d 302f 9e3d b9db 06be 6679 333d
00000280: d6a9 63bd de58 093e b0ed ddbd 0c3e 59bd
00000290: 6ed7 0ebd 4d99 963d d62c a1bd 012f 04bd
000002a0: bb84 50bb d38b 163e 6dc5 143d 83ba 003e
000002b0: 8dc6 2b3d f31e bfbd 1041 55bd 7818 91bd
000002c0: bfb5 11bd 776a 833d df6c e93b 285b f8bd
000002d0: 84a4 9e3b 3cb6 afbd ca68 eb3d 934e 5a3d
000002e0: 91c5 373c 5b26 81bd 83dc 9b3d a58b b8bc
000002f0: 0439 963d 7ca4 06be a124 973d 3a89 8bbd
00000300: f3ca 723d 6c4a 173e 60e9 c9bc a213 7abd
00000310: e23b 81bd cbf0 b2bd 2244 6cbd 6efa 23bd
00000320: 31e6 1bbd 513d 9b3c a006 fc3d c2a9 1a3e
00000330: 6282 9dbc 8eeb bdbd ce31 afbd f077 5c3d
00000340: 6531 073d 8b6f b6bd fc0c 02bd 6df7 a6bc
00000350: 3d49 d4bd e45a c9bd acf3 98bd 70b5 47bd
00000360: 085d 013e 942a f6bd fd1e edbd a16c 33bc
00000370: 9150 223d f99d 2abc 96b6 f03d 0570 adbd
00000380: 240a 803d c3ba a4bd 8db4 b8bd 65fa c8bd
00000390: 2fe3 8bbd e053 133e 3065 ee3d ee98 ab3d
000003a0: b838 433d 2576 b93d 6cc0 1fbe 92d5 61bd
000003b0: 72cd ddbc a839 043e a104 253d fb20 013e
000003c0: 4fce f7bd 9117 a23d 069e 81bd e709 883d
000003d0: d382 c93c 8f85 e6bc bbf4 e2bc c473 cf3c
000003e0: c9db 02bd ecff 17bd f33f f83d 9bf4 0d3d
000003f0: 18cd a7bd 9586 103d 4c78 b33c 2f35 aa3b
-0.03439998 -0.1194718 0.09067055 -0.031227322 -0.028734317 0.09333666 -0.043313276 0.07745256
0.13082486 0.089508414 0.07611997 0.041733496 0.046968766 0.044105314 -0.026974311 0.07687064
-0.029719202 -0.058205783 -0.043783903 -0.023914903 -0.032556843 0.018117635 0.08099626 -0.030150646
0.05790255 -0.050874338 -0.08262255 -0.021248369 -0.09003488 0.029462447 0.022309555 -0.041883428
0.13249955 -0.04705472 0.0893664 0.085851885 -0.058605887 0.1475896 -0.044382818 0.17445199
-0.08422201 -0.0124947205 0.10307896 0.12426014 -0.06430579 -0.053880908 0.09977455 -0.16610447
0.12885341 -0.02217299 0.11829561 -0.038985807 -0.10402175 -0.003015691 0.12913865 -0.016052736
0.13337435 -0.053387713 0.041470557 -0.013168714 -0.08273429 -0.11721044 -0.00021074012 0.09996414
-0.03361841 0.13141768 0.06765982 -0.1256075 -0.11160765 -0.03798059 0.14823085 -0.06206238
-0.106313325 -0.0038542247 0.105947345 -0.050111875 0.047802787 0.051560357 0.075817026 0.11363913
0.03696086 0.0677883 0.10636172 0.06811432 -0.16379412 -0.012158441 0.12387019 -0.04279709
-0.058335777 -0.013993476 0.08951159 -0.092519194 0.07818618 -0.047245275 0.10877844 -0.042540155
0.044246595 -0.06650833 0.068364516 0.0038563162 -0.031540878 0.055098727 -0.0170182 -0.10059272
0.17114803 -0.1343655 -0.13765717 0.043327644 -0.004518432 0.037630077 -0.07316114 -0.087421805
0.072618924 -0.040702064 -0.100487195 -0.040329263 0.13747348 -0.055694032 0.08256184 -0.09179586
-0.0157069 0.1528595 -0.11447846 0.074990205 -0.0025811568 -0.0064000464 -0.100090005 0.083634734
0.037768893 0.02712846 -0.034663856 0.030058708 0.0013716138 -0.021787299 -0.09116492 -0.0876988
-0.019257946 0.059843656 0.104947105 -0.026694227 -0.09708944 0.038870208 0.0051463293 -0.005104161
0.06530673 0.038401507 0.08323036 -0.00912867 0.118339784 0.023193154 -0.003969469 -0.04677107
0.072209865 0.08232696 -0.02245662 -0.04437758 0.049594257 0.07723844 -0.13169755 0.043816946
-0.05558189 0.13412806 -0.10836351 -0.053037688 -0.03487342 0.073534586 -0.0786988 -0.03227139
-0.0031817395 0.14701776 0.036321092 0.12571149 0.0419374 -0.09332075 -0.052064 -0.07084745
-0.035573717 0.06416791 0.007123574 -0.12126762 0.004841389 -0.0857968 0.11494596 0.05329759
0.011216537 -0.06306144 0.07610419 -0.022527525 0.073350936 -0.13148683 0.07380033 -0.06813283
0.05927558 0.14774483 -0.024647415 -0.06105388 -0.0631025 -0.08737334 -0.057682164 -0.04003375
-0.038061325 0.018950136 0.12305951 0.1510382 -0.01922721 -0.09273444 -0.08554421 0.05382532
0.03300609 -0.08907994 -0.031750664 -0.020381654 -0.103655316 -0.09831789 -0.07468352 -0.048757017
0.12633145 -0.1201984 -0.11578176 -0.010951192 0.039627615 -0.01041364 0.117535755 -0.08468632
0.06251934 -0.080434345 -0.09018812 -0.09813384 -0.06830441 0.14387465 0.11640394 0.083787784
0.047661513 0.090557374 -0.15600747 -0.055135317 -0.027075503 0.12912619 0.040287618 0.12610237
-0.12099897 0.07914651 -0.06328969 0.06642514 0.024598515 -0.028139858 -0.027704587 0.025323756
-0.031947885 -0.0371093 0.12121572 0.034657102 -0.081934154 0.035284597 0.021907948 0.0051943283

attention.out_proj.bias f4 [64]
00000000: 505b 373d 3c99 dcbc 62e3 d83c b5ae c9bc
00000010: eb62 2e3d f5f4 433d 107e 523d 6316 07bd
00000020: d8a5 1dbd 7bf5 bfbc 84bf d9bc 94d5 063d
00000030: 0cc9 403d 430d 25bd e84c f5bc bb08 333d
00000040: 542f 0dbd ea84 fe3c d788 1f3d 1860 fbbc
00000050: 1557 273d fad4 0fbd cd12 44bd 40eb 05bd
00000060: a04f 3bbd 3870 1e3d c371 60bd 54d1 b9bc
00000070: e1b9 273d be9a 3dbd f7b2 36bd fa0b 64bd
00000080: ffba 3e3d 5cb8 debc 94bf 113d 098b 8abd
00000090: f892 2d3d 5d8b 193d a60a 20bd 800c 7abd
000000a0: 4fcd 2c3d 58df 263d 5cf8 1e3d 416c 6a3d
000000b0: f182 363d 2db9 27bd 8e4c 12bb 6043 3dbd
000000c0: 533d 53bd e13c fe3c 1211 4cbd 1a6b 0abd
000000d0: ee62 2ebd a62e 39bd 8c61 413d f596 40bd
000000e0: cff6 0abd 1253 02bd 36ab 2a3d 2077 313d
000000f0: d9cf 023d c744 e8bb db0f 073d 0407 273d
0.044764817 -0.026928537 0.026475612 -0.02461944 0.042574804 0.04784103 0.051389754 -0.032980334
-0.03848824 -0.023432484 -0.02658058 0.032918528 0.047066733 -0.04029585 -0.029943898 0.043709498
-0.034468964 0.031069238 0.03894886 -0.03068547 0.040854532 -0.03511522 -0.047869492 -0.032695055
-0.045730233 0.03868124 -0.05479599 -0.022682823 0.040948752 -0.04629015 -0.044604268 -0.055675484
0.046565052 -0.027187519 0.035583094 -0.067648 0.04237649 0.037486423 -0.039072655 -0.061047077
0.042187985 0.04074034 0.038811073 0.057232145 0.04455847 -0.04094808 -0.0022323462 -0.046206832
-0.051572155 0.031034889 -0.049820967 -0.033793546 -0.042574815 -0.045210503 0.04721217 -0.047018964
-0.03392678 -0.031817503 0.041667186 0.043326497 0.0319365 -0.007088277 0.032974105 0.040778175

classifier.0.weight f4 [32, 64]
00000000: 2e02 843b f431 8ebd 9a74 7cbd 3902 bd3d
00000010: 1f23 1e3b a8e6 a0bd 9022 013e 1d76 3cbc
00000020: 5cf3 cd3b 6771 00be 29cd edbd 6a8e 073e
00000030: 19a0 af3d 4118 0ebe 5933 16be 8ff0 aa3d
00000040: 9ec9 78bb c606 00be f21d 00bb d257 92bc
00000050: 7221 023e 03ad 0fbe 1ff5 05be 95cf 87bd
00000060: a99a f7bd f296 133e edb5 25bd bd7b b43c
00000070: ae55 e63d aad0 00be d9cf 2dbd 001c 30be
00000080: 8961 14bc 8f9e 98bd e322 073e 7b0e aabd
00000090: 2039 b0bc 5cc0 0d3e d020 313d 9fab debd
000000a0: 3161 9abd f08f 88bd 0c1f 5dbd 638a 3d3d
000000b0: e05f 9c3d da7a 12bd ebaf c53d bb59 353d
000000c0: 6b35 96bd b9ef 7d3d a162 85bc 6c31 a7bd
000000d0: 663b 04bc 48cb e2bd 80fb 003e 79a2 86bd
000000e0: 9cd7 54bd 6698 26bc 3880 1b3e 9e7e 7ebd
000000f0: e626 b23d 1ed9 1d3d a816 73bd c34e 0a3e
00000100: 6b00 7ebd 413c d23c d93b bfbd 9cb1 fc3d
00000110: 1459 d63d 1104 83bd f6b7 8cbc 334c 9cbc
00000120: b832 2abd de6b f6bd 72a1 6f3d 4d3d b1bc
00000130: 5c2d 413d 9872 9c3c 6738 c0bd 7682 153d
00000140: 3fb6 7f3c 753c 3e3d 7c85 9dbc f3ce 16bc
00000150: c17b f43c ab99 c9bd 8ea2 683d 467e c3bd
00000160: ff8d d53c 5d39 56bd 097d edbc a65e 6bbd
00000170: 51b5 e7bd 3112 bf3d 31f8 b5bd a87a 033e
00000180: 1fb5 b23d 8b10 2c3d cebe ae3d d98f a43c
00000190: 5c90 74b8 845b 68bd 1432 dc3d edfa c03d
000001a0: 7446 a43c 5b05 1ebc 1e56 a3bd ecb1 d23c
000001b0: 9ad1 213d 5179 aabd 6ce8 50bd b7d6 4fbd
000001c0: c875 27bd 26b1 e7bc d0f8 343d 5516 e9bd
000001d0: 4ee0 a5bb 6040 76bd a8bc c33d ca84 2c3d
000001e0: 18eb 083d bdc0 bc3d 3b31 3fbd c164 4a3b
000001f0: 04a9 a63d 31ff 053e 80a5 36bd e16d 213d
00000200: b3c1 3c3d 636c dbbd 09f9 773d b573 033d
00000210: 0bcb 4e3d fe3e f73c 1a65 e83d b7ee c33c
00000220: 8ceb 36bd 8e14 8e3b 2293 f43d a3a1 0a3e
00000230: 59e2 cc3c b6ae df3d cc76 52bd b1d1 8e3c
00000240: 7b69 b03c 4b29 4bbd 5bbb e03d 01f4 a43d
00000250: 3cf6 c43d 1361 a5bd 2462 86bc c36b c63d
00000260: e35b 033d e88e c8bd 7fff a5bd 43d0 be3c
00000270: 9661 cabd 07c2 b93d ab2a b43d 03d8 afbd
00000280: 80f3 b7bd 6946 15bd 3d5e 66bd 215d 38bd
00000290: ea90 243d 0227 083d d776 16bd d2ba 87bd
000002a0: b49e c93d 2234 813d cf30 eebd 3dba 263e
000002b0: 25dd 71bd 872b a4bd e16b c6bd 2e44 4cbd
000002c0: cf3b ad3b 4aeb b93d 61c1 943d b0f9 d5bc
000002d0: c9b0 f93d ccf3 8f3c 5128 b13d 6e7c 7d3d
000002e0: 60d1 56bc d807 86bd 5cf3 99bd cf55 84bd
000002f0: f2ad aabd 8347 98bd 5878 e6bd 4ced 423d
00000300: d5fc 683d 56a7 febc 3479 093d ae97 f03c
00000310: 7315 59bc 9e8f a03d 0487 7a3d 5531 7b3d
00000320: 95db c6bd 2489 f8bd 01d9 40bd e345 8c3d
00000330: 0156 1b3d 2bb5 063d 73c9 cb3d 7166 d43c
00000340: 77d3 90bb 3c4e ea3d 4b44 be3d d2f3 2a3d
00000350: b342 8dbc 672c 0ebd bbdc aebd c8db 88bd
00000360: dd65 a83a aa07 5b3d 3328 28bb abfd 86bd
00000370: 3fb1 ffbd ab80 94bd 5f0e 92bd 6fed b7bc
00000380: 4bdd d6bd 5684 d3bc 641e c03d f51c e43d
00000390: af5a 00be d0d6 b2bc a1db a6bd fed4 9fbd
000003a0: c057 593c 7678 dbbc 951a 05be 41d4 ac3d
000003b0: 4d44 c4bd 1c8f 34bd 1030 31bc c07f a23d
000003c0: 7a84 a83d 3890 c43d f219 ea3d 3127 d3bd
000003d0: bed1 c3bd f4e8 d83d 979f 353d ca99 52bd
000003e0: 94b8 8cbd e4b2 c53d c89e 183d d6ad 253c
000003f0: dfee a3bd d5e2 a4bc 04b0 6abd 2417 b2bc
0.00402858 -0.069431216 -0.061634637 0.092289396 0.002412982 -0.07856494 0.12610841 -0.01150277
0.006285114 -0.1254326 -0.11611397 0.1323792 0.08575458 -0.1387644 -0.14668025 0.08346664
-0.003796197 -0.12502584 -0.0019549099 -0.017864142 0.12708071 -0.14030842 -0.13081788 -0.0663139
-0.12090046 0.1441305 -0.0404567 0.02203166 0.11246811 -0.12579599 -0.042434547 -0.17198181
-0.009056457 -0.07452118 0.13196902 -0.08303543 -0.021511614 0.1384291 0.043244183 -0.10872578
-0.07538069 -0.06668079 -0.053984687 0.046274554 0.07635474 -0.03576169 0.09652694 0.044275027
-0.073344074 0.061996195 -0.016282381 -0.08163723 -0.008070802 -0.11073929 0.1259594 -0.06573958
-0.051963434 -0.010168171 0.1518563 -0.06213247 0.086988255 0.038537137 -0.05934778 0.13506608
-0.062012117 0.025663497 -0.09337587 0.12338564 0.10466209 -0.0639726 -0.017177563 -0.019079303
-0.041552275 -0.12032293 0.058503576 -0.021635676 0.0471624 0.019097611 -0.09385758 0.03650137
0.015607416 0.046444375 -0.01922869 -0.009204614 0.029844167 -0.09843763 0.05679565 -0.09545569
0.026068686 -0.0523008 -0.028990285 -0.05746331 -0.1131388 0.093296416 -0.088852294 0.12839758
0.08725952 0.042007964 0.08532487 0.020088123 -5.830858e-05 -0.0567279 0.10751739 0.0942286
0.020053126 -0.0096448315 -0.0797541 0.025719605 0.039506532 -0.083239205 -0.051002905 -0.050741877
-0.04088381 -0.028282713 0.0441826 -0.113812126 -0.0050621396 -0.060119987 0.09557468 0.042118825
0.033427328 0.092164494 -0.04667781 0.0030882808 0.08137706 0.13085629 -0.044591427 0.03941143
0.046083163 -0.107140325 0.060540233 0.03209277 0.050486606 0.030181404 0.113474086 0.023917539
-0.04465823 0.0043359464 0.11942126 0.13538222 0.025010275 0.10921995 -0.051382825 0.017433973
0.021534672 -0.049599927 0.10973235 0.080543526 0.09617278 -0.08075156 -0.016404219 0.09688523
0.032070052 -0.09792882 -0.08105373 0.023292666 -0.09881894 0.09070211 0.08797201 -0.08586123
-0.08981991 -0.0364441 -0.056242216 -0.04501069 0.040177263 0.033240326 -0.03673443 -0.0662743
0.09844723 0.06308772 -0.11630403 0.16281982 -0.05904879 -0.08016115 -0.09688545 -0.04986971
0.0052866708 0.09078081 0.072634466 -0.026120037 0.12191922 0.017572306 0.08650268 0.061886244
-0.013111442 -0.06544465 -0.0751712 -0.06461679 -0.08333959 -0.07435515 -0.112534225 0.047589585
0.056881744 -0.031085651 0.033562854 0.029369202 -0.013249743 0.07839893 0.061163917 0.061326344
-0.09709851 -0.121355325 -0.04708195 0.06849267 0.037923817 0.03288762 0.09950533 0.025927754
-0.00441974 0.11440703 0.092903696 0.04173643 -0.017243719 -0.034710314 -0.08538195 -0.06682545
0.001284774 0.053474106 -0.0025658726 -0.06591352 -0.12484979 -0.07251104 -0.07131647 -0.022452084
-0.10491427 -0.025819939 0.093807966 0.111383356 -0.12534593 -0.021830946 -0.0814736 -0.07804297
0.01326555 -0.026790839 -0.12998421 0.08438922 -0.0958334 -0.044081792 -0.010814682 0.07934523
0.08228393 0.0959782 0.1143073 -0.103102095 -0.095614895 0.10591307 0.04434165 -0.051416196
-0.06871143 0.09653261 0.0372608 0.0101122465 -0.080045454 -0.020127693 -0.057296768 -0.02173955

classifier.0.bias f4 [32]
00000000: 7abf 0c3e ceef 32bd 9308 c9bc 2920 6cbd
00000010: 14dd 243d 1930 9a3d da05 183d 7331 88bc
00000020: 5c2d f93d b472 67bc c0a2 053e 8f32 b13d
00000030: 61a9 993b 7772 03be 7e19 13be 1f0d 61be
00000040: 7909 71bd 98ad bebd c2d2 0d3c 656e 143e
00000050: 4373 9cbd c9ca 603c cb62 ccbd 16e2 d23d
00000060: 2307 813d 3527 913d a5f9 b13d 1293 a53d
00000070: a8de 42be 17b9 c93d 72fd 973d 70f5 2a3e
0.13744918 -0.043685727 -0.024540221 -0.057647858 0.0402499 0.07528705 0.037114955 -0.016625142
0.12166855 -0.014126468 0.13050365 0.086522214 0.004689381 -0.12836634 -0.14365193 -0.21977662
-0.058846924 -0.09310454 0.008656206 0.14495237 -0.07639172 0.013720223 -0.09979781 0.10297029
0.06300189 0.07087556 0.08690194 0.08084692 -0.19030249 0.09849756 0.07421388 0.1669519

classifier.2.weight f4 [1, 32]
00000000: 950e c3bd 7735 de3d 7176 583b 78ab b73b
00000010: 5e10 d33d ccd9 e13d 6a35 323e f25a 173e
00000020: 2a53 31be 44d0 66bd 35c1 1cbe 85ac f6bc
00000030: 0be0 663e d97a bc3d b144 f3bd 494c 9fbd
00000040: ca7f 9ebd 1327 fb3c fa16 23be 0a14 dabd
00000050: 5830 483b 641c 723a 3dfc 62bc 580a 043e
00000060: a3b4 813d 0433 18be 9f1c 993d c522 c23c
00000070: b3f7 f4bd 0bda 4cbe f761 af3d 0a7a 9dbd
-0.09524266 0.10850041 0.003302958 0.0056051575 0.10305856 0.110278696 0.17403188 0.14780787
-0.17316881 -0.05635096 -0.15308078 -0.03011156 0.22546403 0.09203119 -0.11878336 -0.07778222
-0.077392176 0.03065828 -0.15926734 -0.106483534 0.0030546393 0.0009235798 -0.013854084 0.12894571
0.06333282 -0.14863211 0.07476162 0.02369822 -0.119613074 -0.20005052 0.08563607 -0.07689293
