signals/MultiSignalClassifier_model4.pth (torch, 276839 bytes, 11 tensors)

shared_layer.0.weight f4 [128, 320]
0.056515265 -0.017675001 -0.0059938347 -0.046358585 -0.056997836 -0.11800881 -0.08847054 -0.030929567
-0.07886025 -0.020986866 -0.07623489 -0.055032037 -0.097186565 -0.08172348 -0.0022379688 -0.04826578
0.02074501 0.019053707 -0.07035061 -0.068318754 0.0020600446 -0.010839311 0.015540918 0.06476217
0.043837275 0.07288962 0.007707 0.025667852 0.04983513 0.11853231 0.07727156 0.029701965
0.11737821 0.069922246 0.048439756 0.08362142 0.056227703 0.026174624 -0.09144356 -0.018701624
-0.118965104 -0.123524204 -0.049652837 -0.12373045 -0.14756109 -0.109035574 -0.07115857 -0.07229095
-0.031156808 -0.033477776 -0.04044457 -0.016261423 0.019378813 0.009906054 0.060092676 -0.0077312314
0.03422097 0.059760228 -0.053690974 0.054111157 -0.05335202 0.04624592 -0.03942443 -0.022411047
-0.028416403 0.04037067 -0.013444408 -0.009325034 0.061826654 -0.015745211 0.024783826 -0.0052558673
-0.011077975 0.075066745 0.03776407 0.073829934 0.0035530375 0.08940071 -0.024218181 0.028535409
-0.0044521596 0.0072572436 -0.07645914 -0.019865679 -0.06849022 0.0024586376 0.0030027863 -0.07627313
0.002687891 -0.033787128 -0.1034357 -0.09221628 -0.096549734 -0.106211916 -0.020965142 -0.08429787
-0.114536025 -0.032376546 -0.079044186 -0.08138253 -0.042461567 -0.015343042 0.015180762 -0.046903882
-0.048800338 0.046962935 0.06295399 0.0714591 0.0037185096 0.1085482 0.03502522 0.15058592
0.15412924 0.040276416 0.039676998 0.029936012 0.09087295 -0.0018703402 -0.011344037 -0.021026859
0.031629585 -0.039007384 0.059463795 0.06400945 0.024600852 0.052189883 0.053712763 0.09587241
0.039922427 0.09562699 0.09729028 0.07156707 0.053326365 -0.012058684 0.045576774 0.008758965
-0.016398098 0.09426847 0.075744525 0.022251176 0.010748154 0.02880813 -0.001511988 0.02005913
-0.0006309 0.067065075 -0.021129623 0.005549521 -0.0045997947 -0.027022468 -0.055559665 -0.0706248
-0.068879336 -0.00085781084 -0.015293383 -0.07298256 -0.019073138 -0.024269082 -0.0724651 -0.019515784
0.007934759 0.0068506496 -0.09352087 -0.021215985 -0.093540154 -0.09907125 -0.084692664 -0.051328063
-0.08619601 -0.1237799 -0.065800264 -0.1051788 -0.013196138 -0.026995158 -0.071365476 -0.059888907
0.025795482 0.029607097 0.039343286 0.0027342516 0.091049865 0.07451695 0.015031216 0.005374043
0.020197919 0.05980278 0.011294855 0.047273874 0.070591986 0.05544881 0.046556402 0.05860451
0.086755805 0.034879636 0.07471882 0.047579236 0.033755098 -0.021183947 0.06313396 -0.046258993
-0.0704488 -0.037730876 -0.07049817 -0.10510347 -0.095637925 -0.046994545 -0.123878516 -0.10051112
0.009543872 -0.054882266 -0.03055282 0.0010138827 -0.017883034 0.015418598 0.08020561 0.09274936
0.01196324 0.069726616 0.12687553 0.116095416 0.0795941 0.13159347 0.06511737 0.0939825
0.16684093 0.07878056 0.102059335 0.056046817 0.041270975 0.016581718 0.02442165 -0.025874713
0.05540369 0.07961198 0.06990627 0.081705384 0.06396776 -0.002443498 0.036052495 0.12353427
0.08794852 0.13095722 0.2210249 0.17852584 0.26629162 0.30726033 0.24378827 0.13702212
0.14686468 0.046436522 0.078459956 0.0074488176 0.04272396 0.031169876 0.027710818 0.032837175
00000000: 8d7c 673d 2acb 90bc ee67 c4bb 80e2 3dbd
00000010: 9076 69bd 9aae f1bd 0b30 b5bd 0160 fdbc
00000020: 7c81 a1bd a6ec abbc 0a21 9cbd 4669 61bd
00000030: c009 c7bd a45e a7bd e3aa 12bb 57b2 45bd
00000040: 70f1 a93c 8516 9c3c fb13 90bd b4ea 8bbd
00000050: d001 073b 5e97 31bc 569f 7e3c 07a2 843d
00000060: b78e 333d 2747 953d 008b fc3b 6345 d23c
00000070: ec1f 4c3d 11c1 f23d 8d40 9e3d 8951 f33c
00000080: fd63 f03d 6533 8f3d c468 463d b541 ab3d
00000090: 054f 663d 2a6c d63c c346 bbbd 2634 99bc
000000a0: faa3 f3bd 42fa fcbd c660 4bbd 6466 fdbd
000000b0: 411a 17be 0b4e dfbd 96bb 91bd 470d 94bd
000000c0: 903c ffbc fe1f 09bd 35a9 25bd ad36 85bc
000000d0: 51c0 9e3c 004d 223c bd23 763d 4556 fdbb
000000e0: 4a2b 0c3d 24c7 743d 11eb 5bbd a9a3 5d3d
000000f0: a687 5abd 5d6c 3d3d 837b 21bd 5f97 b7bc
00000100: 84c9 e8bc b75b 253d ef45 5cbc 07c8 18bc
00000110: f23d 7d3d 1afc 80bc 7307 cb3c 6939 acbb
00000120: 6580 35bc 98bc 993d 7fae 1a3d 2634 973d
00000130: 14da 683b b817 b73d 3565 c6bc 17c3 e93c
00000140: 6ce3 91bb 2cce ed3b 9c96 9cbd 59bd a2bc
00000150: 9a44 8cbd 1821 213b 65ca 443b 1635 9cbd
00000160: 5427 303b 5f64 0abd 19d6 d3bd e4db bcbd
00000170: debb c5bd a285 d9bd 17bf abbc 5da4 acbd
00000180: dd91 eabd 459d 04bd ebe1 a1bd e2ab a6bd
00000190: 2eec 2dbd 6261 7bbc bbb8 783c 491e 40bd
000001a0: dde2 47bd 355c 403d 06ee 803d 2659 923d
000001b0: 3db2 733b 854e de3d 9b76 0f3d 3233 1a3e
000001c0: 0ed4 1d3e e2f8 243d 5984 223d 5e3c f53c
000001d0: 991b ba3d 3426 f5ba 57dc 39bc 8540 acbc
000001e0: 068e 013d 35c6 1fbd 4f90 733d 6317 833d
000001f0: ba87 c93c 0fc5 553d ea01 5c3d c158 c43d
00000200: b385 233d 15d8 c33d 2040 c73d c291 923d
00000210: bf6c 5a3d c991 45bc b6ae 3a3d c381 0f3c
00000220: 4e55 86bc d40f c13d f21f 9b3d 1948 b63c
00000230: 0619 303c 07ff eb3c e62d c6ba 0b53 a43c
00000240: fb62 25ba 6a59 893d 0818 adbc c2d8 b53b
00000250: e0b9 96bb 395e ddbc 8892 63bd bca3 90bd
00000260: 9c10 8dbd b6de 60ba 1991 7abc e177 95bd
00000270: 453f 9cbc f4cf c6bc 9568 94bd 91df 9fbc
00000280: cb00 023c 6a7b e03b df87 bfbd 25cd adbc
00000290: fb91 bfbd dee5 cabd 5973 adbd 603d 52bd
000002a0: 8987 b0bd 5180 fdbd 4ac2 86bd fc67 d7bd
000002b0: 9d34 58bc f324 ddbc 1028 92bd 124e 75bd
000002c0: 0c51 d33c 958a f23c 6d26 213d 2131 333b
000002d0: 5a78 ba3d 589c 983d 7d45 763c bd18 b03b
000002e0: 1b76 a53c c3f3 743d 0e0e 393c 40a2 413d
000002f0: 8892 903d 4b1e 633d edb1 3e3d 480b 703d
00000300: 07ad b13d f3dd 0e3d 2e06 993d 72e2 423d
00000310: c942 0a3d f589 adbc 614c 813d 127a 3dbd
00000320: 7647 90bd b18b 1abd 5861 90bd 7d40 d7bd
00000330: d1dd c3bd 5a7d 40bd 05b4 fdbd c6d8 cdbd
00000340: e75d 1c3c 3acc 60bd e849 fabc 42e4 843a
00000350: 717f 92bc 4a9e 7c3c d742 a43d 60f3 bd3d
00000360: 7701 443c d4cc 8e3d a9eb 013e 6fc3 ed3d
00000370: 3b02 a33d 70c0 063e 415c 853d e679 c03d
00000380: 59d8 2a3e b457 a13d 7c04 d13d 5991 653d
00000390: c10b 293d 62d6 873c ea0f c83c 35f7 d3bc
000003a0: fbee 623d 9b0b a33d 052b 8f3d 2755 a73d
000003b0: 8701 833d 1823 20bb c8ab 133d 89ff fc3d
000003c0: 5b1e b43d a619 063e 5a54 623e 7acf 363e
000003d0: 6057 883e 3a51 9d3e a2a3 793e 874f 0c3e
000003e0: b263 163e 3934 3e3d 9daf a03d 3615 f43b
000003f0: 52ff 2e3d f857 ff3c cc01 e33c 4680 063d

shared_layer.0.bias f4 [128]
0.10960669 0.1162737 0.15447332 0.055383805 0.002429995 0.11392033 0.03551566 -0.0038529076
-0.05324789 -0.011401099 0.10464365 0.21283579 -0.03303541 0.027478287 -0.020952526 -0.055334624
-0.040203534 0.03243293 -0.03766067 0.07890069 0.052935343 -0.0051592253 0.011417089 -0.0387805
-0.008013287 0.071372785 0.024181549 0.09971458 0.10494364 0.14832112 0.14213854 -0.051171936
0.0602343 0.05864557 0.06896063 0.034337647 -0.054102704 -0.048548806 0.18088919 -0.0083518755
0.11663049 0.07114764 0.12581415 -0.0028488673 -0.03060037 0.060607575 -0.02771745 0.019595824
0.0022913439 -0.061891835 0.09862575 -0.032865796 0.091132596 0.024743775 0.020582037 0.15477303
0.07350557 0.1694466 -0.046471562 -0.03349033 0.08002394 -0.013564088 -0.019167185 -0.051303636
0.13044885 0.08525744 -0.059685104 0.08094057 0.15897922 -0.011505449 0.0017443747 0.019387607
0.1489013 -0.022121446 0.0061704516 0.00076731516 0.09542429 0.14122117 0.009946027 0.10350478
0.10612136 0.09077896 0.039707117 0.01960033 -0.04720222 0.1363512 -0.0058884406 -0.014399103
0.09021062 -0.017706746 0.025236873 -0.03789678 0.04590211 -0.024005612 0.09533442 -0.0079752235
0.16821025 -0.03057689 0.007587958 0.1367111 -0.02376894 0.1440467 0.09546429 0.12653935
-0.050389808 0.095304675 -0.04930754 0.078196965 0.024340143 -0.05352505 0.057905924 0.07206097
-0.021373764 0.06449023 0.11337819 0.14031063 0.14259928 -0.001863897 -0.05444687 0.08532437
0.0958706 0.08277304 -0.033780824 0.043585517 0.0075146584 0.008641744 0.05613628 -0.052441463
00000000: 7979 e03d e820 ee3d 412e 1e3e 21da 623d
00000010: 8d40 1f3b 104f e93d de78 113d 1081 7cbb
00000020: 761a 5abd adcb 3abc 694f d63d a0f1 593e
00000030: 2350 07bd 251a e13c a2a4 abbc 8fa6 62bd
00000040: 76ac 24bd 64d8 043d 1342 1abd af96 a13d
00000050: bbd2 583d b80e a9bb be0e 3b3c 4dd8 1ebd
00000060: 294a 03bc e52b 923d 6218 c63c 2837 cc3d
00000070: b1ec d63d 7ee1 173e c48c 113e aa99 51bd
00000080: 3eb8 763d 5636 703d 3b3b 8d3d a2a5 0c3d
00000090: cc9a 5dbd 1ddb 46bd 043b 393e 4ed6 08bc
000000a0: f7db ee3d dbb5 913d 6dd5 003e 10b4 3abb
000000b0: a1ad fabc a63f 783d b50f e3bc 6c87 a03c
000000c0: 5f2a 163b 4b82 7dbd 4cfc c93d 499e 06bd
000000d0: baa3 ba3d 75b3 ca3c a99b a83c d27c 1e3e
000000e0: 178a 963d 6983 2d3e f758 3ebd 282d 09bd
000000f0: 97e3 a33d e93b 5ebc 8004 9dbc c323 52bd
00000100: 6294 053e 749b ae3d 5e78 74bd 2bc4 a53d
00000110: 73cb 223e 5a81 3cbc 81a3 e43a c2d2 9e3c
00000120: 9579 183e 0938 b5bc 8031 ca3b a625 493a
00000130: cf6d c33d 489c 103e a9f4 223c 50fa d33d
00000140: 2856 d93d 52ea b93d eea3 223d df90 a03c
00000150: 1d57 41bd a69f 0b3e d2f3 c0bb 37ea 6bbc
00000160: 58c0 b83d bd0d 91bc 8fbd ce3c a739 1bbd
00000170: da03 3c3d 6ba7 c4bc b13e c33d 83aa 02bc
00000180: 4f3f 2c3e 637c fabc 68a4 f83b fffd 0b3e
00000190: 14b7 c2bc fa80 133e c882 c33d 8893 013e
000001a0: 8b65 4ebd 192f c33d b4f6 49bd bb25 a03d
000001b0: fb64 c73c 153d 5bbd c32e 6d3d b494 933d
000001c0: 0818 afbc 7413 843d d332 e83d 97ad 0f3e
000001d0: 8c05 123e 014e f4ba ae03 5fbd 8bbe ae3d
000001e0: ce57 c43d e984 a93d c35d 0abd ba86 323d
000001f0: 863d f63b 1a96 0d3c 28ef 653d dccc 56bd

shared_layer.2.weight f4 [64, 128]
-0.08217257 -0.042549334 -0.024510197 -0.0068348153 -0.07710508 0.04759299 0.015797183 0.020741463
-0.081522554 0.056394763 -0.039503597 -0.022537492 -0.04111253 -0.016790953 -0.02124144 -0.010776043
-0.034764394 0.0047297375 0.0014456362 -0.054253083 -0.0704866 -0.019450761 -0.0555638 0.019402489
-0.008537099 0.05756094 0.085375465 -0.030781312 -0.044093303 -0.052492373 -0.05928818 0.01748421
0.04626365 0.06553183 -0.08913849 -0.060233187 -0.016101383 0.04930248 -0.08551692 -0.06528652
0.010594904 -0.03434243 0.056386035 0.07985791 -0.08073613 -0.055566948 0.03430962 0.07892194
-0.017814487 0.0721891 -0.058636907 -0.07155137 -0.060217746 0.056770373 0.015458948 -0.0678303
-0.057360508 -0.030398905 0.003798671 0.053730555 0.009376436 -0.09145491 -0.009372272 0.020429559
-0.0077190474 -0.026126055 0.0693352 -0.05711083 0.053984635 -0.06760828 -0.0017765015 0.012632556
0.06907336 -0.048944313 0.068255164 0.04851564 -0.007493928 0.07403218 -0.00022825599 -0.10055537
0.020411722 -0.011776069 -0.053099215 0.0053288713 0.044521637 -0.036402106 0.016571097 0.07511943
0.049379423 0.06369654 0.030342743 0.05898788 -0.008723708 -0.06702203 -0.059510116 0.046651237
-0.0069526285 0.05581651 -0.051869992 0.037877183 0.05108155 -0.076329395 -0.08274811 -0.10524989
-0.0626648 -0.015432499 0.012708753 0.020546332 -0.010894321 -0.0016737878 0.070758775 -0.06462759
-0.073931105 -0.05642955 -0.037341557 0.033783026 -0.010336221 -0.042531207 0.07273344 -0.015564432
0.05804631 0.042711176 0.04172478 -0.07485782 -0.031454097 -0.08526974 -0.10480443 -0.032820806
-0.027837971 0.025505917 0.19794245 -0.013447506 0.061553653 0.071652554 0.02057357 -0.08399571
-0.04651286 -0.017111717 0.03910659 0.13107005 -0.0629558 0.048131377 -0.4307188 0.085092284
-0.06731866 0.0068175136 -0.040568467 -0.025770888 0.0150797805 0.081891246 -0.066906735 0.025627824
-0.07074217 0.051742908 0.058031198 0.10941572 0.106368005 0.099704176 0.09851865 -0.051595673
0.08734916 -0.03384667 -0.010408523 0.06155093 -0.0415834 0.06530634 0.106462784 -0.06258514
0.14880535 -0.00070581515 0.033919044 -0.014044203 -0.0041889898 0.0072872643 0.037963342 0.032512374
0.064846255 -0.06877156 0.11209637 0.070213206 0.03361332 0.02917703 0.101760395 0.17229529
0.051400993 0.04884201 -0.050606396 -0.02773292 0.06822451 0.067185245 0.07229906 -0.008494263
0.17197913 0.021205612 -0.03941367 0.0012597371 0.13611363 0.031078327 -0.07809894 -0.00885807
0.08285618 -0.038179304 0.06815379 -0.06305032 -0.028918147 0.16650231 -0.07441263 0.034946717
0.092308424 0.116410054 0.055328757 -0.026845176 -0.053337414 0.08500653 0.005910323 0.030798398
0.029714411 0.0653021 -0.0395456 -0.035164442 0.03709431 0.08225947 0.04974983 -0.03477818
0.16178687 -0.07008689 0.00023674514 0.09338346 0.080625944 0.042067725 0.11016566 0.06960467
-0.07631934 -0.01121946 -0.000699166 0.07137575 -0.0723573 0.028357431 0.036688138 0.0084517505
-0.082749985 0.009543862 0.12675011 0.06836819 0.039205633 -0.04494701 0.05039928 0.05737185
-0.023417285 -0.0031310332 -0.073782876 0.09975595 0.017694835 0.0155198965 0.039755903 -0.054506812
00000000: 184a a8bd 3648 2ebd 9cc9 c8bc 96f6 dfbb
00000010: 45e9 9dbd def0 423d 1869 813c 00ea a93c
00000020: 4cf5 a6bd 32fe 663d 86ce 21bd 8ca0 b8bc
00000030: 9d65 28bd 2e8d 89bc 8702 aebc 008e 30bc
00000040: 1c65 0ebd eafb 9a3b 807b bd3a 7b38 5ebd
00000050: 475b 90bd 3457 9fbc de96 63bd f8f1 9e3c
00000060: 30df 0bbc 05c5 6b3d 55d9 ae3d 1729 fcbc
00000070: 2e9b 34bd 3e02 57bd 2ad8 72bd 0c3b 8f3c
00000080: f47e 3d3d 8d35 863d 3e8e b6bd 13b7 76bd
00000090: 0ce7 83bc 66f1 493d 7f23 afbd f0b4 85bd
000000a0: 4096 2d3c a6aa 0cbd 0bf5 663d 8b8c a33d
000000b0: fc58 a5bd 2b9a 63bd 3e88 0c3d d3a1 a13d
000000c0: b0ef 91bc e1d7 933d 412d 70bd 8689 92bd
000000d0: e2a6 76bd 0d88 683d 8747 7d3c 9dea 8abd
000000e0: daf2 6abd 2007 f9bc 20f3 783b 9214 5c3d
000000f0: 9f9f 193c b64c bbbd 288e 19bc e45b a73c
00000100: 10f0 fcbb 4f06 d6bc 9dff 8d3d 0ced 69bd
00000110: fe1e 5d3d 3676 8abd 80d9 e8ba c8f8 4e3c
00000120: 5576 8d3d d579 48bd 5dc9 8b3d 56b8 463d
00000130: a08f f5bb 2f9e 973d 0058 6fb9 f9ef cdbd
00000140: 7c36 a73c 6af0 40bc 907e 59bd d09d ae3b
00000150: 525c 363d 601a 15bd 1cc0 873c 37d8 993d
00000160: 1442 4a3d 5573 823d 5891 f83c 469d 713d
00000170: e2ed 0ebc d942 89bd e1c0 73bd 5e15 3f3d
00000180: e0d2 e3bb da9f 643d a175 54bd 1b25 1b3d
00000190: e33a 513d 9652 9cbd d777 a9bd 418d d7bd
000001a0: 6756 80bd 98d8 7cbc 6038 503c c850 a83c
000001b0: 187e 32bc 0063 dbba fae9 903d 785b 84bd
000001c0: 3169 97bd ac22 67bd 76f3 18bd 1260 0a3d
000001d0: 4159 29bc 3435 2ebd 45f5 943d f601 7fbc
000001e0: f8c1 6d3d eaf1 2e3d 9ae7 2a3d 0f4f 99bd
000001f0: 03d6 00bd e7a1 aebd b4a3 d6bd 1c6f 06bd
00000200: 750c e4bc c9f1 d03c 6db1 4a3e ee52 5cbc
00000210: af1f 7c3d 93be 923d e789 a83c f105 acbd
00000220: 4584 3ebd df2d 8cbc 3b2e 203d 3a37 063e
00000230: f8ee 80bd 6825 453d 2d87 dcbe dd44 ae3d
00000240: 5ede 89bd 7365 df3b 1f2b 26bd 781d d3bc
00000250: 2f11 773c 99b6 a73d 6606 89bd 71f1 d13c
00000260: 45e1 90bd 5ff0 533d 1fb2 6d3d 5915 e03d
00000270: 78d7 d93d b431 cc3d 25c4 c93d fc55 53bd
00000280: 1ee4 b23d cea2 0abd 8288 2abc d41c 7c3d
00000290: 5b53 2abd 55bf 853d 2909 da3d a32c 80bd
000002a0: 6e60 183e 7406 39ba b2ee 0a3d a819 66bc
000002b0: cb43 89bb 01ca ee3b 737f 1b3d b22b 053d
000002c0: 1dce 843d 1bd8 8cbd c892 e53d f1cb 8f3d
000002d0: 1fae 093d ab04 ef3c c167 d03d 2d6e 303e
000002e0: d989 523d 8f0e 483d a748 4fbd 2630 e3bc
000002f0: 4bb9 8b3d 6b98 893d 8811 943d 852b 0bbc
00000300: 4c1b 303e 64b7 ad3c 3a70 21bd c31d a53a
00000310: 5f61 0b3e fa97 fe3c 56f2 9fbd 7021 11bc
00000320: 80b0 a93d e761 1cbd 3794 8b3d 8720 81bd
00000330: c0e5 ecbc 957f 2a3e a665 98bd 4a24 0f3d
00000340: 330c bd3d 6568 ee3d 68a0 623d 6aea dbbc
00000350: 5578 5abd e717 ae3d 62ab c13b ec4c fc3c
00000360: a36b f33c 1bbd 853d 91fa 21bd 9708 10bd
00000370: 34f0 173d a777 a83d 7ac6 4b3d 9173 0ebd
00000380: 75ab 253e b789 8fbd ca3e 7839 d43f bf3d
00000390: 371f a53d 354f 2c3d 899e e13d e58c 8e3d
000003a0: 504d 9cbd d3d1 37bc 3c48 37ba 732d 923d
000003b0: 1030 94bd d84d e83c 4d46 163d 3679 0a3c
000003c0: d378 a9bd dc5d 1c3c c8ca 013e 9f04 8c3d
000003d0: 1696 203d 5b1a 38bd 7a6f 4e3d bffe 6a3d
000003e0: 9bd5 bfbc 0532 4dbb 7a1b 97bd d94c cc3d
000003f0: c2f4 903c 2a47 7e3c 16d7 223d 8942 5fbd

shared_layer.2.bias f4 [64]
-0.037581876 0.17816237 -0.062049937 0.14096549 -0.051587485 0.024268935 -0.046541378 -0.07782686
0.047985822 0.15853222 0.031293456 -0.03307665 0.026946468 0.10823671 -0.09321528 0.10966766
0.1240548 0.11178422 0.02333531 -0.08632932 0.14595585 0.05268043 -0.016248789 0.13532953
0.13578989 -0.0045584417 0.13141379 -0.09926317 0.008178993 0.058552004 -0.05001365 0.15975109
-0.0656695 0.13946612 0.15075365 0.067586206 0.16762623 0.09161485 0.08952824 0.084716246
0.1457018 0.118767075 0.17592241 -0.08289237 0.16035827 0.14440866 0.027664807 -0.07708946
-0.09048739 -0.06907372 0.050290145 0.038510427 -0.095827416 -0.06801984 0.15039304 0.09391382
0.08273724 0.1111642 0.0615943 -0.030673983 -0.068487525 0.17677167 0.045777235 -0.018468505
00000000: 74ef 19bd 3270 363e 1328 7ebd 4259 103e
00000010: 664d 53bd a5cf c63c 2ca2 3ebd b063 9fbd
00000020: c88c 443d 4556 223e 912d 003d 627b 07bd
00000030: d7be dc3c 35ab dd3d a7e7 bebd 7099 e03d
00000040: 7110 fe3d 20ef e43d b129 bf3c 6dcd b0bd
00000050: 7375 153e 6fc7 573d 2e1c 85bc d393 0a3e
00000060: 810c 0b3e fb5e 95bb 5691 063e 7d4a cbbd
00000070: 2f01 063c 3ad4 6f3d 1ddb 4cbd ca95 233e
00000080: bb7d 86bd 35d0 0e3e 2a5f 1a3e a36a 8a3d
00000090: 36a6 2b3e 91a0 bb3d 955a b73d b67f ad3d
000000a0: da32 153e 273c f33d 0125 343e 7ac3 a9bd
000000b0: f534 243e dddf 133e 4ea1 e23c 14e1 9dbd
000000c0: 7451 b9bd 8676 8dbd 0afd 4d3d 1cbd 1d3d
000000d0: 2a41 c4bd fc4d 8bbd a200 1a3e e455 c03d
000000e0: 2472 a93d 0eaa e33d 4e4a 7c3d 0148 fbbc
000000f0: 3043 8cbd a203 353e e980 3b3d 434b 97bc

attention.in_proj_weight f4 [192, 64]
-0.0068832436 0.13355039 0.0049381396 -0.18963492 0.08662904 0.1577098 0.11212277 -0.14520639
0.15880911 0.03375109 -0.09737961 0.15517363 0.294175 -0.16266637 -0.06316476 0.08594033
-0.1259283 0.060249172 0.0875674 -0.07478104 0.26676673 0.009629225 0.15370718 -0.09220429
-0.09755674 -0.041612104 -0.15609866 0.13987853 0.19426322 0.39824182 -0.10225574 -0.10577347
-0.1389868 -0.13456224 -0.059313558 -0.2039727 -0.028700544 -0.19857791 0.08949649 -0.12258924
-0.1569311 0.40654466 -0.080810934 -0.09459503 0.21883585 0.22608751 0.110349625 0.013710618
-0.2129664 0.02603133 -6.197525e-05 0.11206793 0.02462129 0.13787444 0.3022354 0.44556653
0.14520529 -0.097664006 -0.11935089 -0.032973994 -0.059528094 -0.06801267 -0.1936955 0.11051759
0.05130966 0.069811165 0.12749249 -0.055188477 0.07794565 -0.0524095 -0.031117737 -0.07654716
0.12654562 -0.124865286 0.07759049 0.08243597 -0.17669533 0.15221812 -0.024722984 0.12161932
0.1780374 0.003135954 -0.14100042 0.035342854 -0.38571322 0.030285986 0.08126128 0.1650543
0.06644086 0.0581253 0.09026632 -0.030209307 -0.15068041 -0.31807658 0.02161701 -0.099879675
0.05364317 0.051611394 -0.11966399 -0.06635083 -0.051516477 0.18980397 -0.11921106 0.07378074
0.102987684 -0.46059522 0.027441304 0.021109313 -0.17499061 -0.40863645 0.042299785 -0.11510895
0.12427185 -0.08243637 0.10464391 -0.1550538 -0.021632295 0.0045914203 -0.3111838 -0.33410883
-0.13473019 -0.09160697 -0.11053753 0.02202375 -0.14433856 0.12950942 0.14774477 0.017140228
0.13233177 0.13773303 0.06739686 0.08520608 -0.014518954 -0.35335392 -0.13976797 0.113774665
0.16537851 0.00575067 -0.10968764 0.060907766 -0.013907395 0.16927184 -0.086304076 -0.049029015
0.06312889 0.2673122 -0.4618305 0.08295687 -0.41255268 0.2433693 -0.04827895 0.101359606
-0.014886342 0.036984432 0.10296274 0.01449629 -0.062106464 -0.31297433 -0.011884585 0.15394096
-0.110023834 0.21871592 -0.12413359 0.2261075 0.16546988 0.104417235 0.043231145 -0.0024054183
0.22008747 -0.19050361 0.19066358 0.08338337 -0.15479077 -0.31584242 0.13414605 -0.08000796
0.45469442 -0.038210317 0.1640599 -0.0014334391 0.072215594 0.024718627 -0.25569078 -0.25771117
-0.15281269 -0.05850958 -0.014398112 -0.009841184 -0.07238737 -0.08782781 0.26407894 -0.1256173
-0.10235993 -0.053292044 -0.095871694 0.024503643 -0.03335891 -0.31599098 0.038259774 -0.13394016
-0.0028716074 0.106914446 -0.012964891 0.10476454 -0.15448874 0.09226102 0.12344261 0.004204017
0.10234677 -0.049347844 -0.1679628 0.14268485 -0.34110898 0.13548647 -0.16170697 0.071761705
-0.041317526 -0.1514424 0.08036757 0.048165403 0.011905898 -0.37443846 -0.13405581 0.16090256
0.058273073 0.029444985 -0.07880721 0.18287267 0.042385 0.14188163 0.1226677 0.10708924
0.1478672 -0.31556645 0.00045367208 -0.08884258 -0.17472336 -0.26583186 0.0940119 -0.096126705
0.071502514 0.11881347 0.18049522 -0.2646624 0.09926228 -0.022286251 -0.17610861 -0.32322702
-0.052023236 -0.08747756 0.11301445 0.09274812 -0.11353724 0.16964017 0.018983016 0.05125965
00000000: d58c e1bb 6fc1 083e 1ed0 a13b a82f 42be
00000010: 916a b13d ae7e 213e 9fa0 e53d fcb0 14be
00000020: db9e 223e 953e 0a3d f66e c7bd d6e5 1e3e
00000030: 1b9e 963e 0392 26be 875c 81bd 7c01 b03d
00000040: 59f3 00be d6c7 763d 8956 b33d cd26 99bd
00000050: a695 883e e6c3 1d3c 6a65 1d3e 9ad5 bcbd
00000060: d4cb c7bd 7471 2abd 54d8 1fbe 513c 0f3e
00000070: f0ec 463e 5ae6 cb3e 756b d1bd c39f d8bd
00000080: 8e52 0ebe afca 09be c6f2 72bd 38de 50be
00000090: 671d ebbc 0258 4bbe f049 b73d 1110 fbbd
000000a0: 8cb2 20be 9f26 d03e 3480 a5bd 0abb c1bd
000000b0: 8116 603e 7c83 673e fcfe e13d 80a2 603c
000000c0: dd13 5abe a83f d53c b6f8 81b8 df83 e53d
000000d0: 96b2 c93c f52e 0d3e 99be 9a3e 4c21 e43e
000000e0: b2b0 143e 1104 c8bd 3d6e f4bd bd0f 07bd
000000f0: bbd3 73bd 3a4a 8bbd 1d58 46be 0c57 e23d
00000100: 142a 523d 28f9 8e3d 648d 023e 500d 62bd
00000110: f8a1 9f3d 58ab 56bd a0ea febc c2c4 9cbd
00000120: 2d95 013e 5fb9 ffbd c3e7 9e3d 31d4 a83d
00000130: 9fef 34be 11df 1b3e db87 cabc 8d13 f93d
00000140: 704f 363e 9484 4d3b 6a62 10be abc3 103d
00000150: 347c c5be 511a f83c 506c a63d ff03 293e
00000160: 2512 883d cb14 6e3d 8cdd b83d 8279 f7bc
00000170: f74b 1abe efda a2be 2816 b13c b78d ccbd
00000180: f1b8 5b3d 7866 533d 6512 f5bd f2e2 87bd
00000190: f102 53bd f95b 423e ee24 f4bd 5b1a 973d
000001a0: 35eb d23d 23d3 ebbe 96cc e03c 70ed ac3c
000001b0: bd30 33be cc38 d1be 8a42 2d3d 3ebe ebbd
000001c0: 3d82 fe3d 66d4 a8bd 8c4f d63d 6cc6 1ebe
000001d0: 3636 b1bc a073 963b 7c53 9fbe 5010 abbe
000001e0: b6f6 09be 6f9c bbbd 8061 e2bd 276b b43c
000001f0: 7dcd 13be 1e9e 043e 684a 173e aa69 8c3c
00000200: fb81 073e e309 0d3e 5d07 8a3d 8680 ae3d
00000210: e8e0 6dbc ceea b4be 561f 0fbe b102 e93d
00000220: fc58 293e 1e70 bc3b eaa3 e0bd 6c7a 793d
00000230: d8db 63bc 9955 2d3e 31c0 b0bd a6d2 48bd
00000240: b849 813d 25dd 883e 0c75 ecbe 4be5 a93d
00000250: 1b3a d3be cd35 793e 26c0 45bd a095 cf3d
00000260: d8e5 73bc fd7c 173d 21de d23d d981 6d3c
00000270: 5963 7ebd 2c3e a0be 90b7 42bc b3a2 1d3e
00000280: 2d54 e1bd 11f7 5f3e c039 febd b988 673e
00000290: f070 293e b4d8 d53d 2413 313d 39a4 1dbb
000002a0: 9c5e 613e 6113 43be 503d 433e e6c4 aa3d
000002b0: 7981 1ebe 19b6 a1be 955d 093e 37db a3bd
000002c0: b5cd e83e 6c82 1cbd 52ff 273e 3ce2 bbba
000002d0: c5e5 933d b87e ca3c e7e9 82be b8f2 83be
000002e0: ee7a 1cbe bea7 6fbd 0fe6 6bbc eb3c 21bc
000002f0: d43f 94bd 11df b3bd 5b35 873e d2a1 00be
00000300: 15a2 d1bd c248 5abd 6158 c4bd ddbb c83c
00000310: 5aa3 08bd 92c9 a1be 48b6 1c3d 9c27 09be
00000320: 9431 3cbb f6f5 da3d b26a 54bc cb8e d63d
00000330: 4c32 1ebe 58f3 bc3d 7bcf fc3d dac1 893b
00000340: 2f9b d13d f720 4abd 71fe 2bbe fa1b 123e
00000350: d6a5 aebe f7bc 0a3e 8396 25be cdf7 923d
00000360: 913c 29bd b713 1bbe c197 a43d 1649 453d
00000370: f510 433c 66b6 bfbe ed45 09be a4c3 243e
00000380: bfaf 6e3d 9c36 f13c ad65 a1bd f942 3b3e
00000390: e59b 2d3d 6b49 113e 3439 fb3d 9a51 db3d
000003a0: 806a 173e ed91 a1be d6da ed39 19f3 b5bd
000003b0: aeea 32be 1d1b 88be 5089 c03d 14de c4bd
000003c0: e96f 923d 7a54 f33d bdd3 383e d581 87be
000003d0: 064a cb3d a891 b6bc d155 34be 037e a5be
000003e0: 5116 55bd 6f27 b3bd 1f74 e73d baf2 bd3d
000003f0: 3686 e8bd 27b6 2d3e 4582 9b3c a4f5 513d

attention.in_proj_bias f4 [192]
0.13106304 -0.13773426 -0.23881248 -0.1441188 -0.14781183 0.16350164 0.12855874 -0.13646665
-0.17407136 -0.2321749 -0.11377234 -0.14224477 -0.12700415 -0.19195569 -0.1315552 0.11128736
0.020794878 -0.011142228 -0.011143327 0.03222114 0.017483702 -0.016307995 0.051132 -0.014841525
0.016980266 0.009810036 0.0014059425 0.039068308 0.007675569 0.01875278 0.037202258 -0.028472705
0.08261408 0.18090431 0.0814394 -0.086541444 0.08649564 0.10086669 0.105507314 -0.04051557
0.08032828 0.09230279 -0.20287369 0.07770382 0.082170516 0.110615626 0.0724915 -0.10835452
0.17177601 0.2114354 0.17102046 0.12339809 -0.18137585 -0.18348718 0.22086261 0.1917385
0.24956462 -0.26289633 -0.17421468 0.17079408 0.18382764 -0.3091305 0.16343623 0.14236617
-0.000990357 0.0012377902 0.0011398431 0.000995592 0.0011462587 -0.0012983556 -0.0010590284 0.0010493093
0.0010523939 0.0010167996 0.0009951928 0.0010541966 0.00069684745 -0.0008053229 0.00088807783 -0.0012610196
0.0012366435 -0.0019371817 -0.0013522031 0.0014409904 -0.0016211541 -0.0014483903 0.0013311588 -0.001066553
0.0018184219 0.0012881862 0.0018098627 0.0012080279 -0.0004301627 0.001477465 -0.00185732 0.00184924
-0.001730383 -0.0019257095 -0.0020183777 -0.00028769826 -0.002454027 -0.0020661827 -0.0015583147 0.0014436786
-0.0020740374 -0.0022553965 0.0020561342 -0.0019301228 -0.0020162438 -0.0017499919 -0.0022737198 0.002055752
-0.00018501254 -0.00014827828 -0.00030022202 0.0002500502 0.00025839754 0.0002059511 0.00013463115 -0.00022966013
0.0002859308 0.00036535304 0.00017928632 0.00011610749 -5.868e-05 0.00013754278 -0.00021152275 -0.00013975415
-0.09022652 0.09262171 0.08578425 0.07104121 -0.088298246 -0.088696316 -0.022892158 0.069973804
-0.09230208 -0.085992925 -0.08779098 -0.087699324 0.09138633 0.087661676 -0.08905511 0.088396356
-0.07932237 0.07408321 -0.020188306 0.045531288 0.078076884 0.050131187 -0.07400459 0.07220571
0.06739103 0.07772463 0.03721569 -0.073778756 -0.07418368 0.02349913 -0.07647744 -0.0598891
0.08332114 -0.077211715 -0.06916215 0.08037149 0.08144432 -0.07457886 -0.074779406 0.082444556
0.07771196 -0.06712758 -0.041956138 0.080197506 -0.0810185 0.0756165 -0.07659316 -0.07931463
-0.093192235 0.09300516 -0.08171114 -0.081857055 -0.07891158 -0.09194462 0.09611035 0.09433963
-0.08106312 -0.08803149 -0.08778414 0.08979531 0.07686994 -0.09516042 -0.068428285 -0.08273019
00000000: 6435 063e 360a 0dbe 428b 74be e193 13be
00000010: fc5b 17be f96c 273e e7a4 033e eabd 0bbe
00000020: c33f 32be 42bf 6dbe 7901 e9bd 9da8 11be
00000030: 600d 02be 0890 44be 68b6 06be a1ea e33d
00000040: 055a aa3c e48d 36bc 8092 36bc 50fa 033d
00000050: fb39 8f3c 5898 85bc ca6f 513d de29 73bc
00000060: 331a 8b3c 46ba 203c 9a47 b83a 1706 203d
00000070: 5783 fb3b 6e9f 993c 6561 183d 973f e9bc
00000080: 9231 a93d fb3e 393e b3c9 a63d a43c b1bd
00000090: a024 b13d 3293 ce3d 3814 d83d a8f3 25bd
000000a0: 2783 a43d 3f09 bd3d 1fbe 4fbe 2e23 9f3d
000000b0: 0449 a83d 728a e23d 6c76 943d f9e8 ddbd
000000c0: 0de6 2f3e 8682 583e fd1f 2f3e 23b8 fc3d
000000d0: 97ba 39be 10e4 3bbe cf29 623e 1957 443e
000000e0: de8d 7f3e 599a 86be 5565 32be a5e4 2e3e
000000f0: 503d 3c3e 5a46 9ebe d45b 273e 70c8 113e
00000100: dece 81ba 593d a23a ca66 953a 867e 823a
00000110: 0f3e 963a 962d aaba 19cf 8aba fa88 893a
00000120: 7bf0 893a 2246 853a 2171 823a f82c 8a3a
00000130: a4ac 363a 4e1c 53ba e5cd 683a cc48 a5ba
00000140: df16 a23a 08e9 fdba 683c b1ba 9ddf bc3a
00000150: e87c d4ba ead7 bdba 477a ae3a 95cb 8bba
00000160: 1d58 ee3a 5bd8 a83a ea38 ed3a b156 9e3a
00000170: 7687 e1b9 80a7 c13a 5171 f3ba 3362 f23a
00000180: 05ce e2ba 1768 fcba c246 04bb 35d6 96b9
00000190: bed3 20bb cb68 07bb 5d40 ccba d139 bd3a
000001a0: 93ec 07bb 46cf 13bb 35c0 063b 2dfc fcba
000001b0: f522 04bb fc5f e5ba b002 15bb ccb9 063b
000001c0: edff 41b9 267b 1bb9 1e67 9db9 2b19 8339
000001d0: 8879 8739 94f4 5739 c62b 0d39 ecd0 70b9
000001e0: fbe8 9539 db8c bf39 cefe 3b39 bc7e f338
000001f0: 2c1f 76b8 5c39 1039 35cc 5db9 f88a 12b9
00000200: afc8 b8bd 73b0 bd3d a7af af3d 0e7e 913d
00000210: b6d5 b4bd 6aa6 b5bd 5688 bbbc 6d4e 8f3d
00000220: df08 bdbd 0f1d b0bd c2cb b3bd b49b b3bd
00000230: c228 bb3d f787 b33d 8762 b6bd 2609 b53d
00000240: c473 a2bd f0b8 973d f261 a5bc 047f 3a3d
00000250: c6e6 9f3d 5c56 4d3d b88f 97bd 96e0 933d
00000260: 4f04 8a3d 172e 9f3d 7b6f 183d 5119 97bd
00000270: 9ded 97bd 3f81 c03c 34a0 9cbd 464e 75bd
00000280: 46a4 aa3d 2d21 9ebd e3a4 8dbd cf99 a43d
00000290: 48cc a63d cdbc 98bd f225 99bd b1d8 a83d
000002a0: 7327 9f3d 2f7a 89bd 33da 2bbd 973e a43d
000002b0: 07ed a5bd d3dc 9a3d e0dc 9cbd b56f a2bd
000002c0: 92db bebd 7d79 be3d 2c58 a7bd aca4 a7bd
000002d0: 659c a1bd 764d bcbd 81d5 c43d 2335 c13d
000002e0: 6c04 a6bd db49 b4bd 2cc8 b3bd 9ae6 b73d
000002f0: fd6d 9d3d 77e3 c2bd 2124 8cbd 726e a9bd

attention.out_proj.weight f4 [64, 64]
0.06532687 0.06709917 -0.10648224 0.12309081 -0.12378385 -0.0002636983 0.10516849 -0.1113158
-0.010523888 0.051844615 0.03865166 -0.05718338 0.12845023 0.11461513 0.057266593 0.041387293
0.072040096 -0.093947165 -0.04005117 -0.14007545 0.04965434 0.06148857 -0.06645656 -0.117721796
0.11165655 -0.060302153 0.06480573 -0.015126189 -0.0005466477 0.007446997 -0.054688655 0.043111995
0.010756345 0.0759907 0.09265307 0.08715878 -0.040711764 -0.09660258 0.09741902 0.06370299
-0.016641373 -0.057544187 0.12994431 -0.065733455 0.09549613 -0.08231202 -0.110724434 0.10142661
-0.13552949 0.06516834 -0.06867703 -0.15553863 -0.11507765 -0.0037389295 0.10593879 0.0077278465
-0.075230256 0.01719596 0.006159789 -0.03707145 -0.010708949 0.0021403881 0.09071096 -0.03978445
0.02279658 0.055453606 -0.02175994 0.11094716 -0.008297859 -0.0019132419 -0.05108728 -0.067349784
-0.112637825 -0.017193142 -0.02945054 -0.029747872 0.010623215 0.010735564 -0.0036261042 -0.02848298
-0.13588788 -0.0060627796 0.14163765 -0.042881288 0.022012265 -0.13400646 0.0072593065 -0.13009411
0.07698422 -0.026591381 -0.06757386 -0.20619553 -0.05245795 -0.071940415 -0.1840155 0.16812265
-0.019167194 0.0017574877 0.017470138 -0.021277793 0.015793204 0.009009357 0.11708588 0.09389783
0.049411394 0.0003235841 0.002165915 -0.088717125 0.018502435 -0.1322348 0.10188415 0.09509863
-0.09525039 0.1460448 0.03241721 -0.13726225 -0.022660542 -0.18361346 0.122017056 0.049278438
0.037343036 0.028513266 -0.07205368 -0.020249514 -0.01452283 -0.06937358 -0.05033245 -0.100141376
-0.03150025 0.121784575 0.06979289 -0.012020503 -0.054530244 -0.021529369 0.048848104 -0.048584253
-0.15594412 -0.06395509 -0.1232218 0.043934036 0.071091175 0.122482486 -0.062874764 -0.0030486272
-0.16249657 0.080573894 -0.12650669 -0.028689036 -0.062131006 0.13234334 -0.13509841 0.04077331
0.07399979 0.13762979 0.11207285 0.029946119 -0.15127063 -0.07383401 -0.077585675 0.08312063
0.024956074 -0.1332177 -0.14004649 0.0058754263 0.04753788 -0.047513895 -0.10767364 0.1172452
0.109265625 -0.05786136 -0.075420715 0.14177483 -0.14601076 0.11492609 -0.13801178 -0.13082993
-0.10117121 0.15648174 -0.17276326 -0.034410488 -0.15062688 0.05891474 -0.046310563 0.15324786
-0.16609766 -0.014943793 -0.010788734 0.1511463 -0.053582937 -0.14519347 0.021496898 -0.17462677
0.1360989 -0.08308672 -0.09552141 -0.035750482 0.11995406 -0.058801897 -0.07924515 -0.03225235
0.06507741 0.14339252 -0.06659806 0.1564481 -0.132517 -0.045575894 0.024906784 0.08908239
0.12368165 -0.06852756 -0.065028064 0.0038501117 -0.02258703 0.014207698 -0.10404497 -0.00020258647
-0.011919691 0.00025545957 -0.027930824 0.21086787 0.0069563445 0.05560913 0.059040435 0.008659809
-0.037906125 -0.012291986 0.050458126 -0.033973146 0.101733506 0.057546213 0.113526665 0.11072984
-0.1089574 -0.11395903 -0.08494078 -0.0033909404 -0.03517106 0.022270864 -0.042562086 -0.050255746
0.17923151 -0.13126795 0.005074297 0.14586887 0.16838987 0.030257529 0.003996326 -0.11131498
0.03457013 0.06596933 -0.03493211 0.0037204013 -0.13849762 0.020805357 -0.073653 0.02018946
00000000: 18ca 853d 4a6b 893d 5c13 dabd 0917 fc3d
00000010: 6382 fdbd fd40 8ab9 9462 d73d 8af9 e3bd
00000020: 636c 2cbc 055b 543d 3451 1e3d 1f39 6abd
00000030: 7588 033e 56bb ea3d 6090 6a3d b985 293d
00000040: c289 933d 5f67 c0bd b20c 24bd f06f 0fbe
00000050: 5962 4b3d 70db 7b3d 601a 88bd 2018 f1bd
00000060: 30ac e43d 64ff 76bd deb8 843d d6d3 77bc
00000070: e84c 0fba f005 f43b 3601 60bd 3496 303d
00000080: 613b 303c 03a1 9b3d e5c0 bd3d 4d80 b23d
00000090: 61c1 26bd 93d7 c5bd a083 c73d b776 823d
000000a0: 7d53 88bc 74b3 6bbd 1f10 053e 439f 86bd
000000b0: 7a93 c33d 3493 a8bd 7ec3 e2bd c1b8 cf3d
000000c0: 3ec8 0abe fb76 853d 8ba6 8cbd 8545 1fbe
000000d0: d5ad ebbd d408 75bb 70f6 d83d e039 fd3b
000000e0: 5212 9abd 8bde 8c3c 0ed8 c93b 3cd8 17bd
000000f0: 9674 2fbc c145 0c3b abc6 b93d 05f5 22bd
00000100: e5bf ba3c 5223 633d e741 b2bc 4438 e33d
00000110: bef3 07bc bfc5 faba e540 51bd afee 89bd
00000120: a9ae e6bd a2d8 8cbc 4242 f1bc cfb1 f3bc
00000130: fe0c 2e3c 38e4 2f3c efa3 6dbb 2355 e9bc
00000140: 3126 0bbe 48aa c6bb 7609 113e 4aa4 2fbd
00000150: 1153 b43c fd38 09be 7adf ed3b 6437 05be
00000160: e7a9 9d3d 2bd6 d9bc 2a64 8abd ec24 53be
00000170: 26de 56bd 7f55 93bd 8f6e 3cbe 5828 2c3e
00000180: 8504 9dbc 805b e63a 891d 8f3c c44e aebc
00000190: c060 813c fb9b 133c b9ca ef3d 814d c03d
000001a0: 9a63 4a3d b9a6 a939 06f2 0d3b 53b1 b5bd
000001b0: 6b92 973c 8f68 07be a3a8 d03d 12c3 c23d
000001c0: a312 c3bd c58c 153e e9c7 043d 7a8e 0cbe
000001d0: 9aa2 b9bc 2b05 3cbe 14e4 f93d 30d8 493d
000001e0: 03f5 183d a794 e93c e190 93bd 4fe2 a5bc
000001f0: 2af1 6dbc bc13 8ebd 6629 4ebd ec16 cdbd
00000200: 6806 01bd 316a f93d 93ef 8e3d a5f1 44bc
00000210: 1b5b 5fbd 5c5e b0bc f314 483d 4800 47bd
00000220: d1af 1fbe e3fa 82bd b65b fcbd 2df4 333d
00000230: 4098 913d 19d8 fa3d 7cc4 80bd 7acb 47bb
00000240: 8065 26be ed03 a53d f88a 01be 4505 ebbc
00000250: 157d 7ebd 0385 073e 3d57 0abe ea01 273d
00000260: 348d 973d d3ee 0c3e 7386 e53d 9051 f53c
00000270: b0e6 1abe 4936 97bd 3de5 9ebd 263b aa3d
00000280: ae70 cc3c 396a 08be 5968 0fbe a686 c03b
00000290: 14b7 423d ee9d 42bd ff83 dcbd 401e f03d
000002a0: a8c6 df3d 0900 6dbd 2d76 9abd 6c2d 113e
000002b0: d883 15be 5f5e eb3d f652 0dbe 48f8 05be
000002c0: da32 cfbd c03c 203e dae8 30be 03f2 0cbd
000002d0: ef3d 1abe 9550 713d 25b0 3dbd 02ed 1c3e
000002e0: 8115 2abe d0d6 74bc 3bc3 30bc 18c6 1a3e
000002f0: c879 5bbd 99ad 14be 431a b03c 5cd1 32be
00000300: 835d 0b3e 5f29 aabd bba0 c3bd 196f 12bd
00000310: 79aa f53d 42da 70bd 484b a2bd 0a1b 04bd
00000320: 4e47 853d 7dd5 123e 9064 88bd ee33 203e
00000330: 89b2 07be caad 3abd 5009 cc3c d470 b63d
00000340: ce4c fd3d 2d58 8cbd 6f2d 85bd 2852 7c3b
00000350: 6f08 b9bc 68c7 683c 8715 d5bd 646d 54b9
00000360: cf4a 43bc 34ef 8539 2fcf e4bc bfed 573e
00000370: 0cf2 e33b 66c6 633d 62d4 713d dfe1 0d3c
00000380: 7443 1bbd 5364 49bc 2ead 4e3d 6d27 0bbd
00000390: a859 d03d 94b5 6b3d ab80 e83d 54c6 e23d
000003a0: 0f25 dfbd 5a63 e9bd 6ff5 adbd 8a3a 5ebb
000003b0: 880f 10bd 6371 b63c 9555 2ebd f8d8 4dbd
000003c0: 7788 373e 1b6b 06be 4a46 a63b a65e 153e
000003d0: 656e 2c3e a3de f73c 9df3 823b 1cf9 e3bd
000003e0: 6999 0d3d ee1a 873d f914 0fbd fad1 733b
000003f0: 52d2 0dbe ff6f aa3c 62d7 96bd 5e64 a53c

attention.out_proj.bias f4 [64]
0.05696651 0.08883099 0.07094639 -0.09411029 0.05580834 -0.05246783 0.059691083 0.06842649
0.085075244 -0.0772325 0.0708777 0.06805195 0.05618493 -0.07851171 0.07031762 -0.09761469
-0.069388546 0.072864056 -0.067813285 -0.061285965 -0.07293935 -0.077938735 -0.086108625 0.06454675
-0.004728664 -0.056888126 0.034053344 -0.072370864 0.059669092 0.08624312 0.04713542 0.07623377
-0.06790422 -0.0870891 -0.06483157 0.05192806 0.06875239 0.07082181 0.07976206 -0.06980301
0.06890022 0.07934429 0.06767847 0.06648843 -0.029800648 -0.083639465 -0.0718007 -0.059239075
0.05076108 -0.06722179 -0.056929868 -0.058902267 0.07192768 0.060552865 0.064873494 0.0722763
0.06159971 0.06987079 0.06560257 -0.07875959 -0.05442932 0.062485147 -0.071898915 -0.060554385
00000000: b755 693d 06ed b53d 574c 913d e5bc c0bd
00000010: 4997 643d 82e8 56bd a37e 743d 3023 8c3d
00000020: ee3b ae3d 132c 9ebd 5428 913d d25e 8b3d
00000030: 2b22 663d bfca a0bd af02 903d 36ea c7bd
00000040: 951b 8ebd c039 953d b1e1 8abd fe06 7bbd
00000050: 3a61 95bd 589e 9fbd b859 b0bd 1631 843d
00000060: e9f2 9abb 8603 69bd 857b 0b3d 2d37 94bd
00000070: 9467 743d 3ca0 b03d 1211 413d 7320 9c3d
00000080: 5e11 8bbd c55b b2bd 6ac6 84bd 84b2 543d
00000090: 0ece 8c3d 060b 913d 4a5a a33d e1f4 8ebd
000000a0: 8f1b 8d3d 427f a23d 029b 8a3d 162b 883d
000000b0: 7d20 f4bc 2b4b abbd 3f0c 93bd aca4 72bd
000000c0: daea 4f3d 94ab 89bd 4b2f 69bd 8143 71bd
000000d0: d24e 933d 4806 783d 65dc 843d 9905 943d
000000e0: fa4f 7c3d 6b18 8f3d a45a 863d b54c a1bd
000000f0: 47f1 5ebd 6df0 7f3d bd3f 93bd e007 78bd

classifier.0.weight f4 [32, 64]
0.051924925 0.03790059 0.039530274 0.03554547 0.07220743 0.12124108 -0.020500991 -0.0077064047
-0.050972678 -0.092932716 -0.062217996 -0.04700297 0.114935696 -0.10043308 -0.078623496 0.070486724
-0.08277859 -0.12371823 -0.08482881 0.11167208 0.06501971 0.1810015 0.08582873 -0.08050108
0.029104171 0.008066873 -0.112907365 -0.004925635 -0.13451946 -0.0020131161 0.05411248 -0.046841305
0.0951033 -0.08159554 0.10622621 -0.056441464 0.025127565 0.017872201 -0.030433742 0.1157808
-0.007148757 0.03907641 0.049006723 -0.11034475 0.03804496 0.11741383 0.086076885 0.03320436
-0.12303741 -0.035222944 -0.037042048 0.06427162 -0.027544262 -0.10019894 -0.08888409 0.017261323
0.061256487 -0.23360081 -0.093374565 0.057471536 0.0062029515 0.0882488 0.047223397 0.11452303
0.092222065 -0.005230427 0.15431492 -0.06069887 -0.084865265 0.043741383 0.1455271 0.08324279
-0.006142915 -0.066305384 0.16437836 -0.0576797 0.081673354 -0.13300046 -0.018685441 -0.028768023
-0.09542471 0.1429515 -0.02779669 0.0057818256 -0.14196588 -0.034264058 -0.0946279 0.116914295
0.09448526 0.08445913 0.023358224 -0.13312292 0.14771609 0.13834822 0.020891236 -0.049106736
-0.10587142 -0.14750886 -0.054378662 0.0818795 -0.1029445 -0.018675443 0.10354679 -0.06841685
-0.02250479 0.0033845066 0.14880417 0.118603885 0.074927256 -0.06120757 -0.049138445 -0.12669943
0.09040807 -0.1213528 -0.07616 -0.14677247 0.038722854 -0.023341505 -0.019201972 0.117104694
0.15800172 0.076939166 0.1246444 -0.15020934 -0.016277576 0.13472861 -0.14421031 -0.14928181
-0.097495 0.049152937 0.16041154 -0.031249506 -0.037528444 0.03775479 0.004573246 -0.030702583
0.036690023 -0.059674483 0.15341207 0.11256686 0.10357141 0.080404274 0.089876555 -0.06395052
-0.068520755 0.09776462 0.088427134 0.04180409 0.025828307 0.07078448 0.0047511756 0.095587954
0.0049701585 0.04604113 -0.022127254 -0.06390567 -0.042267527 0.1409876 0.043257475 0.097770795
-0.025963085 -0.13972056 -0.06856687 -0.03374057 -0.03142631 0.15510173 -0.04394032 -0.07420006
-0.104094505 -0.028665004 0.14098534 -0.06900254 0.07431943 0.07880063 -0.013988021 0.010238668
0.10189674 -0.16174722 0.005759681 0.018055376 0.05648072 -0.011885009 0.11825472 0.0039502294
-0.031657733 0.11675239 -0.013808575 -0.05799899 -0.12628646 0.09748907 -0.034647185 -0.10092785
-0.06335911 0.09773521 -0.15033373 -0.09411526 0.25589225 -0.28111565 -0.13635392 -0.17857377
-0.020036232 0.15498953 -0.046167824 -0.13271345 -0.033826083 0.018736413 0.041990276 -0.042361323
0.071783386 -0.054343767 0.064088985 -0.21701266 0.11459839 -0.13835847 -0.04745368 -0.013893565
-0.09189218 -0.031594172 0.070976175 0.047608834 -0.13342434 -0.050068103 0.02045517 0.097192496
0.03062516 -0.0035421478 0.13518947 -0.14403132 0.05451438 -0.13099004 -0.13562377 -0.054039665
0.03984367 -0.01573644 -0.009246003 -0.092059776 -0.050816778 0.018846171 0.026096202 0.07763943
-0.044858955 0.11519133 0.18490407 0.1640116 3.3369026e-05 -0.055370256 0.0054245195 -0.03875256
-0.046034407 0.14065972 0.05133489 -0.0671277 0.13272515 -0.056840807 0.071715124 0.15780054
00000000: 3baf 543d a63d 1b3d 7fea 213d 2098 113d
00000010: 7de1 933d 3e4d f83d b2f1 a7bc 0286 fcbb
00000020: bac8 50bd 8253 bebd 4cd8 7ebd 3086 40bd
00000030: 6863 eb3d dcaf cdbd 5b05 a1bd 585b 903d
00000040: d287 a9bd fc5f fdbd baba adbd 55b4 e43d
00000050: 0e29 853d 7558 393e f9c6 af3d c0dd a4bd
00000060: df6b ee3c eb2a 043c fa3b e7bd 3967 a1bb
00000070: 78bf 09be 7cee 03bb 0ca5 5d3d abdc 3fbd
00000080: 85c5 c23d 901b a7bd 218d d93d 2a2f 67bd
00000090: 53d8 cd3c b968 923c 2f50 f9bc 7c1e ed3d
000000a0: 1f40 eabb 960e 203d 46bb 483d 6efc e1bd
000000b0: 08d5 1b3d a976 f03d 1449 b03d 4c01 083d
000000c0: 0afb fbbd ef45 10bd 67b9 17bd d7a0 833d
000000d0: 81a4 e1bc 1a35 cdbd dd08 b6bd 9e67 8d3c
000000e0: 15e8 7a3d 0d35 6fbe 2a3b bfbd 4667 6b3d
000000f0: 2142 cb3b c9bb b43d 526d 413d 0d8b ea3d
00000100: ecde bc3d 0064 abbb bb04 1e3e 619f 78bd
00000110: d7cd adbd 2a2a 333d 0e05 153e 327b aa3d
00000120: 824a c9bb 1ecb 87bd cd52 283e 8d41 6cbd
00000130: 5c44 a73d 4631 08be 3612 99bc ebaa ebbc
00000140: 086e c3bd e161 123e e2b5 e3bc 7875 bd3b
00000150: 815f 11be 7858 0cbd 46cc c1bd c370 ef3d
00000160: 7d81 c13d e9f8 ac3d bf59 bf3c 6051 08be
00000170: e342 173e 28ab 0d3e 1924 ab3c 2524 49bd
00000180: 1dd3 d8bd 900c 17be 29bc 5ebd 70b0 a73d
00000190: 91d4 d2bd 3efd 98bc 5710 d43d 221e 8cbd
000001a0: f75b b8bc 99ce 5d3b 1f60 183e 98e6 f23d
000001b0: 7673 993d cab4 7abd 6545 49bd 7fbd 01be
000001c0: de27 b93d d187 f8bd c6f9 9bbd 864b 16be
000001d0: db9b 1e3d af36 bfbc 744d 9dbc 96d4 ef3d
000001e0: 34cb 213e 4892 9d3d 9045 ff3d 7ad0 19be
000001f0: 8d58 85bc 4cf6 093e deab 13be 55dd 18be
00000200: 75ab c7bd 9754 493d ec42 243e f7fe ffbc
00000210: 6db7 19bd c4a4 1a3d 2bdb 953b fc83 fbbc
00000220: 4748 163d 3b6d 74bd 0e18 1d3e 7489 e63d
00000230: 3f1d d43d ffaa a43d 3311 b83d 7df8 82bd
00000240: 9c54 8cbd d138 c83d 4919 b53d c43a 2b3d
00000250: e395 d33c 74f7 903d c0af 9b3b 9ec3 c33d
00000260: b6dc a23b a095 3c3d 3744 b5bc fae0 82bd
00000270: b720 2dbd 0e5f 103e c02e 313d 0e3c c83d
00000280: 89b0 d4bc e812 0fbe ca6c 8cbd 8d33 0abd
00000290: e0b8 00bd fdd2 1e3e c4fa 33bd 33f6 97bd
000002a0: 802f d5bd dfd2 eabc 765e 103e 3451 8dbd
000002b0: c934 983d 3a62 a13d 032e 65bc 16c0 273c
000002c0: 3daf d03d 10a1 25be b5bb bc3b dee8 933c
000002d0: 5458 673d 57b9 42bc 882f f23d ed70 813b
000002e0: 8aab 01bd e11b ef3d 5d3d 62bc 5990 6dbd
000002f0: 3d51 01be 59a8 c73d 35ea 0dbd 43b3 cebd
00000300: 6cc2 81bd 6629 c83d 16f1 19be 80bf c0bd
00000310: 4f04 833e 64ee 8fbe 5da0 0bbe 0bdc 36be
00000320: 0623 a4bc 93b5 1e3e 791a 3dbd 09e6 07be
00000330: 388d 0abd 1b7d 993c fffd 2b3d 1183 2dbd
00000340: 2b03 933d 9297 5ebd 1641 833d 9138 5ebe
00000350: 90b2 ea3d d8ad 0dbe ca5e 42bd d6a1 63bc
00000360: f831 bcbd e468 01bd f55b 913d 7b01 433d
00000370: 64a0 08be 3614 4dbd 9a91 a73c dc0c c73d
00000380: 9ee1 fa3c 6123 68bb 1c6f 0a3e f27c 13be
00000390: 784a 5f3d 4122 06be f5e0 0abe b258 5dbd
000003a0: 1e33 233d b5e9 80bc 8c7c 17bc d689 bcbd
000003b0: 4125 50bd 4963 9a3c b4c7 d53c 6c01 9f3d
000003c0: 06be 37bd 6fe9 eb3d 7e57 3d3e a8f2 273e
000003d0: b8f5 0b38 eccb 62bd 2bc0 b13b 01bb 1ebd
000003e0: 938e 3cbd 1a09 103e 8944 523d 3f7a 89bd
000003f0: 1ae9 073e e8d1 68bd 61df 923d 7796 213e

classifier.0.bias f4 [32]
-0.09578662 0.04134806 0.20634595 0.019229619 0.17116728 -0.12554951 -0.14764501 0.09154853
0.013565333 0.035045948 -0.1312983 0.12617885 -0.10807356 0.107071586 0.06792968 -0.11962688
-0.044048738 0.0059176455 -0.10915313 -0.098647244 0.06025743 -0.0906101 -0.061969157 -0.0050784894
0.17162631 0.01407594 0.025240984 0.16775714 -0.11587256 -0.12525052 -0.06310331 0.022562567
00000000: c72b c4bd 955c 293d 5a4c 533e 6f87 9d3c
00000010: 7a46 2f3e 0d90 00be 4130 17be cc7d bb3d
00000020: 2141 5e3c 578c 0f3d 1073 06be 0735 013e
00000030: ac55 ddbd 5948 db3d b71e 8b3d f0fe f4bd
00000040: 736c 34bd cfe8 c13b ad8b dfbd 9107 cabd
00000050: 7fd0 763d ca91 b9bd 5fd3 7dbd 7569 a6bb
00000060: cfbe 2f3e c59e 663c 2ec6 ce3c 87c8 2b3e
00000070: 984e edbd ac41 00be 4f3c 81bd 22d5 b83c

classifier.2.weight f4 [1, 32]
-0.15388718 -0.18182997 -0.044286966 0.21157832 -0.09116718 -0.10309918 -0.19145563 0.02772495
0.11041644 -0.011509745 0.006744921 -0.15278704 0.039333824 0.112001844 0.07675441 -0.14368902
-0.038566668 -0.08903826 -0.12579632 0.0028060186 -0.11166177 -0.08749446 0.083766334 0.09701734
-0.104951985 0.029660555 0.0036517475 -0.15987624 0.00744439 0.013270296 -0.16216743 0.068594284
00000000: 9a94 1dbe a331 3abe 4066 35bd fda7 583e
00000010: dcb5 babd aa25 d3bd f20c 44be 6f1f e33c
00000020: 0422 e23d 5f93 3cbc 8004 dd3b 3574 1cbe
00000030: 811c 213d 3961 e53d 6b31 9d3d 3723 13be
00000040: 15f8 1dbd b159 b6bd c0d0 00be 2ee5 373b
00000050: edae e4bd 4c30 b3bd af8d ab3d 07b1 c63d
00000060: 11f1 d6bd b1fa f23c 2852 6f3b 99b6 23be
00000070: 12f0 f33b a86b 593c 380f 26be 297b 8c3d
