signals/MultiSignalClassifier4_modelOPD.onnx (onnx, 285156 bytes, 11 tensors)

shared_layer.0.weight f4 [128, 320]
0	0x3c91fe8c	0.017821573
1	0x3b5d8fa0	0.003380753
2	0x3d1be2d2	0.03805811
3	0x3d0710d2	0.032975025
4	0x3d045a6c	0.032312796
5	0x3aa96d40	0.0012926236
6	0xbd3fea96	-0.046854578
7	0x3c5d28a8	0.013498463
8	0xbc93ec10	-0.0180569
9	0xbc2277fc	-0.009916302
10	0xbccdf22a	-0.025139887
11	0xbcddcc15	-0.027074853
12	0xbd156bee	-0.036479883
13	0x3ca4c330	0.020112604
14	0xbc8d3f0a	-0.017241973
15	0xbd4f2155	-0.050568897
16	0xbccd2fd6	-0.025047224
17	0x3db42686	0.0879641
18	0x3dff796c	0.12474331
19	0x3e5f13ea	0.2178494
20	0x3dc26e26	0.094936654
21	0x3d57b077	0.052658524
22	0x3dc5636a	0.09638102
23	0x3c129e4e	0.008948876
24	0x3d0ce709	0.03440002
25	0x3cc0fd0c	0.023558162
26	0x3d6f584e	0.058433823
27	0x3a46a9f3	0.0007578425
28	0x3c3e2d7e	0.011607526
29	0x3d61ae73	0.05509801
30	0x3ded42a7	0.115849786
31	0x3d6a2c18	0.057170957
32	0x3ddddbcc	0.108329386
33	0x3d2420f1	0.040070478
34	0x3d98d95d	0.07463334
35	0x3dcef1a2	0.101046816
36	0x3cb98d33	0.022650337
37	0xbc434ad7	-0.011919699
38	0xbc98b433	-0.018640613
39	0x3d0ca5b7	0.034337725
40	0xbd7b1633	-0.061300468
41	0xbd68b4ab	-0.056812923
42	0x3c9e3fab	0.019317469
43	0x3d14d0fd	0.03633212
44	0xbb07446f	-0.0020640155
45	0x3cbbb740	0.022914529
46	0xbd7b7af6	-0.06139656
47	0x3be17343	0.0068801953
48	0xbd59ce70	-0.05317539
49	0x3d2a7fc8	0.041625768
50	0xbd281633	-0.041036796
51	0x3d06d062	0.032913573
52	0xbd2cf5fe	-0.042226784
53	0x3c902042	0.017593507
54	0xbd46a9d7	-0.048501816
55	0xbd6b48f6	-0.057442628
56	0xbd8bb2f4	-0.06821242
57	0xbd342338	-0.0439789
58	0xbd263f91	-0.040587965
59	0x3c9a9ae2	0.018872682
60	0xbd57b528	-0.052663
61	0x3c8c8b88	0.017156377
62	0xbbe5f5fd	-0.0070178495
63	0xbaa23f61	-0.0012378508
64	0xbc8e502b	-0.017372211
65	0x3c9d6d64	0.0192172
66	0x3d3d8e00	0.046278
67	0x3d78f47d	0.060780037
68	0x3d2657ae	0.04061096
69	0x3d3f1b3f	0.046656843
70	0xbb701cb0	-0.0036638193
71	0x3d869d07	0.06572919
72	0x3db273bb	0.0871348
73	0x3d1a17c9	0.03762034
74	0x3d025ffe	0.031829827
75	0x3dc90994	0.0981628
76	0x3d96b4fe	0.0735874
77	0x3cb32312	0.021867309
78	0x3d1a367d	0.03764962
79	0x3c6750ff	0.014118432
80	0xbd01c142	-0.031678446
81	0x3d3245ec	0.043523714
82	0xba207d1b	-0.0006122158
83	0xbb706d5d	-0.003668628
84	0xbcf38d6e	-0.029730525
85	0x3d5f351d	0.054494012
86	0xbccb7682	-0.024836782
87	0x3cf4fcc8	0.029905692
88	0xbcbc1e4e	-0.02296367
89	0x3cbf5935	0.023357967
90	0xbd5c40ad	-0.053772617
91	0xbd955a5e	-0.07292627
92	0xbd205fb9	-0.03915379
93	0xbd4b7373	-0.049670648
94	0xbdd506d4	-0.10401693
95	0xbdcf095b	-0.10109206
96	0xbd86d76f	-0.065840594
97	0xbd906ce6	-0.07052021
98	0x3c9b18f5	0.018932799
99	0xbbce9c7d	-0.006305276
100	0x3d3521de	0.04422175
101	0x3c126711	0.008935706
102	0x3d8a8f05	0.0676556
103	0x3da7358e	0.081645116
104	0x3d94c541	0.07264186
105	0xbc16d56d	-0.009206158
106	0x3c39db87	0.011343843
107	0xbcf3394f	-0.029690413
108	0xbac155cc	-0.0014750301
109	0x3c43d6dd	0.011953083
110	0xbd674539	-0.0564625
111	0x3be4b3da	0.006979448
112	0xbbb38948	-0.0054790117
113	0xbcadaf16	-0.021201652
114	0x3bf60584	0.0075079817
115	0xbd20290e	-0.039101653
116	0x3d10b336	0.03532716
117	0x3d42b398	0.047534555
118	0x3d59ff2f	0.053221878
119	0xbbd63075	-0.0065365382
120	0xbc0cd430	-0.008595511
121	0x3c082b8d	0.008311165
122	0x3cdddfc0	0.027084231
123	0x3c505c3b	0.012717302
124	0x3c66d029	0.014087715
125	0x3d61f422	0.055164464
126	0x3d8dd100	0.06924629
127	0x3cf39200	0.029732704
128	0xbc8de2ab	-0.017319998
129	0x3cd7562c	0.026286207
130	0xbac6bfe4	-0.0015163389
131	0xbcd2475f	-0.025668798
132	0xbd1affe7	-0.037841704
133	0xbd5d50c3	-0.0540321
134	0x3c53af91	0.012920276
135	0xbd777a63	-0.06041945
136	0xb8df461c	-0.000106465275
137	0xbce65a6c	-0.028119288
138	0xbc15acce	-0.009135438
139	0xb9cd489c	-0.00039154745
140	0x388267f8	6.218249e-05
141	0x3cf92a07	0.030415548
142	0xbbe3bd9c	-0.0069500934
143	0x3cad8b51	0.021184595
144	0xbd27ab9c	-0.040935144
145	0xbd9b0745	-0.07569746
146	0xbd845b59	-0.06462736
147	0xbce87cf5	-0.028379897
148	0xbda6612d	-0.081240036
149	0xbc5ce92e	-0.013483329
150	0xbd45ddcb	-0.04830722
151	0xbc37f141	-0.011226953
152	0x3ba1807d	0.004928647
153	0xbd610db8	-0.054944724
154	0x3cd17488	0.025568262
155	0x3d8978ce	0.06712495
156	0x3d06ee11	0.03294188
157	0x3d3f01c7	0.046632554
158	0xbbf69a6c	-0.0075257327
159	0x3d8875c6	0.066630885
160	0x3d100718	0.035163015
161	0x3d84531b	0.064611636
162	0x3ccbcdcb	0.024878403
163	0x3cbbeb8a	0.022939462
164	0x3df0ee29	0.117641754
165	0x3cbe0a7f	0.023198364
166	0x3cf4ef49	0.029899256
167	0x3dacd82d	0.0843967
168	0x3c7fa910	0.0156042725
169	0x3d416c10	0.047222197
170	0x3d91263d	0.070873715
171	0x3d52ed7c	0.051496014
172	0x3d795dda	0.06088052
173	0x3d90e85a	0.070755675
174	0x3de54ae0	0.11195922
175	0x3dd7787f	0.1052103
176	0x3d5e35d9	0.054250572
177	0xbb61c44d	-0.003444928
178	0x3c9e6fb4	0.019340374
179	0x3d6ea5a8	0.05826345
180	0x3d811133	0.063021086
181	0x3d88a6aa	0.06672414
182	0x3c429eba	0.011878664
183	0x3d5cc4b6	0.053898536
184	0x3d28fb2b	0.041255157
185	0xbca1cf7c	-0.019752257
186	0x3d8d18f1	0.06889523
187	0x3d5b62c5	0.05356099
188	0x3ab19352	0.0013547933
189	0x3db44419	0.08802051
190	0x3d58e79d	0.05295526
191	0x3bad954a	0.0052973377
192	0x3d71f682	0.05907298
193	0x3db9f51a	0.090799525
194	0x3c55f964	0.013059948
195	0x3db39a10	0.087696195
196	0x3dee5ea9	0.11639149
197	0x3cfc7bc4	0.030820735
198	0x3c168ddf	0.009189098
199	0x3dbec555	0.09314982
200	0x3d88d806	0.06681828
201	0x3d2a0158	0.041505188
202	0xbc07d8f6	-0.008291474
203	0x3d44748c	0.04796271
204	0xbc4474ea	-0.011990765
205	0x3d06629c	0.032808885
206	0x3d226544	0.039647356
207	0x3d3033ab	0.043018024
208	0x3c9b3cc7	0.01894988
209	0x3ca0266e	0.019549575
210	0x3d1d176f	0.038352426
211	0x3d626f3b	0.05528186
212	0x3c37435e	0.011185495
213	0x3ce68727	0.028140618
214	0x3cdaf0cd	0.02672615
215	0xb9a861f0	-0.00032116426
216	0xbd642a08	-0.055704147
217	0xbd61f94e	-0.055169396
218	0xbd47f2a9	-0.048815403
219	0xbc1f3721	-0.009717734
220	0xbb8b6b9a	-0.0042547705
221	0xbcf807f3	-0.030277228
222	0xbd20df73	-0.039275598
223	0xbcc5c1e0	-0.024140298
224	0x3d149c42	0.03628183
225	0x3d1d6241	0.03842378
226	0xbd0a43ca	-0.033756055
227	0x3ccf8b1b	0.025334885
228	0x3d0ec207	0.034853008
229	0x3d59d70e	0.053183608
230	0x3db6646a	0.08905871
231	0x3db8281b	0.089920245
232	0x3cdd9836	0.027050119
233	0x3c94ada5	0.018149206
234	0xbc599015	-0.013278981
235	0x3cb04e03	0.021521574
236	0xbc7bb432	-0.015362786
237	0xbcc1d1ee	-0.023659673
238	0xbd98753c	-0.07444236
239	0xbda6ae23	-0.08138683
240	0xbd055a92	-0.032557078
241	0xbd04472c	-0.032294437
242	0xbd370f01	-0.044692043
243	0x3bf6a741	0.0075272624
244	0xbb306adc	-0.0026919162
245	0x3ca5b753	0.020229017
246	0x3d4fe4eb	0.050755423
247	0x3d273a9e	0.040827386
248	0x3c92648d	0.017870212
249	0x3d243f2f	0.04009932
250	0x3d8b911b	0.06814786
251	0x3dc850ed	0.0978106
252	0x3db5cc0a	0.08876808
253	0x3c96f63d	0.018427962
254	0x3d7d7869	0.06188241
255	0xbcd5a32f	-0.026078789

shared_layer.0.bias f4 [128]
0	0x3c6c10a8	0.014408268
1	0xbc56c414	-0.013108272
2	0xbd13fc8b	-0.036129516
3	0x3c7dcc7c	0.015490647
4	0x3d272c5f	0.0408138
5	0x3cc59120	0.024117053
6	0x3c4a682e	0.01235394
7	0x3d514e18	0.051099867
8	0xbcf5c6bf	-0.030001996
9	0xbc2e7ad6	-0.010649404
10	0x3d7cb3f8	0.06169507
11	0xbc84dcc6	-0.016218554
12	0xbc970d82	-0.018439058
13	0x3d07154a	0.032979287
14	0xbcee5e29	-0.029097633
15	0xbcac7c69	-0.021055417
16	0x3c63aae4	0.013895724
17	0x3c682aa1	0.01417032
18	0x3c94f917	0.018185182
19	0xbcd049b4	-0.02542577
20	0xbd0dbd1c	-0.034604177
21	0xbc1fb3b5	-0.009747435
22	0x3d0dcdad	0.034619976
23	0xbd4577a4	-0.0482098
24	0x3c38c7ae	0.011278076
25	0x3d0d80cf	0.03454667
26	0x3d33e5ff	0.043920513
27	0x3d8264f4	0.063669115
28	0xbcabc843	-0.020969516
29	0x3d4a398d	0.04937129
30	0x3dbe93d4	0.0930554
31	0x3c8e2510	0.017351657
32	0x3be988b6	0.007126893
33	0xbcaab41a	-0.020837832
34	0xbb93ea1c	-0.004513992
35	0x39a4164b	0.00031297127
36	0xbca01db5	-0.019545415
37	0x3d423187	0.047410514
38	0x3d0b806a	0.034058012
39	0x3c796398	0.015221499
40	0x3d174fe3	0.03694142
41	0x3bfc32ff	0.007696509
42	0x3ca3b514	0.019983806
43	0x3d127a59	0.03576121
44	0xbd393e1c	-0.045225248
45	0xbd4f5dcc	-0.05062656
46	0xbd79017d	-0.060792435
47	0xbd257473	-0.040394258
48	0x3cb13310	0.021630794
49	0x3d045bf4	0.032314256
50	0x3d8da239	0.06915707
51	0x3d0c68fb	0.034279805
52	0x3db6f7a7	0.08933955
53	0x3d5efd98	0.054441065
54	0x3c91675d	0.017749483
55	0x3d584850	0.052803338
56	0x3d5678a9	0.052361164
57	0x3c2970ef	0.010341867
58	0x3ced7f21	0.028991284
59	0x3cae283c	0.02125942
60	0x3d19c98d	0.03754573
61	0xbc465da4	-0.012107287
62	0x3d626dfb	0.055280667
63	0x3d80608d	0.062684156
64	0xbd6eb3ff	-0.058277126
65	0xbb4b1f07	-0.0030993836
66	0x3da66bb8	0.081260145
67	0xbd5765f8	-0.05258748
68	0x3d2ec657	0.04266962
69	0x3d706509	0.058690105
70	0xbcdb6786	-0.026782762
71	0xbcb4d3d2	-0.02207366
72	0x3cc5d6d5	0.024150291
73	0x3d8a62ce	0.06757127
74	0xbb2efd36	-0.0026701218
75	0x3c4a859f	0.012360959
76	0x3c88ccbd	0.01669919
77	0x3d40c11a	0.047059156
78	0x3cc0dca5	0.023542712
79	0x3dba090a	0.09083755
80	0xbca35958	-0.019940063
81	0x3d8e4c3a	0.06948133
82	0xbd499526	-0.049214505
83	0xbd43787a	-0.047722317
84	0x3caa2322	0.020768706
85	0x3c865962	0.016400043
86	0xbd31d314	-0.04341419
87	0xbb08696b	-0.0020814787
88	0xbca75fb0	-0.02043137
89	0x3d02991f	0.03188431
90	0x3caebf91	0.02133158
91	0x3d4bf1a8	0.04979101
92	0x3c5b299f	0.013376622
93	0x3d551fdb	0.052032333
94	0x3c87d2da	0.016580034
95	0xbd42262a	-0.047399677
96	0xbd596fef	-0.053085264
97	0x3cc53ac8	0.02407588
98	0x3cccd727	0.025004936
99	0x3d43bd86	0.047788166
100	0x3cf9e733	0.030505752
101	0xbd90574c	-0.070479006
102	0xbd48b282	-0.048998363
103	0xbcdc3e50	-0.026885182
104	0x3da557e0	0.080734015
105	0x3d264391	0.04059178
106	0x3cb1f77d	0.021724457
107	0x3d69ab26	0.057047985
108	0x3c23ec31	0.010005043
109	0xbd0a58ca	-0.033776082
110	0x3bd9a6ad	0.0066421838
111	0x3d277254	0.040880516
112	0x3cda233f	0.026628135
113	0xbc8873a5	-0.016656706
114	0x3d4ffc58	0.050777763
115	0xbc8d5b2a	-0.017255384
116	0x3d79fc17	0.061031427
117	0x3cf83f74	0.030303694
118	0xbcd0a1d7	-0.025467796
119	0xbd8f7c80	-0.07006168
120	0x3c2c6886	0.010522967
121	0xbc1e3605	-0.009656434
122	0xbd017676	-0.031607114
123	0x3cb0f751	0.021602305
124	0x3c8cfd99	0.017210769
125	0x3d09715e	0.03355538
126	0xbcfafadd	-0.030637199
127	0x3d0cb752	0.034354515

shared_layer.2.weight f4 [64, 128]
0	0x3cb09efc	0.021560185
1	0x3d8c2415	0.068428196
2	0xbd525fc0	-0.051360846
3	0xbce30866	-0.027713966
4	0xbc57dfa8	-0.013175882
5	0x3d7a043e	0.061039202
6	0xbdaad9d0	-0.08342326
7	0xbd22d01f	-0.03974926
8	0x3dad67f3	0.08467092
9	0x3d9a1ff1	0.075256236
10	0x3ccf288c	0.025287889
11	0x3c3c8dc0	0.011508405
12	0xbda13a0e	-0.07872401
13	0xbd281c74	-0.04104276
14	0xbd5aab6f	-0.053386148
15	0x3bc533d0	0.0060181394
16	0x3b1f97c0	0.0024351925
17	0x3d82a343	0.06378796
18	0x3d029c98	0.03188762
19	0x3d7a4f72	0.06111092
20	0xbd24a237	-0.040193763
21	0xbd14ed24	-0.036358967
22	0xbd572d49	-0.05253342
23	0xbb340b80	-0.0027472675
24	0xbda6f6ea	-0.08152564
25	0xbd92280c	-0.071365446
26	0xbd854a4f	-0.06508314
27	0x3d7b7316	0.06138905
28	0x3d37fc5e	0.04491841
29	0xbd67742b	-0.05650727
30	0xbd4b2add	-0.049601424
31	0xbda31276	-0.079625055
32	0xbbe10cc0	-0.006867975
33	0xbdb4e565	-0.08832816
34	0xbd3e5d1d	-0.04647552
35	0xbd9485a8	-0.072520554
36	0xbb8f1b00	-0.0043672323
37	0x3d69390a	0.056939162
38	0x3bdea2f0	0.006794326
39	0x3da404c5	0.08008722
40	0xbd49f2cc	-0.049303815
41	0xbba7b900	-0.0051184893
42	0xbc41d6c0	-0.011830986
43	0x3d800ced	0.062524654
44	0xbd4305dc	-0.04761301
45	0x3d0387c6	0.032111906
46	0x3da22861	0.07917858
47	0x3d2219e6	0.03957548
48	0x3ccec4d8	0.025240347
49	0xbd05e3f6	-0.032688104
50	0xbd5c967c	-0.05385445
51	0xbd910029	-0.07080109
52	0x3c770978	0.015077941
53	0xbd8f145e	-0.069863066
54	0xbc79b200	-0.015240192
55	0xbc11d708	-0.008901365
56	0x3d82dae9	0.0638941
57	0x3d0e21ba	0.034700133
58	0x3d8b451b	0.0680029
59	0xbd8285ab	-0.063731514
60	0xbdb3aee7	-0.08773594
61	0x3c0f5cc8	0.008750148
62	0xbd4fb5a2	-0.050710328
63	0xbafd4280	-0.0019322187
64	0xbd7f3cbe	-0.062313788
65	0xbd041989	-0.032250915
66	0xbca7f2e4	-0.020501561
67	0x3d1edbbe	0.03878378
68	0x3d457192	0.048204012
69	0x3d0e201a	0.034698583
70	0x3d880129	0.06640846
71	0x3d219432	0.03944797
72	0xbd9456f8	-0.072431505
73	0xbcc14394	-0.023591794
74	0x3c94ca90	0.018162996
75	0xbcd10a2c	-0.025517546
76	0xbc055f50	-0.0081404
77	0x3b17a940	0.0023141652
78	0x3d90d683	0.07072165
79	0x3d879023	0.06619289
80	0x3d6a4aee	0.057200365
81	0x3b8680d0	0.004104711
82	0x3d8a3b85	0.06749634
83	0xbcea727e	-0.028619047
84	0x3daec18f	0.08533012
85	0x3cfc69d8	0.030812189
86	0xbd3ead18	-0.046551794
87	0x3db31601	0.08744431
88	0x3ccbcea4	0.024878807
89	0xbd965689	-0.07340724
90	0xbce3c2ae	-0.027802791
91	0xbd51002c	-0.051025555
92	0x3b093260	0.0020934567
93	0x3ceea03c	0.02912914
94	0x3d766226	0.060152195
95	0x3d061d64	0.032742873
96	0xbc221cb8	-0.009894542
97	0xbc483d70	-0.012221679
98	0xbccee7f8	-0.025257096
99	0xbd2077b3	-0.039176654
100	0x3d8f3135	0.06991807
101	0x3d133cc2	0.035946615
102	0xbda053cd	-0.07828484
103	0x3d239b4a	0.039943017
104	0xbd8f0656	-0.0698363
105	0x3d0db4e0	0.034596324
106	0x3ac93540	0.0015350953
107	0xbc4e4598	-0.012589835
108	0xbca27e0c	-0.019835494
109	0x3db3b80f	0.08775341
110	0x3c3af2a8	0.011410393
111	0x3d96dd27	0.073664
112	0x3dadb5b3	0.08481922
113	0xbc312bd0	-0.010813668
114	0x3ca57c24	0.020200796
115	0x3d0437b0	0.03227967
116	0xbd8254a0	-0.06363797
117	0x3c276828	0.010217704
118	0xbac9f580	-0.0015408248
119	0x3d976a47	0.07393318
120	0xbd92dae8	-0.07170659
121	0x3d91fef3	0.07128706
122	0x3d39b5b2	0.045339294
123	0xbd290f6c	-0.041274473
124	0xbd9c7075	-0.07638637
125	0x3d10997c	0.035302624
126	0x3d957b8b	0.072989546
127	0xba46a180	-0.0007577166
128	0x3d885dc2	0.06658508
129	0xbcf71554	-0.030161537
130	0xbc7425de	-0.014901606
131	0x3d4f6ce6	0.050640963
132	0xbc3654bb	-0.0111286
133	0xbba26200	-0.00495553
134	0x3d65f6e5	0.05614366
135	0xbd688a8d	-0.056772757
136	0xbccd2b90	-0.025045186
137	0x3d4f6c71	0.050640527
138	0x3d9c6f3f	0.07638406
139	0xbd9587ac	-0.07301268
140	0x3d82335b	0.063574515
141	0x3d817667	0.063214116
142	0xbcba0dfa	-0.022711743
143	0xbc82cac3	-0.015965825
144	0xbce91543	-0.028452521
145	0xbd941648	-0.07230812
146	0x3d3d2600	0.046178818
147	0xbc8d4a14	-0.017247237
148	0x3d303fa6	0.04302945
149	0xbd9f05b6	-0.07764761
150	0x3d9c86f7	0.0764293
151	0x3d2f7746	0.042838357
152	0xbd98b720	-0.07456803
153	0x3d988f7f	0.07449245
154	0xbd02b3e5	-0.031909842
155	0x3b9617cf	0.004580475
156	0x3d1ce6ce	0.03830605
157	0xbc6d8b25	-0.014498507
158	0x3d2bd9af	0.041955646
159	0xbd9d8eb6	-0.076932356
160	0x3b774f20	0.003773637
161	0x3d1d9faa	0.038482346
162	0x3d5b45a7	0.053533223
163	0x3da1366f	0.078717105
164	0xbd8c78cc	-0.06858978
165	0xbd67ace5	-0.05656137
166	0xbd543ee6	-0.051817797
167	0xbd96b688	-0.07359034
168	0x3d519119	0.051163767
169	0x3d84a7a6	0.06477289
170	0xbd3c7f86	-0.046020053
171	0x3d547f3d	0.051879156
172	0xbd1a05c9	-0.037603173
173	0x3bcac7a0	0.006188348
174	0xbdacdfeb	-0.084411465
175	0x3c838373	0.01605389
176	0x3d3a3953	0.045464825
177	0x3d87b6d6	0.0662667
178	0x3d335fb2	0.043792434
179	0xbcc844ac	-0.024446808
180	0x3da01b90	0.07817757
181	0xbc74d2cc	-0.014942836
182	0xbc9bd9d6	-0.01902477
183	0xbd00de17	-0.0314618
184	0x3d4d601e	0.050140493
185	0xbc7938f8	-0.015211336
186	0x3d995de3	0.074886106
187	0xbd01c3da	-0.03168092
188	0xbd5e95f2	-0.054342218
189	0x3c8d57e8	0.017253831
190	0xbdb081c4	-0.08618501
191	0x3d8ced96	0.068812534
192	0xbc90a155	-0.017655054
193	0x3cfc23c7	0.030778779
194	0x3d056cb5	0.032574374
195	0xbc7208c3	-0.014772597
196	0x3c2f9867	0.010717488
197	0xbd5624dc	-0.052281246
198	0x3d0932f4	0.03349586
199	0xbd072691	-0.032995764
200	0xbdb362ef	-0.087591045
201	0xbd268ca7	-0.04066148
202	0x3d2cab02	0.042155273
203	0xbd8f80ee	-0.07007013
204	0xbd93b67f	-0.07212543
205	0xbd9b0d0e	-0.07570849
206	0xbcd3ec86	-0.02586962
207	0x3d26ec0d	0.04075246
208	0x3db4304d	0.08798275
209	0x3c904e63	0.017615503
210	0x3da7dd8e	0.08196555
211	0x3d51ebde	0.05125033
212	0x3c86dd04	0.01646281
213	0x3d2b050d	0.041752864
214	0xbd980562	-0.07422902
215	0xbcae33ec	-0.021264993
216	0xbbe90c30	-0.0071120486
217	0x3c4b1178	0.012394302
218	0x3ce5cf4b	0.028052947
219	0xbd7f9a5a	-0.06240306
220	0x3928be32	0.00016092582
221	0x3c5732f6	0.013134709
222	0x3d3bfd87	0.04589608
223	0xbdb4037f	-0.08789729
224	0x3d13c7b4	0.036079124
225	0xbd936b45	-0.071981944
226	0xbbcc25b8	-0.0062300824
227	0x398016cc	0.00024431047
228	0x3c910663	0.01770324
229	0x3d9bae07	0.076015525
230	0xbcbbc67c	-0.022921793
231	0x3d20d976	0.039269887
232	0x3c324c48	0.010882445
233	0xbdba0014	-0.09082046
234	0x3d353d2c	0.04424779
235	0xbdb2e0bb	-0.0873427
236	0xbce21e32	-0.027602289
237	0x3d9f044a	0.0776449
238	0xbd6b3751	-0.0574258
239	0x3b354b67	0.0027663352
240	0x3d83bfbf	0.06433057
241	0xbdb69ec0	-0.08916998
242	0xbbd1a159	-0.006397408
243	0x3d065a97	0.032801237
244	0xbd3e0485	-0.04639103
245	0xbd2a266b	-0.041540544
246	0x3d6005d2	0.05469305
247	0x3d952be1	0.0728376
248	0x3c76ac21	0.015055687
249	0x3bff8982	0.0077983746
250	0xbd535b1a	-0.051600553
251	0xbd9582ed	-0.07300363
252	0x3c5eef91	0.013606922
253	0x3d88df66	0.06683235
254	0xba6b0da8	-0.00089665735
255	0xbd06d5a6	-0.032918595

shared_layer.2.bias f4 [64]
0	0xbd8edc3b	-0.069755994
1	0xbcd561db	-0.026047638
2	0xbd4cadb3	-0.04997034
3	0xbd266b87	-0.04062989
4	0x3d1e906e	0.038711958
5	0xbd13123c	-0.03590606
6	0x3cc467be	0.02397525
7	0xbc89f713	-0.016841447
8	0x3d316088	0.04330495
9	0xbbfc4679	-0.0076988307
10	0x3d9643d2	0.073371544
11	0x3ceea607	0.029131902
12	0x3d24ccd1	0.04023439
13	0xbd94c12f	-0.07263409
14	0xbd198752	-0.037482567
15	0x3d79ea42	0.06101442
16	0x3e0ddabf	0.13852976
17	0xba3483d7	-0.0006886101
18	0x3a9d5c31	0.0012005625
19	0xbc65eb30	-0.014033124
20	0xbd9a953f	-0.07547998
21	0xbaf42e18	-0.001862946
22	0xbbc08edf	-0.0058764066
23	0x3b9e11d7	0.004823904
24	0xbd9bdd0b	-0.0761052
25	0xbd3b0ac2	-0.045664556
26	0x3e1b1dd9	0.15148105
27	0xbd89f7e5	-0.06736735
28	0x3d237c28	0.039913327
29	0x3db40b89	0.08791263
30	0xbcdb840d	-0.026796365
31	0xbd9fdf50	-0.07806265
32	0x3d6fb474	0.058521703
33	0xbc6bf35f	-0.014401286
34	0xbc92e998	-0.017933652
35	0xbc992d7a	-0.018698443
36	0xbd1c4b42	-0.03815771
37	0xbd4d53ff	-0.050128933
38	0xbd08a889	-0.033363853
39	0xbdb3dcf5	-0.087823786
40	0x3d7f6b4d	0.06235819
41	0x3e013032	0.12616041
42	0xbcd19d0a	-0.025587577
43	0xbcf73fc1	-0.030181767
44	0xbd49711f	-0.049180146
45	0x3d82df27	0.06390219
46	0x3d95dbaa	0.07317288
47	0xbd9b7332	-0.07590331
48	0xbd880f3f	-0.06643533
49	0xbd683a59	-0.05669627
50	0x3dd0fd9d	0.10204623
51	0x3d8e1fb4	0.06939641
52	0x39e1455e	0.00042967027
53	0x3d65838a	0.05603365
54	0xbd20f6b3	-0.03929777
55	0xbd184248	-0.037172586
56	0xbd34f17b	-0.044175606
57	0x3c877f19	0.016540097
58	0xbdb03801	-0.08604432
59	0xbd0a3a01	-0.033746723
60	0xbd12c2c8	-0.03583029
61	0xbca24bf7	-0.019811613
62	0xbd991457	-0.07474583
63	0x3da2c584	0.07947829

attention.in_proj_bias f4 [192]
0	0xbaf59fa6	-0.0018739596
1	0x3969552c	0.0002225234
2	0x3abb6618	0.0014297394
3	0xbcf7be7f	-0.030242203
4	0x3cceb17d	0.025231117
5	0x3d137e7c	0.036009297
6	0xbbcfb7b9	-0.00633904
7	0xbaf30fa3	-0.0018544089
8	0x3d79f074	0.06102033
9	0x3c4102de	0.011780469
10	0x3ba6945e	0.0050836047
11	0x3c239116	0.009983322
12	0xbe0c2c24	-0.13688713
13	0xbb67cafe	-0.0035368796
14	0x3af55fb0	0.0018720534
15	0x3ac34920	0.0014899112
16	0xbd13f792	-0.036124773
17	0xbcbfc107	-0.023407472
18	0x3c818d10	0.015814334
19	0x3d0410e8	0.032242686
20	0xbdb0647f	-0.08612918
21	0x3d48feb2	0.04907102
22	0x3d2f35b6	0.042775832
23	0x3c52aea5	0.012859021
24	0x3d707d6f	0.058713373
25	0xbc89f216	-0.016839068
26	0xbd8b6e0d	-0.068081
27	0xbd1a7b8f	-0.03771549
28	0xbcbe2d94	-0.023215093
29	0xbd488cd6	-0.048962437
30	0x3b67e53c	0.0035384437
31	0x3d26b29c	0.04069768
32	0xbd04b25d	-0.032396663
33	0xbca20cbe	-0.019781467
34	0x3b5ef54a	0.0034020715
35	0xbc42e701	-0.011895896
36	0x3baf4532	0.005348825
37	0xbd1a5543	-0.03767897
38	0x3b8eeb91	0.004361578
39	0xbce1532a	-0.027505476
40	0x3cd6a9d3	0.026204025
41	0x3c1b6a63	0.009485814
42	0xbc469e05	-0.012122636
43	0xbb5065d9	-0.0031798987
44	0x3cd30ec2	0.025763873
45	0x3c3af923	0.011411938
46	0xbc071769	-0.0082453275
47	0x3d54fe2a	0.052000202
48	0xbca67a0c	-0.020321868
49	0x3c4ce126	0.012504851
50	0xbc8e4b6a	-0.017369945
51	0x3d63ba40	0.055597544
52	0x3d1e927f	0.03871393
53	0xbd59391e	-0.053032987
54	0xbca4464c	-0.020053051
55	0xbc28d3ef	-0.010304435
56	0xbbf1d33a	-0.0073799165
57	0xbc984f85	-0.018592605
58	0xbcf71f2c	-0.030166231
59	0x3c22d3ee	0.009938223
60	0xbc0dbc74	-0.008650888
61	0x3c8a3ae1	0.016873779
62	0xbc8cef2d	-0.017203892
63	0xbda2609c	-0.07928583
64	0xb8f595fe	-0.000117104486
65	0xb8fa62ca	-0.0001193933
66	0xb8c32b83	-9.306429e-05
67	0x3983dcaa	0.00025150675
68	0x386aaa93	5.5948807e-05
69	0xb99176d3	-0.00027745086
70	0x3862a321	5.4034525e-05
71	0x38b14196	8.452234e-05
72	0xb9b046a3	-0.00033621964
73	0xb988ec25	-0.00026115883
74	0x387dd696	6.051975e-05
75	0xb8a7a2f3	-7.993532e-05
76	0x390c6d9d	0.00013392275
77	0xb83b8b3c	-4.4713946e-05
78	0x38c019ab	9.1600545e-05
79	0x38bfad07	9.1398186e-05
80	0x3772895d	1.4456306e-05
81	0xb7749b00	-1.4579622e-05
82	0x384b7b12	4.851359e-05
83	0x39686290	0.00022161962
84	0xb91940be	-0.00014615335
85	0xb7e1f4b6	-2.6936043e-05
86	0x39177d5a	0.0001444718
87	0xb8b36f4f	-8.556118e-05
88	0xb84cc190	-4.881766e-05
89	0xb85559be	-5.0866736e-05
90	0xb66997ed	-3.4808138e-06
91	0xb8468def	-4.7339065e-05
92	0xb7c9e632	-2.406826e-05
93	0x383cb64b	4.4992466e-05
94	0xb8c73a4a	-9.4999166e-05
95	0x3934aaba	0.00017229738
96	0x36d52bfc	6.353015e-06
97	0x386887bf	5.5439534e-05
98	0xb88f4191	-6.830984e-05
99	0x393469c8	0.00017205544
100	0xb893324b	-7.018874e-05
101	0x39cf533f	0.0003954414
102	0xb8df8803	-0.00010658803
103	0x3941b528	0.000184734
104	0xb8e4e79e	-0.00010915029
105	0xb8f38053	-0.00011611045
106	0x3937e51e	0.00017537593
107	0xb8839fb4	-6.276314e-05
108	0xb91301fc	-0.00014019752
109	0xb8a86892	-8.030342e-05
110	0xb7aeed14	-2.0852814e-05
111	0xb9b505f1	-0.00034527437
112	0xba163c99	-0.00057310757
113	0x39bab944	0.00035614718
114	0xb9b529bf	-0.00034554114
115	0xb951ead3	-0.00020019272
116	0x3a1f1b16	0.0006069405
117	0xba473733	-0.0007599473
118	0x38eac024	0.000111937785
119	0x3992de3e	0.00028012873
120	0x3913a104	0.00014078995
121	0xb9bc8c31	-0.00035962605
122	0xba2085db	-0.00061234616
123	0x399c3585	0.00029794514
124	0x39c040ad	0.0003666928
125	0xb9c61a29	-0.00037784994
126	0xb9f1ddd4	-0.00046132377
127	0xba5e7092	-0.0008485402
128	0xbc9b9120	-0.0189901
129	0x3cd56aea	0.026051957
130	0xbcd4b531	-0.025965305
131	0xbce8a3fb	-0.028398504
132	0xbcba277e	-0.02272391
133	0xba86bc81	-0.0010279567
134	0x3c2cc9a8	0.0105461255
135	0xbca4f681	-0.020137073
136	0xbc8ec5f7	-0.017428381
137	0x3ce614f9	0.028086172
138	0xbccb824a	-0.0248424
139	0xbc99786d	-0.018734181
140	0xbc93b396	-0.01802997
141	0x3cd7db6d	0.026349748
142	0x3ced2935	0.028950313
143	0x3cd47e09	0.025939004
144	0x3c837438	0.016046628
145	0xbcaf660b	-0.021410963
146	0x3cf4fc5c	0.02990549
147	0x3c244bd7	0.010027847
148	0x3cc55973	0.024090504
149	0x3cceb838	0.025234327
150	0x3ce95df0	0.028487176
151	0x3ce354da	0.027750421
152	0xbcc95543	-0.024576789
153	0xbb896d06	-0.004193905
154	0xbcd47bde	-0.02593797
155	0x3ce8b6c1	0.028407456
156	0xbcdfe54b	-0.027331015
157	0xbcc967dd	-0.024585659
158	0xbce76381	-0.02824569
159	0xbbf0db0c	-0.007350331
160	0xbcd79ac7	-0.02631892
161	0xbc98cdfe	-0.018652912
162	0x3cb2822d	0.021790588
163	0xbb955740	-0.00455752
164	0xbca903fc	-0.020631783
165	0x3cf31374	0.029672362
166	0xbce16de2	-0.027518217
167	0xbc283375	-0.010266175
168	0x3c9cae7f	0.019126175
169	0xbce890e2	-0.028389398
170	0x3cc149a8	0.023594692
171	0xbcd98691	-0.026553424
172	0x3cfa79f4	0.03057573
173	0xbc8d3ca6	-0.017240833
174	0x3c3348a1	0.010942609
175	0xbcd334b4	-0.025781967
176	0xbceb4542	-0.028719548
177	0x3cf5413a	0.029938329
178	0x3ccc357b	0.024927845
179	0x3cda1e24	0.0266257
180	0x3b9f6685	0.004864516
181	0xbce6b488	-0.028162256
182	0xbce723c9	-0.028215306
183	0x3ce2acf4	0.027670361
184	0xbccf3d82	-0.025297884
185	0xbc9932a2	-0.018700901
186	0x3cee8b07	0.029119028
187	0x3ca53418	0.020166442
188	0xbce323c7	-0.02772702
189	0xbcdf05db	-0.027224472
190	0x3ce3132b	0.027719101
191	0xbbce31b6	-0.006292547

attention.out_proj.weight f4 [64, 64]
0	0xbda3be4d	-0.07995281
1	0x3da571c6	0.08078341
2	0xbdb44deb	-0.08803924
3	0x3c748d9b	0.0149263395
4	0xbdcc42d6	-0.099736854
5	0xbd31f2d1	-0.04344446
6	0x3de459d9	0.111499496
7	0xbdbfea90	-0.09370911
8	0x3d18bd7f	0.037290093
9	0x3dd28002	0.10278322
10	0x3d32959c	0.04359971
11	0xbc199394	-0.009373564
12	0xbd21860c	-0.039434478
13	0xbd5c23f7	-0.053745236
14	0x3c5c50c6	0.013446992
15	0x3d758552	0.059941597
16	0xbd91602f	-0.07098424
17	0x3d8fd70a	0.07023437
18	0xbd5fec86	-0.054668926
19	0x3ce081d7	0.027405662
20	0x3ddaf150	0.10690558
21	0xbcbb4b94	-0.022863187
22	0x3c881a0e	0.016613986
23	0x3d87e55a	0.06635542
24	0x3db811ea	0.08987792
25	0xbdf7a9d3	-0.12092938
26	0x3decf084	0.11569312
27	0x3c3218f5	0.010870208
28	0x388ea420	6.801658e-05
29	0xbdf03069	-0.117279835
30	0xbd15d494	-0.036579683
31	0x3c4b5ea4	0.012412701
32	0xbcf0ffe7	-0.029418899
33	0x3d99dbee	0.075126514
34	0x3d1e4e42	0.03864885
35	0xbdcb0423	-0.099128984
36	0xbca30879	-0.019901501
37	0x3da2f548	0.0795694
38	0xbd00229e	-0.031283014
39	0xbd2036dd	-0.03911482
40	0xbddc3478	-0.10752195
41	0xbd1f7d0d	-0.038937617
42	0x3cdf3807	0.027248396
43	0x3db184e6	0.086679265
44	0x3dc3bfc7	0.09558063
45	0x3de225cf	0.11042368
46	0xbdb6efa8	-0.089324296
47	0x3c0c1284	0.008549336
48	0x3db07e23	0.08617809
49	0x3df2bc4a	0.118523195
50	0xbdb968ea	-0.09053214
51	0x3cbc6a56	0.022999924
52	0xbafbc26e	-0.0019207725
53	0xbda7e3d7	-0.08197754
54	0xbdd6fc03	-0.10497286
55	0xbd39f7f2	-0.045402475
56	0xbcbb2212	-0.022843394
57	0xbd5de572	-0.054173894
58	0xbc4ce1d9	-0.012505018
59	0xbddca12b	-0.10772928
60	0x3d8e8274	0.06958476
61	0x3d145953	0.036218
62	0x3c225457	0.0099078035
63	0x3df9ff12	0.12206854
64	0xbbb08a8d	-0.0053876103
65	0x3dc36013	0.09539809
66	0xbc9f5a4c	-0.019452237
67	0xb98f1ed4	-0.00027298054
68	0x3d990891	0.07472337
69	0x3da3e701	0.08003045
70	0xbd38ea91	-0.045145575
71	0x3df2e3ce	0.118598565
72	0x3df3396f	0.11876189
73	0x3dcc3e12	0.099727765
74	0xbb8b737f	-0.0042557116
75	0xbc9dac58	-0.019247219
76	0x3d2359bf	0.03988051
77	0x3da78018	0.08178729
78	0xbd453b3a	-0.048152186
79	0x3dae8437	0.08521312
80	0x3d9c34fc	0.076272935
81	0xbd653f46	-0.055968545
82	0xbd6a1290	-0.05714661
83	0xbc82d101	-0.015968801
84	0x3df94add	0.12172482
85	0xbd175ed0	-0.036955655
86	0x3da0f89d	0.07859919
87	0x3d93aabf	0.072103016
88	0x3c9ddcec	0.019270383
89	0xbd7346a1	-0.05939353
90	0xbe09772b	-0.13424365
91	0x3dd91ba9	0.10600979
92	0x3cd5f7c5	0.026119122
93	0xbd9add8b	-0.07561787
94	0x3d87a136	0.066225454
95	0x38f94d11	0.000118876
96	0xbda45f18	-0.0802595
97	0xbe1513de	-0.1455836
98	0x3df00f24	0.11721638
99	0xbd4146ba	-0.04718659
100	0x3d0b0bf4	0.033946946
101	0x3e03be83	0.12865643
102	0xbd6908b6	-0.056893073
103	0xbe0b0c8e	-0.13579008
104	0x3dcfaa2a	0.10139878
105	0x3d6f1e70	0.058378637
106	0xbdb64067	-0.088990025
107	0xbd2d99ca	-0.042382993
108	0xbd315376	-0.043292485
109	0x3c040ecf	0.008060171
110	0x3b3c20be	0.002870604
111	0xbdb5f776	-0.0888509
112	0x3d11f2f4	0.03563209
113	0xbd7fb843	-0.062431585
114	0x3d490e53	0.049085926
115	0xbda7f18f	-0.082003705
116	0xbcf514d2	-0.029917154
117	0x3d01d02b	0.031692665
118	0x3d21bcd8	0.039486736
119	0xbd95f01c	-0.07321188
120	0xbd8ee3e6	-0.06977062
121	0x3d196706	0.037451766
122	0x3d8a4982	0.06752302
123	0x3e1bdfc8	0.15222085
124	0xbd6e52dd	-0.058184493
125	0xbe0c142c	-0.1367957
126	0x3e14eefe	0.14544293
127	0xbc3935c9	-0.011304327
128	0xbc228a41	-0.009920658
129	0x3c716502	0.014733555
130	0xbdcee17d	-0.10101602
131	0xbde38a7c	-0.11110398
132	0xbe07492c	-0.13211507
133	0x3d79ca3d	0.060983885
134	0xbd67e7ee	-0.05661767
135	0xbdbf6efd	-0.09347341
136	0x3e0ff3cc	0.14057845
137	0x3da17882	0.07884313
138	0xbb50141c	-0.0031750267
139	0x3da96963	0.08272054
140	0x3cb9fa62	0.0227024
141	0xbcdd2a6d	-0.02699777
142	0x3d036c30	0.032085598
143	0x3df236bd	0.11826847
144	0x3d240160	0.040040374
145	0x3d2d415c	0.04229866
146	0x3e1c5950	0.15268445
147	0xbd328012	-0.04357917
148	0x3cca7377	0.024713261
149	0x3d2dbc90	0.042416155
150	0xbd0e550f	-0.034749087
151	0x3c894e78	0.01676105
152	0xbde2d59f	-0.11075901
153	0x3c0fd123	0.008777889
154	0xbe0b94ed	-0.1363103
155	0x3d18528e	0.037188105
156	0x3d7e5f7e	0.062102787
157	0xbded6911	-0.115923055
158	0xbdab18b9	-0.08354325
159	0xbd9754ed	-0.07389245
160	0x3d93637c	0.071967095
161	0xbd06da04	-0.03292276
162	0x3e10f47a	0.1415576
163	0x3daa0a6e	0.083027706
164	0xbe04a1b3	-0.12952308
165	0xbd0771eb	-0.033067625
166	0xbe0b17f7	-0.1358336
167	0x3c8900f9	0.016724097
168	0xbcd03f8c	-0.025420927
169	0x3dba2107	0.09088331
170	0x3d9531f8	0.072849214
171	0xbcce9f31	-0.025222393
172	0xbb85a691	-0.004078694
173	0xbdbbc890	-0.09169114
174	0x3e0920a1	0.13391353
175	0xbe208220	-0.15674639
176	0xbde5b9c8	-0.112170756
177	0x3d877e7a	0.0661592
178	0x3d5d32c1	0.05400348
179	0xbce3f9d6	-0.027829092
180	0x3c110b37	0.0088527715
181	0x3c762645	0.015023773
182	0xbcc7e483	-0.024400955
183	0xbd7fffc6	-0.062499784
184	0x3d6d60f0	0.057953775
185	0x3bc5f84d	0.0060415627
186	0x3e171d2b	0.1475722
187	0x3cf81d22	0.03028733
188	0xbe07ba99	-0.13254775
189	0x3c7766c9	0.0151001895
190	0x3e1b631a	0.15174523
191	0xbdc7b321	-0.09750963
192	0x3dbc4581	0.09192944
193	0x3bdc0600	0.0067145824
194	0xbc256a51	-0.010096149
195	0xbd89c512	-0.06727041
196	0xbc6f2736	-0.014596751
197	0xbdad33be	-0.08457135
198	0xbd5653fa	-0.05232618
199	0xbd61069f	-0.054937955
200	0x3d06b46c	0.032886907
201	0x3deeb31a	0.11655255
202	0xbdf0884c	-0.117447466
203	0x3ddd32b7	0.10800689
204	0x3ddbb4cf	0.10727846
205	0x3dd076c5	0.101789035
206	0x3d422ddd	0.04740702
207	0xbd9620d8	-0.07330483
208	0x3c030353	0.007996398
209	0xbdc4b4b4	-0.09604779
210	0x3d93d823	0.07218959
211	0x3db0f29a	0.086400226
212	0xbdc319fa	-0.09526439
213	0xbb95c1be	-0.004570215
214	0x3b27c046	0.0025596782
215	0x3d133f69	0.035949145
216	0xbc8b7e6a	-0.017028052
217	0x3ca4a589	0.020098465
218	0xbd56625a	-0.05233989
219	0xbd99be6e	-0.07507025
220	0xbda8d4b3	-0.08243694
221	0xbdf1ccc6	-0.118066356
222	0xbdbac061	-0.091187246
223	0x3d8b3d17	0.06798761
224	0x3cddd924	0.02708108
225	0xbe11a8cd	-0.14224549
226	0x3e09ec86	0.13469133
227	0xbd27833e	-0.040896647
228	0x3ce6a92c	0.02815684
229	0xbd16c9ca	-0.036813535
230	0x3bbf8934	0.0058452133
231	0x3b74e678	0.0037368815
232	0xbd8b8500	-0.06812477
233	0xbd9aa304	-0.07550624
234	0xbd0146a7	-0.03156152
235	0x3d1c98ae	0.038231544
236	0x3dae2b00	0.08504295
237	0x3c720b86	0.014773255
238	0x3c0336b1	0.008008645
239	0x3c4785e8	0.012177922
240	0xbdb10e2f	-0.086452834
241	0x3e0b315c	0.13593048
242	0xbda113ca	-0.078651026
243	0x3e055a23	0.13022666
244	0x3d2a79ab	0.041619938
245	0x3b8534e5	0.0040651434
246	0xbd3dfccc	-0.046383664
247	0x3d96407e	0.0733652
248	0xbd988e45	-0.07449011
249	0xbda9f4a5	-0.08298615
250	0x3c7487e8	0.014924981
251	0x3dcb5948	0.099291384
252	0x3d1c1372	0.038104482
253	0xbd9c8dad	-0.0764421
254	0x3dfd05ee	0.123546466
255	0xbd92fdbf	-0.071773045

attention.out_proj.bias f4 [64]
0	0x3c6a42fc	0.014298197
1	0x3cead35f	0.028665243
2	0x3cc8097e	0.024418589
3	0x3ccf0555	0.025271097
4	0xbcf453eb	-0.029825171
5	0x3b3e31fb	0.002902149
6	0xbb1967fb	-0.0023407924
7	0x3ce596a3	0.02802593
8	0x3c9a2657	0.01881711
9	0x3cf281c4	0.029602893
10	0xbce48e94	-0.027900018
11	0xbcc47afa	-0.023984421
12	0x3cf84cf0	0.030310124
13	0x3ce97e3b	0.028502574
14	0x3c26fbc2	0.01019186
15	0x3c53f6ee	0.012937291
16	0xbd017d6f	-0.031613763
17	0xbcfb354d	-0.030665064
18	0x3cbb2bac	0.022847973
19	0xbcbe8781	-0.023257973
20	0xbb29984a	-0.0025878125
21	0x3cea3eea	0.028594453
22	0xbd04b720	-0.032401204
23	0x3c993662	0.01870269
24	0x3c86d680	0.016459703
25	0x3c656271	0.014000521
26	0x3cb247a0	0.02176267
27	0x3cf3a218	0.029740378
28	0xbcb6ce14	-0.022315063
29	0x3ca304ae	0.019899692
30	0xbccdc3b1	-0.025117727
31	0xbd006b4d	-0.03135233
32	0x3d05c762	0.03266085
33	0xbca06174	-0.01957772
34	0x3ba0c4b6	0.0049062623
35	0x3c39a821	0.011331589
36	0xbcede708	-0.029040828
37	0x3cf1e781	0.029529335
38	0x3cfdfc6d	0.031004155
39	0xbbdf6312	-0.00681723
40	0x3cfa4c08	0.030553833
41	0xbb8e88b2	-0.0043497914
42	0xbc04152f	-0.008061691
43	0xbc95a806	-0.018268596
44	0xbc272233	-0.010201025
45	0x3cc667d6	0.024219435
46	0x3ced33d6	0.028955381
47	0xbcee3c4e	-0.02908149
48	0x3cb83e1d	0.022490555
49	0xbce3483e	-0.027744409
50	0xbc68a7c7	-0.0142001575
51	0xbcc987ad	-0.024600828
52	0x3d008ad7	0.031382408
53	0xbcb08cc1	-0.021551492
54	0x3cb16904	0.02165652
55	0xbcf56f1b	-0.029960206
56	0x3c5b98ea	0.013403157
57	0xbc2a9212	-0.010410802
58	0x3d0292db	0.031878334
59	0x3cbd7780	0.023128271
60	0x3a4a6bf1	0.0007721773
61	0xbcf90d36	-0.030401807
62	0xbc8f4856	-0.017490547
63	0xbc5c5054	-0.013446886

classifier.0.bias f4 [32]
0	0xbc376a50	-0.0111947805
1	0x3e13b7bd	0.1442556
2	0xbddc5e74	-0.10760203
3	0xbdf4d1a8	-0.11954051
4	0x3e042779	0.12905683
5	0x3d8df8b2	0.069322005
6	0x3cb4a095	0.022049228
7	0xbe02fd57	-0.12791954
8	0xbd9f8e56	-0.0779082
9	0x3dbcdde5	0.092220105
10	0xbd415815	-0.047203142
11	0xbdb78acc	-0.0896202
12	0xbd8e12be	-0.069371685
13	0x3c1092ee	0.008824093
14	0xbb2b1807	-0.002610685
15	0xbc2dc370	-0.010605678
16	0xbda3d1a2	-0.07998969
17	0x3db2f3cb	0.08737906
18	0xbda14bd9	-0.07875795
19	0xbda9da08	-0.08293539
20	0x3d40266b	0.04691164
21	0x3d30439b	0.043033224
22	0xbd8cee92	-0.06881441
23	0x3dd4dab4	0.10393277
24	0x3db59717	0.08866709
25	0x3c36a26d	0.011147124
26	0x3dc35fba	0.09539743
27	0xbdff17e6	-0.1245573
28	0xbdf1dd5f	-0.11809801
29	0x3d531aaf	0.05153912
30	0xbb3941c0	-0.002826795
31	0xbdb17214	-0.08664337

onnx::MatMul_128 f4 [64, 192]
0	0x3da11ef0	0.07867229
1	0x3e0da22f	0.138314
2	0xbe00b791	-0.12570025
3	0xbdb9e689	-0.09077174
4	0x3d445818	0.047935575
5	0x3e135f55	0.14391835
6	0x3de01e46	0.10943274
7	0xbddd0647	-0.10792213
8	0xbdd2e8ce	-0.1029831
9	0xbd2dd492	-0.04243905
10	0xbda356b5	-0.079755224
11	0xbdb770dd	-0.08957074
12	0xbb533dc0	-0.003223285
13	0x3ad91880	0.0016563088
14	0x3d185d1c	0.03719817
15	0x3d2965b4	0.041356757
16	0x3e16912f	0.1470382
17	0x3df4867a	0.11939712
18	0x3e0366c3	0.12832169
19	0x3c9cb8f8	0.019131169
20	0xbe007be3	-0.12547259
21	0xbda46abe	-0.08028172
22	0x3d84cefe	0.06484793
23	0xbd303ef8	-0.0430288
24	0x3dcec1c6	0.10095553
25	0x3c4ffeb0	0.012695
26	0xbdbf0af4	-0.09328261
27	0x3db1267e	0.0864992
28	0x3d9291b4	0.07156697
29	0xbdf762f5	-0.120794214
30	0xbcdc8dd0	-0.02692309
31	0xbe130ac2	-0.14359573
32	0x3dcb3b16	0.09923379
33	0xbdceb798	-0.100936115
34	0xbcc57c20	-0.024107039
35	0x3dd372b2	0.10324611
36	0xbd0f7a5e	-0.035028808
37	0xbdfdef1e	-0.123991236
38	0x3bed13a0	0.0072350055
39	0xbdc69640	-0.09696627
40	0xbd3b61e8	-0.045747668
41	0x3deacc9e	0.11464809
42	0xbd6e913a	-0.058243968
43	0xbd7f6eee	-0.06236165
44	0x3dbaac10	0.091148496
45	0xbe0c28eb	-0.13687484
46	0x3d16dc0c	0.036830947
47	0x3d3926bc	0.045202956
48	0xbd7f5f4c	-0.06234674
49	0x3d588884	0.052864566
50	0xbd0e4f34	-0.034743503
51	0xbc0f7d30	-0.008757874
52	0xbccfc9b0	-0.025364727
53	0xbd17314a	-0.03691224
54	0x3e00b949	0.1257068
55	0xbd719bea	-0.05898658
56	0xbdf1030d	-0.1176816
57	0xbd52745c	-0.0513805
58	0x3d5d6f5c	0.05406128
59	0xbe0f48ff	-0.1399269
60	0x3d90c9e8	0.070697606
61	0xbe18386c	-0.14865273
62	0xbe0471a0	-0.1293397
63	0xbe171d19	-0.14757194
64	0x3df1cb96	0.11806409
65	0x3cc54a70	0.024083346
66	0xbdcf6b46	-0.10127883
67	0xbe0bf079	-0.13665952
68	0x3de9605a	0.11395331
69	0xbdbb62e2	-0.0914972
70	0xbd716902	-0.058938034
71	0x3ce89c50	0.028394848
72	0xbc828910	-0.015934497
73	0x3d87614a	0.06610353
74	0xbd9c583e	-0.07634018
75	0x3c5a8b50	0.013338879
76	0xbba1d9c0	-0.004939288
77	0xbce95e54	-0.028487362
78	0x3d621b14	0.055201605
79	0x3dfc2ebe	0.12313603
80	0x3dad00ae	0.08447395
81	0xbdc4f35f	-0.09616732
82	0xbd018a66	-0.031626128
83	0x3cf52278	0.029923663
84	0x3ddbe9ea	0.10737975
85	0x3da5652a	0.08075936
86	0x3d1d7b70	0.038447797
87	0xbdf47cbe	-0.11937855
88	0xbb24ff80	-0.0025176704
89	0x3d673eb8	0.056456298
90	0xbe1370fc	-0.14398569
91	0x3e1c78dd	0.1528048
92	0x3d842dde	0.06454061
93	0x3dda83f6	0.10669701
94	0xbe1382bf	-0.14405344
95	0x3a220e00	0.0006181896
96	0xbd50b77c	-0.050956234
97	0xbde501fa	-0.111820176
98	0xbdf561a0	-0.11981511
99	0xbd2fdb14	-0.04293354
100	0x3d467d04	0.048459068
101	0x3b88b8a0	0.0041723996
102	0xbbfd2580	-0.0077254176
103	0x3db9b0d6	0.09066932
104	0x3dd08ea6	0.10183458
105	0x3e15f3ef	0.14643835
106	0xbd16c462	-0.03680838
107	0x3dc31a90	0.09526551
108	0x3c988ab0	0.018620819
109	0xbdf0850c	-0.11744127
110	0xbda2171d	-0.07914565
111	0x3e05a8d7	0.13052689
112	0xbdd4d4e0	-0.10392165
113	0xbe00f015	-0.12591584
114	0xbdf39118	-0.11892909
115	0x3cd43440	0.025903821
116	0xbe0c22a2	-0.13685086
117	0xbc12c830	-0.008958861
118	0xbc13ea90	-0.009028092
119	0x3d6ce444	0.05783488
120	0xbd701c12	-0.05862052
121	0x3ae77980	0.0017660111
122	0xbdfea5f2	-0.12433995
123	0x3dc5fb5a	0.09667082
124	0xbdbc52d4	-0.09195486
125	0x3c14bd40	0.009078324
126	0xbd00f308	-0.031481773
127	0xbbd91cc0	-0.0066257417
128	0x3e176a69	0.14786686
129	0xbc326940	-0.010889351
130	0x3d81f1d0	0.0634495
131	0xbdda36ea	-0.10655005
132	0xbdb092d6	-0.08621757
133	0xbd033bf6	-0.032039605
134	0x3dcfd9fa	0.101489976
135	0x3dc62530	0.09675062
136	0xbe0e1f7e	-0.13879201
137	0xbe17d304	-0.1482659
138	0xbca2a930	-0.019856066
139	0xbc9acee0	-0.018897474
140	0x3ca64208	0.020295158
141	0x3dcc6bd2	0.099815026
142	0xbdf6c1fa	-0.12048717
143	0x3d65b710	0.056082785
144	0xbc6c03c0	-0.014405191
145	0xbcf8df00	-0.030379772
146	0xbde76fad	-0.11300597
147	0x3cfa89c0	0.030583262
148	0x3def5af6	0.11687271
149	0xbddc2f58	-0.107512176
150	0x3dedd762	0.11613347
151	0xb9f58200	-0.000468269
152	0xbdeca290	-0.11554444
153	0xbdb9d3c6	-0.09073596
154	0xbde4416a	-0.11145289
155	0xbe05836c	-0.13038415
156	0x3d839df0	0.064266086
157	0x3e1adc95	0.15123208
158	0x3d314b70	0.043284833
159	0x3e0525d7	0.13002716
160	0x3dd98c16	0.106224224
161	0x3cc866c8	0.024463072
162	0x3d0ba1d4	0.03408988
163	0xbde4144c	-0.11136684
164	0xbe1c4e5d	-0.15264268
165	0xbde0b5ad	-0.10972152
166	0x3e020f3d	0.12701125
167	0xbe08ed9b	-0.1337189
168	0x3d84fcc6	0.06493525
169	0x3b8ae720	0.004238978
170	0xbdcbd53e	-0.09952782
171	0xbca0cd98	-0.019629285
172	0xbcb588a0	-0.022159874
173	0x3c825140	0.015907884
174	0xbe150872	-0.14554003
175	0xbe1a7dea	-0.15087095
176	0xbd45ded6	-0.048308216
177	0xbe1725f2	-0.14760569
178	0x3bff3ea0	0.007789448
179	0x3bb2abc0	0.005452603
180	0xbce327d0	-0.027728945
181	0xbd0f1ce2	-0.034939654
182	0x3dbf643e	0.093452916
183	0xbdd29526	-0.10282354
184	0x3cd15170	0.025551528
185	0x3db9092c	0.090349525
186	0x3df39aaa	0.11894734
187	0xbded134a	-0.11575945
188	0xbdfa3bc4	-0.12218431
189	0x3d199dd0	0.037504017
190	0xbe1bad7e	-0.15202901
191	0x3e0131cb	0.12616651
192	0xbdd87e06	-0.10570912
193	0xbe04bee9	-0.12963451
194	0x3c305d14	0.010764379
195	0xbdb7772c	-0.08958277
196	0xbd94494d	-0.072405435
197	0xbe0723de	-0.13197276
198	0xbe0c753f	-0.13716601
199	0xbdc9ae23	-0.09847667
200	0x3cccfc38	0.025022611
201	0xbc32fd83	-0.0109247
202	0x3d2433c8	0.040088445
203	0xbe0d406d	-0.13794108
204	0xba452fb7	-0.00075220637
205	0x3d619009	0.055069003
206	0x3d77f8d1	0.060540024
207	0xbe041afd	-0.1290092
208	0xbd9e134f	-0.077185266
209	0xbd31e2bb	-0.043429118
210	0xbe00ec07	-0.12590037
211	0xbd23d017	-0.03999337
212	0x3d8f40f3	0.0699481
213	0x3d6d85b5	0.05798884
214	0xbd996aaa	-0.07491048
215	0x3e0b3450	0.13594174
216	0x3d8ffd90	0.07030785
217	0x3da4635b	0.08026763
218	0xbd04e052	-0.03244049
219	0x3d82b2b1	0.06381739
220	0x3df73314	0.12070289
221	0x3d337915	0.043816645
222	0xbcbffa4b	-0.023434779
223	0xbdfaceac	-0.12246451
224	0x3e1ae2cb	0.15125577
225	0x3e195480	0.1497364
226	0xbd32872b	-0.043585937
227	0x3d8cde01	0.068782814
228	0xbcad0b8c	-0.02112367
229	0xbde42c6f	-0.111412875
230	0x3db112aa	0.08646138
231	0xbdaf75a1	-0.08567358
232	0x3dafec80	0.08590031
233	0x3d71c864	0.059028998
234	0x3e039cca	0.12852779
235	0x3d8a2499	0.06745262
236	0xbdbce13d	-0.09222648
237	0x3cf3e1d3	0.029770767
238	0xbdcfe967	-0.1015194
239	0xbde0891f	-0.10963654
240	0xbe1121f3	-0.14173107
241	0xbc9d3676	-0.019191008
242	0x3da27a52	0.07933487
243	0x3db8ee37	0.09029811
244	0x3c582649	0.013192722
245	0xbdd6a41d	-0.10480521
246	0x3d697199	0.0569931
247	0xbe159880	-0.14608955
248	0x3c2e585d	0.010641185
249	0x3da574fe	0.08078955
250	0xbd91d08b	-0.071198545
251	0xba930215	-0.001121583
252	0xbde1f8d5	-0.11033789
253	0xbdaa4329	-0.08313591
254	0x3d7e744e	0.062122636
255	0xbdfb5833	-0.12272682

onnx::MatMul_129 f4 [64, 32]
0	0x3dcd4fa8	0.10024959
1	0xbddf0667	-0.10889893
2	0xbd2a5f60	-0.041594863
3	0xbd30f660	-0.04320371
4	0x3dd831b1	0.10556353
5	0xbc894378	-0.016755804
6	0x3d0187ec	0.031623766
7	0xbe0607d0	-0.13088918
8	0xbdfed1a4	-0.124423295
9	0xbd8ab0fd	-0.06772039
10	0xbda255b2	-0.07926501
11	0xbd1846e1	-0.03717697
12	0xbd0352ea	-0.032061495
13	0xbd1173bc	-0.035510764
14	0x3d469fcc	0.048492238
15	0x3bcce940	0.0062533915
16	0x3dbac080	0.09118748
17	0xbda7aed6	-0.08187644
18	0xbde30a2e	-0.11085926
19	0x3dd0bdfa	0.10192485
20	0x3df39f44	0.11895612
21	0x3c276f24	0.010219369
22	0x3dbd935e	0.09256624
23	0x3d6e87b4	0.058234885
24	0xbd02722f	-0.031847175
25	0xbcac3465	-0.021021077
26	0xbd216147	-0.03939941
27	0x3de25ff4	0.11053458
28	0x3ca888b1	0.020572992
29	0xbcb15f16	-0.021651786
30	0xbb3899e8	-0.0028167907
31	0x3df205c4	0.11817506
32	0x3dda0f60	0.10647464
33	0x3d1fbf0e	0.039000563
34	0xbdf37eda	-0.118894294
35	0xbdd5cfd8	-0.10440034
36	0xbdb27efe	-0.08715628
37	0xbd3996a1	-0.045309667
38	0x3df97c71	0.121819384
39	0xbdcc5410	-0.09976971
40	0xbdfd8d2c	-0.12380442
41	0xbd8fd090	-0.07022202
42	0x3dae962a	0.08524735
43	0xbe0711bf	-0.13190363
44	0xbcaba532	-0.020952795
45	0x3d8e5772	0.069502726
46	0xbe05d31a	-0.1306881
47	0x3d16bd18	0.036801428
48	0xbd39d42c	-0.04536836
49	0x3d90e4b5	0.070748724
50	0x3dceeb2d	0.1010345
51	0xbd23d85c	-0.04000126
52	0x3e1766ae	0.14785263
53	0x3d93e1f4	0.072208315
54	0xbc944070	-0.018097132
55	0x3cade747	0.021228446
56	0x3c461384	0.012089614
57	0xbded75b7	-0.11594718
58	0xbb304d32	-0.002690148
59	0x3da0a3bc	0.0784373
60	0x3d30fd2f	0.043210205
61	0x3e0a7ee5	0.13524969
62	0x3b81a638	0.0039565824
63	0x3db51422	0.08841731
64	0xbdedca68	-0.116108716
65	0x39ae98d2	0.00033301726
66	0xbd57201c	-0.052520856
67	0x3cd8bbf8	0.026456818
68	0x3df39fc8	0.1189571
69	0x3d945647	0.072430186
70	0x3ca6d926	0.020367216
71	0xbd526ac6	-0.05137136
72	0xbd0a9900	-0.03383732
73	0x3d18e7af	0.037330326
74	0xbd96fe22	-0.07372691
75	0x3d943e73	0.07238474
76	0x3df1c5c2	0.118052974
77	0xbdc7ed68	-0.097620785
78	0xbcf63b8b	-0.03005769
79	0xbb779ec0	-0.0037783831
80	0xbde4dc14	-0.11174789
81	0x3e079d0e	0.13243505
82	0x3d146b06	0.036234878
83	0xbce735f8	-0.028223976
84	0x3db520dd	0.08844159
85	0xbd93781c	-0.072006434
86	0x3c961ec8	0.018325225
87	0xbbccaba2	-0.006246046
88	0xbdbd9590	-0.092570424
89	0xbdde6644	-0.10859349
90	0xbe06f583	-0.13179593
91	0xbd8d2f6c	-0.06893811
92	0x3db25145	0.08706907
93	0xbbe520d3	-0.0069924383
94	0xbb6f347e	-0.0036499794
95	0xbc838fb0	-0.016059726
96	0x3d11bf04	0.035582557
97	0x3b1ecc53	0.0024230673
98	0x3db034a8	0.086037934
99	0xbc11a6b0	-0.008889839
100	0x3d683ac3	0.056696665
101	0xbd8cbdd1	-0.06872142
102	0xbd7c7689	-0.06163648
103	0x3d67b9e3	0.05657376
104	0xbdfdcd88	-0.123927176
105	0xbdd49d41	-0.10381556
106	0xbdba7d3f	-0.0910592
107	0x3bca587c	0.006175099
108	0x3e055429	0.13020386
109	0x3ca5c2df	0.020234523
110	0x3cca0d38	0.024664506
111	0xbd0c0324	-0.034182683
112	0xbdc21068	-0.094757855
113	0xbc954d99	-0.018225478
114	0xbddb42ce	-0.10706101
115	0x3dd3c838	0.10340923
116	0x3e138355	0.14405568
117	0x3c611654	0.013738234
118	0xbce80e80	-0.028327227
119	0x3d748e71	0.059706155
120	0xbde054dd	-0.109536864
121	0xbde49867	-0.11161881
122	0xbdcb3c85	-0.099236526
123	0x3d9ba5c4	0.07599977
124	0x3de16943	0.11006405
125	0x3cbe0917	0.023197694
126	0x3be86efd	0.007093309
127	0xbbafe000	-0.005367279
128	0xbde925f4	-0.11384192
129	0xbcdcdb8f	-0.026960162
130	0xbd39bc8c	-0.045345828
131	0x3dfdd838	0.12394756
132	0xbcba3740	-0.022731423
133	0xbdfb8c3b	-0.12282606
134	0xbd45f5d9	-0.04833016
135	0x3b6f638c	0.003652784
136	0x3db0a564	0.08625296
137	0x3bc8daf4	0.006129617
138	0xbdc4cdf0	-0.09609592
139	0xbd9f0a0d	-0.07765589
140	0x3b787a53	0.0037914708
141	0x3db1e162	0.086855665
142	0xbd47ec0f	-0.048809107
143	0xbd180338	-0.037112445
144	0x3dfd8574	0.1237897
145	0xbe0567ab	-0.13027827
146	0x3da12a17	0.07869356
147	0x3da9e47a	0.082955316
148	0xbe1c17a8	-0.15243399
149	0x3b9fe10c	0.0048791226
150	0xbd4b7198	-0.04966888
151	0xbe0045ac	-0.12526578
152	0x3df90ebf	0.12161016
153	0xbd2ca9eb	-0.042154234
154	0x3cb6dc45	0.02232183
155	0x3de65350	0.11246359
156	0xbd5de0bf	-0.054169413
157	0x3d454c10	0.048168242
158	0xbdc77591	-0.09739221
159	0xbda675f0	-0.081279635
160	0x3baa9ae0	0.005206451
161	0xbd43eb0b	-0.047831576
162	0xbcbe4b48	-0.023229256
163	0xbd3dc2a8	-0.046328217
164	0x3cd65bda	0.026166845
165	0x3d29fc5c	0.041500434
166	0x3d358e22	0.044325
167	0x3d0ab744	0.033866182
168	0x3db1ceda	0.08682032
169	0x3ceb7235	0.028740982
170	0x3d9d59cc	0.07683143
171	0xbddcdc69	-0.107842274
172	0x3dd8d783	0.105879806
173	0xbdcf5f2d	-0.10125575
174	0xbd482add	-0.048869003
175	0xbdc52670	-0.09626472
176	0xbd08bd88	-0.033383876
177	0x3d6a7443	0.057239782
178	0xbda2d230	-0.07950246
179	0x3dd1f0fe	0.10251044
180	0xbd86667e	-0.065625176
181	0x3e012b4e	0.12614176
182	0xbdc2a1a4	-0.09503487
183	0xbded4f6e	-0.11587416
184	0x3d89c3d0	0.067268014
185	0xbdbc5b3c	-0.09197089
186	0xbd088b30	-0.033335865
187	0xbcbaaf08	-0.02278854
188	0xbb2f1aed	-0.002671893
189	0xbd43eb96	-0.047832094
190	0xbd6e236f	-0.05813926
191	0xbd2b6bd8	-0.041850895
192	0xbda3d6a6	-0.07999925
193	0xbdae659c	-0.08515474
194	0x3df9f4da	0.12204905
195	0x3d8d0700	0.06886101
196	0x3db51a95	0.08842961
197	0xbd914c8c	-0.07094678
198	0x3d1e4b20	0.038645864
199	0xbc64ce3d	-0.013965187
200	0xbd35d728	-0.044394642
201	0x3dd1bcfe	0.102411255
202	0x3dd03ae5	0.10167483
203	0xbd462b23	-0.048380982
204	0x3de8e1c1	0.11371184
205	0x3c913be2	0.01772875
206	0x3de35c47	0.11101585
207	0xbda4fea4	-0.08056381
208	0x3da2a142	0.07940914
209	0xbc76d44f	-0.015065267
210	0x3cc9f1e0	0.024651468
211	0xbd83f35a	-0.064429
212	0xbcbe7fe2	-0.023254339
213	0xbddf447d	-0.10901735
214	0xbdc49bf2	-0.09600057
215	0x3dcc34ba	0.09970994
216	0xbdaeeb21	-0.08540941
217	0xbdf7ec7a	-0.12105651
218	0x3d751ab6	0.059839927
219	0xbd6fd740	-0.058554888
220	0xbd188d84	-0.037244335
221	0xbd5589a8	-0.052133232
222	0xbde07bd0	-0.10961115
223	0x3d28b1fc	0.041185364
224	0x3dcb1d92	0.099177495
225	0xbdacdedd	-0.08440945
226	0xbc424790	-0.011857882
227	0xbda58896	-0.08082692
228	0x3d22a3bd	0.039706934
229	0xbdcf0886	-0.101090476
230	0xbd3a290b	-0.045449298
231	0x3bd93a35	0.0066292533
232	0x3dbfb24e	0.09360181
233	0xbc4ea607	-0.012612826
234	0x3de88f85	0.11355499
235	0xbceb6c58	-0.028738186
236	0xbb89eb7e	-0.004208981
237	0x3db08177	0.086184435
238	0x3d4c95c3	0.04994751
239	0xbde11d80	-0.10991955
240	0x3d4b3c44	0.04961802
241	0x3da4bf9b	0.08044358
242	0xbdc3f6d8	-0.09568566
243	0xbcf74308	-0.03018333
244	0x3a842185	0.001008079
245	0x3d2666d5	0.040625412
246	0x3dfd5190	0.123690724
247	0x3d9f7511	0.077860005
248	0x3d9a0c0c	0.07521829
249	0xbd3dbed5	-0.04632457
250	0xbd6d4bcf	-0.057933625
251	0x3bf6fd80	0.007537544
252	0xbdaf8f85	-0.08572296
253	0xbd00e1a3	-0.031465184
254	0x3cd6a3db	0.02620118
255	0x3d05a1a0	0.03262484

onnx::MatMul_130 f4 [32, 1]
0	0x3e2f0b45	0.17094143
1	0xbe30540a	-0.17219558
2	0xba0b6300	-0.00053171813
3	0xbe2e6179	-0.1702937
4	0xbd579439	-0.05263159
5	0xbda5460c	-0.08070001
6	0xbde1f6d5	-0.110334076
7	0x3e014def	0.12627386
8	0xbd3b8770	-0.04578346
9	0xbc2d0fee	-0.01056288
10	0x3e235303	0.15949635
11	0x3d4f5f23	0.05062784
12	0xbe3b21ef	-0.18274663
13	0x3d39a33d	0.04532169
14	0x3db11d6d	0.08648191
15	0xbe22c61b	-0.15895884
16	0x3df141ba	0.117801145
17	0xbe036f90	-0.12835526
18	0x3debf233	0.11520805
19	0x3df14146	0.11780028
20	0xbe290f71	-0.16509797
21	0xbe1c0214	-0.15235168
22	0xbde6879b	-0.112563334
23	0xbe464021	-0.193604
24	0x3dcbff26	0.09960775
25	0x3e1fe75d	0.15615602
26	0x3e094368	0.1340462
27	0xbd3cd008	-0.04609683
28	0x3e01071f	0.12600373
29	0xbe142b48	-0.14469635
30	0x3deee1fd	0.116641976
31	0xbbedd2a0	-0.0072577745
