signals/MultiSignalClassifier_model2.pth (torch, 276839 bytes, 11 tensors)

shared_layer.0.weight f4 [128, 320]
-0.024143185 0.01716943 0.016193837 -0.023856726 0.0411842 0.0011556111 -0.0095953755 -0.035637796
-0.03042456 -0.017009411 -0.015500803 -0.038140386 -0.024337966 0.00013136864 -0.045350518 0.037814535
-0.009518474 -0.008353438 0.03161513 0.005944375 0.054666176 -0.036811672 0.000750348 0.053516425
0.020783186 0.05131261 0.044597737 -0.036410414 -0.00370685 0.04782725 -0.029396625 -0.030041674
-0.033925585 -0.0097339265 -0.016617808 0.02024813 -0.044810854 -0.043582138 0.015179984 0.042458057
0.03767909 -0.045129552 -0.04098335 0.02007918 0.0052210726 -0.0045784824 0.008173615 -0.042358194
0.05348888 0.015853219 0.011963546 0.04300338 -0.03258649 0.021906555 0.006372977 -0.0062360205
-0.045337714 -0.042378955 -0.036824748 -0.040149517 0.03236767 -0.037667517 -0.024355534 0.051805183
-0.03399336 0.020608537 0.016823895 0.026784517 -0.050284453 0.015605494 -0.051513534 0.014445268
-0.016542945 -0.008463968 0.03287737 -0.009808745 0.0452234 0.051203318 0.02231928 0.048874483
0.03022845 0.048899956 -0.0033123493 -0.053584114 -0.055375308 -0.032618754 0.05156865 0.0038592108
-0.050443456 -0.002069898 -0.040071204 -0.014265884 0.012068145 0.024875753 -0.049121704 -0.033435084
0.026248284 -0.028671209 -0.00485228 0.049141765 -0.023997005 -0.016531896 -0.032211386 -0.04893181
-0.015781295 0.045476906 0.009373531 -0.0048465766 -0.0001988411 -0.024379816 -0.01527907 0.0035686456
0.035667762 0.014874309 -0.018860925 -0.034419067 0.017299816 0.017954469 -0.050153844 0.041990265
0.044910103 -0.03622296 0.053824164 0.021659218 -0.05089868 0.002214536 0.03596805 0.021662854
0.023559563 -0.014548488 0.0009945482 0.015829071 -0.008937132 -0.036616743 0.04639838 0.05573541
-0.006618701 0.055110954 0.022520684 -0.012801282 -0.008051492 0.055300936 0.001375325 0.02327498
0.020416707 0.021773122 -0.0010537468 0.02782417 -0.024397384 0.010074481 0.01312013 0.0126734525
-0.051031392 -0.04798303 0.026470743 -0.052792996 -0.004698895 -0.002325412 0.04907152 -0.02651537
-0.03396196 0.026509322 0.01398278 0.020713396 0.025632337 -0.031610552 0.04610613 -0.055038337
-0.053798992 0.008532271 0.015473016 0.01362294 -0.021067329 0.0001893118 0.025158629 0.009926364
0.044257835 0.003814008 0.009044513 0.037139975 0.04549393 0.04229252 0.004060358 -0.008615401
0.053272687 0.052422956 0.013233334 0.020233795 0.008998238 -0.0336289 -0.055721458 0.0010584444
0.024383895 -0.005127836 0.01625792 0.010590881 -0.011663228 -0.0022780634 0.037538633 -0.004223224
-0.024155732 0.027939238 0.04498837 -0.02247212 0.002740316 0.042212717 0.0089452565 -0.008615214
0.009520426 -0.046934776 0.044505514 0.035564087 0.02049277 -0.036706284 0.0032556243 -0.026409566
0.019654997 -0.030586515 -0.0075260624 -0.016015582 -0.015856512 -0.03138543 -0.007815961 0.016751505
-0.002482839 -0.051128015 0.03795045 0.052920856 -0.009876817 -0.037831858 -0.026685296 0.037556447
-0.052815806 0.022858657 0.0126397535 -0.024901561 -0.039947793 0.018963583 -0.0468601 -0.043697506
-0.051513806 -0.0307753 -0.019018967 -0.017958585 -0.03182145 -0.02775668 -0.029932823 -0.038725667
-0.02141872 -0.013478242 -0.05533304 -0.05296413 0.024938919 0.020917192 -0.016175684 -0.007106211
00000000: eec7 c5bc e8a6 8c3c f0a8 843c 2e6f c3bc
00000010: c4b0 283d e077 973a ec35 1dbc f0f8 11bd
00000020: ed3c f9bc 5257 8bbc 14f7 7dbc 1839 1cbd
00000030: 6a60 c7bc 00c0 0939 77c1 39bd 6ae3 1a3d
00000040: 60f3 1bbc dcdc 08bc de7e 013d 08c9 c23b
00000050: a4e9 5f3d d6c7 16bd 00b3 443a 0a34 5b3d
00000060: 8041 aa3c 2c2d 523d 1eac 363d 1623 15bd
00000070: a0ee 72bb 82e6 433d 31d1 f0bc f519 f6bc
00000080: 8ef5 0abd 0c7b 1fbc 1222 88bc 68df a53c
00000090: 968b 37bd 2f83 32bd 78b5 783c 80e8 2d3d
000000a0: 6455 1a3d c4d9 38bd 28de 27bd 187d a43c
000000b0: 8815 ab3b 1807 96bb a0ea 053c c97f 2dbd
000000c0: 2817 5b3d 9cde 813c c002 443c 5024 303d
000000d0: 6979 05bd 6075 b33c 68d4 d03b 8857 ccbb
000000e0: 0ab4 39bd 8e95 2dbd 8cd5 16bd d273 24bd
000000f0: f693 043d 4149 1abd 4285 c7bc ac31 543d
00000100: 9f3c 0bbd 3cd3 a83c 44d2 893c 346b db3c
00000110: 12f7 4dbd 30ae 7f3c dbff 52bd d8ab 6c3c
00000120: 1285 87bc 74ac 0abc 6caa 063d dcb4 20bc
00000130: 2c3c 393d 92ba 513d ecd6 b63c 9c30 483d
00000140: a8a1 f73c 524b 483d 0014 59bb 047b 5bbd
00000150: 38d1 62bd 3e9b 05bd a639 533d d0ea 7c3b
00000160: cc9d 4ebd 20a7 07bb b421 24bd 74bb 69bc
00000170: 78b9 453c 3cc8 cb3c d733 49bd 3af3 08bd
00000180: a406 d73c e2df eabc e0ff 9ebb e048 493d
00000190: 5e95 c4bc e66d 87bc 16f0 03bd b96c 48bd
000001a0: c647 81bc fe45 3a3d 7093 193c 08d0 9ebb
000001b0: 0080 50b9 2eb8 c7bc 1055 7abc f0df 693b
000001c0: 5c18 123d 60b3 733c 3a82 9abc 02fb 0cbd
000001d0: 58b8 8d3c 4015 933c 1e6e 4dbd fcfd 2b3d
000001e0: a8f3 373d 875e 14bd ba76 5c3d ac6e b13c
000001f0: 227b 50bd c021 113b 3c53 133d 4c76 b13c
00000200: fcff c03c c85c 6ebc 805b 823a f8ab 813c
00000210: 0c6d 12bc 70fb 15bd 3a0c 3e3d d04a 643d
00000220: b0e1 d8bb 06bc 613d 4c7d b83c 78bc 51bc
00000230: 68ea 03bc 3c83 623d 4044 b43a 2cab be3c
00000240: f040 a73c 8c5d b23c e01d 8aba 84ef e33c
00000250: 06dd c7bc 700f 253c d0f5 563c 50a4 4f3c
00000260: 4b06 51bd db89 44bd 2cd9 d83c 783d 58bd
00000270: 30f9 99bb f065 18bb 38ff 483d c336 d9bc
00000280: b21b 0bbd 142a d93c 0818 653c 24af a93c
00000290: e8fa d13c 117a 01bd c8d9 3c3d e16f 61bd
000002a0: 555c 5cbd f0ca 0b3c 8882 7d3c c032 5f3c
000002b0: 6495 acbc 0082 4639 7819 ce3c 30a2 223c
000002c0: b447 353d 70f4 793b 702f 143c 1620 183d
000002d0: d857 3a3d ec3a 2d3d c00c 853b 9c27 0dbc
000002e0: 7634 5a3d 74b9 563d a0d0 583c 58c1 a53c
000002f0: 586d 133c 75be 09bd 2f3c 64bd 80bb 8a3a
00000300: bcc0 c73c 6807 a8bb 542f 853c 6085 2d3c
00000310: 2017 3fbc 904b 15bb 1cc2 193d f862 8abb
00000320: 3ee2 c5bc d4e0 e43c ba45 383d 7417 b8bc
00000330: e096 333b 3ee7 2c3d 208f 123c d426 0dbc
00000340: 90fb 1b3c ae3e 40bd 6a4b 363d a6ab 113d
00000350: 74e0 a73c 5459 16bd 505c 553b e058 d8bc
00000360: 8403 a13c 9290 fabc 309d f6bb 1c33 83bc
00000370: 84e5 81bc 028e 00bd 840e 00bc 743a 893c
00000380: 20b7 22bb 9c6b 51bd ee71 1b3d 8ac3 583d
00000390: 60d2 21bc 94f5 1abd 1f9b dabc cad4 193d
000003a0: 6355 58bd 1442 bb3c f816 4f3c 5cfe cbbc
000003b0: 4ca0 23bd 8459 9b3c 60f0 3fbd 28fc 32bd
000003c0: 2400 53bd 7b1c fcbc aacd 9bbc e21d 93bc
000003d0: 3557 02bd fa61 e3bc ae35 f5bc ce9e 1ebd
000003e0: 5076 afbc d8d3 5cbc e6a4 62bd eaf0 58bd
000003f0: b44c cc3c 885a ab3c de82 84bc 38db e8bb

shared_layer.0.bias f4 [128]
-0.025176706 0.02186419 -0.05085103 -0.034751456 0.03477856 0.08433262 -0.051239908 0.07256151
-0.03444113 -0.0192663 0.071087785 0.12824468 0.049820863 0.1545748 -0.023082737 -0.008444575
0.01060481 -0.02756305 0.040741652 -0.036855713 0.02871974 0.14290501 -0.050745282 -0.0014076162
-0.052452464 0.0015727456 0.13672458 -0.007211089 0.008725579 0.035674777 -0.0008196016 0.0025662275
-0.014116793 0.15077032 -0.036472734 -0.026813552 0.10737357 0.06981675 0.11601607 0.08895033
0.094731756 0.14937036 0.020339321 -0.028046217 0.0065059494 0.2045788 0.13376424 0.064050145
-0.02728492 -0.0006283479 0.11586165 0.11184281 -0.00455557 0.14596961 -0.003709115 -0.014857959
0.094288215 0.0019431714 0.0031345305 0.11461624 -0.0250422 0.016970174 -0.039074473 0.079168975
0.005978249 0.022428738 0.008933388 -0.04561492 0.04692712 -0.055932082 -0.018138016 0.04402966
0.007329173 0.13145976 0.1712303 0.007697938 0.134955 -0.036519423 0.001934685 0.04006869
-0.012797768 0.09758006 0.09613427 0.008355059 0.013266795 -0.04359874 0.11970403 -0.0037458097
0.05250681 0.075175636 0.060400713 0.11445962 -0.020822313 -0.04814341 0.15537013 0.0053622015
0.12039095 0.12426406 -0.009971738 0.04430238 0.07422441 -0.014799427 0.10652085 -0.022958532
0.11707347 0.23687997 0.14348055 0.006242189 0.03424161 0.14989182 0.022469396 -0.011481169
0.03769828 0.015456794 0.04129863 -0.0126908 0.08294178 0.108049184 -0.017679397 0.0506449
0.04533034 -7.341797e-05 0.08190593 -0.008822479 0.093525335 0.07474796 -0.04342649 0.0029475845
00000000: 613f cebc 881c b33c 2b49 50bd 8b57 0ebd
00000010: f773 0e3d 95b6 ac3d f0e0 51bd 219b 943d
00000020: 2412 0dbd 5cd4 9dbc 7996 913d 9352 033e
00000030: f610 4c3d db48 1e3e 0218 bdbc 1d5b 0abc
00000040: ccbf 2d3c e8cb e1bc b8e0 263d 04f6 16bd
00000050: a945 eb3c b155 123e 49da 4fbd c37f b8ba
00000060: 65d8 56bd 9624 ce3a 8701 0c3e 004b ecbb
00000070: bbf5 0e3c b71f 123d 88da 56ba 272e 283b
00000080: 1f4a 67bc 8963 1a3e 6f64 15bd 18a8 dbbc
00000090: ade6 db3d 16fc 8e3d d599 ed3d 972b b63d
000000a0: b902 c23d 8bf4 183e a69e a63c 2ec1 e5bc
000000b0: dc2f d53b 1b7d 513e 7ef9 083e b92c 833d
000000c0: a084 dfbc b7b7 24ba df48 ed3d d80d e53d
000000d0: e446 95bb 0f79 153e a014 73bb cc6e 73bc
000000e0: 2e1a c13d 03b2 fe3a b26c 4d3b ebbb ea3d
000000f0: 4d25 cdbc 0905 8b3c 8e0c 20bd 5823 a23d
00000100: 30e5 c33b 79bc b73c 585d 123c b6d6 3abd
00000110: a736 403d 0a19 65bd 2d96 94bc 7258 343d
00000120: 8f29 f03b 639d 063e ff56 2f3e fc3e fc3b
00000130: a531 0a3e 6495 15bd 4295 fd3a 111f 243d
00000140: bbad 51bc 0ed8 c73d 0be2 c43d a8e3 083c
00000150: f95c 593c 9894 32bd 6327 f53d 427c 75bb
00000160: 6111 573d aff5 993d bd66 773d ce69 ea3d
00000170: 8e93 aabc 0632 45bd 5919 1f3e 68b5 af3b
00000180: 888f f63d 287e fe3d 8060 23bc 6a76 353d
00000190: f802 983d 4c79 72bc 9a27 da3d 8813 bcbc
000001a0: 37c4 ef3d aa90 723e 91ec 123e 478b cc3b
000001b0: ee40 0c3d 3e7d 193e bd11 b83c 831b 3cbc
000001c0: 8369 1a3d 7e3e 7d3c c128 293d 13ed 4fbc
000001d0: 61dd a93d e448 dd3d 62d4 90bc 0771 4f3d
000001e0: 4eac 393d f9f7 99b8 4cbe a73d 298c 10bc
000001f0: 368a bf3d 7515 993d fadf 31bd 432c 413b

shared_layer.2.weight f4 [64, 128]
-0.006191373 -0.07892267 0.05261863 -0.06266913 -0.07897537 -0.028938016 -0.075674705 -0.08503816
0.06684958 -0.06627434 -0.008931707 -0.008733403 0.03382604 0.08066494 0.000988625 -0.0744954
-0.05653007 0.038309284 0.018089786 -0.03873741 -0.075874165 -0.06398603 -0.084817 -0.025786325
-0.0045340434 -0.036820233 -0.04754591 0.0010809228 -0.0079975845 -0.007900618 -0.08000979 -0.004683597
-0.08692421 0.018458225 0.047937877 -0.0028501824 -0.029986192 0.014377932 -0.04190401 -0.09128089
-0.041314635 0.015250444 -0.09466329 0.026494183 -0.042664018 -0.07697524 -0.048024364 -0.09053133
-0.07514208 0.043252952 0.048377275 -0.013418614 -0.044477116 -0.02475077 -0.053440887 0.03170014
0.0016692877 -0.025670834 0.05759291 0.074164085 -0.07965911 -0.039124843 -0.08178472 -0.03359403
0.055563457 -0.061920665 -0.07517766 0.031904288 0.004880066 -0.058183216 -0.0030584782 -0.008956442
-0.011511894 0.009205259 0.0035860315 -0.08312911 0.035207167 0.08079814 0.059758987 -0.06951911
-0.012331335 -0.032559834 -0.072240174 0.056342967 -0.059713285 -0.05599095 0.014921777 0.032818094
0.026086494 -0.029105488 -0.03099199 -0.07805381 -0.011841819 -0.08803715 -0.0671819 -0.030306827
-0.045002777 -0.069145024 -0.028880842 -0.07721633 -0.07290967 0.06733716 -0.0059355213 0.013974128
0.058501966 -0.075179145 0.0046435893 0.062769085 -0.048158623 0.023767501 0.013678104 -0.09434539
-0.020343177 0.05182006 -0.048698325 0.042738385 -0.031059615 0.011739776 -0.0066493154 0.017530996
0.028278649 -0.075844415 -0.1194262 0.058871143 -0.03149102 -0.01551036 0.08437533 -0.08768838
-0.02253791 -0.050667893 -0.02850815 -0.06815856 -0.06160347 0.046204653 0.004832782 -0.022040922
-0.07715574 0.056007944 0.022460856 0.10984073 0.017875383 0.060527943 0.06821557 0.03210553
-0.011972294 -0.0074791317 0.0644044 0.02350244 0.012901951 -0.023437945 0.043718833 0.09385847
-0.0048583 0.010832607 0.14486605 -0.0074272677 0.08777906 -0.007052358 -0.009372934 0.017657576
-0.009906857 0.14257249 -0.012203947 -0.0453542 0.05798962 0.06278647 0.0013108284 -0.059810996
-0.008660977 0.021064522 0.083024666 0.063398555 0.014087967 0.16427729 0.09844729 0.06142059
0.06374412 0.051239472 -0.009375148 0.07570924 -0.03206228 0.0668063 0.06519105 0.067004494
0.11111573 0.067898884 0.07331096 0.0064920452 0.04689258 0.0002033279 0.018017842 0.109910846
0.032889724 -0.0048938547 -0.003602965 -0.008521557 0.045647882 0.018878363 -0.05945747 -0.035705455
-0.02836508 0.043724142 0.15281047 0.06549095 0.007021257 -0.006724384 0.04870815 0.035286747
-0.37735692 0.035679977 -0.0340886 -0.06530612 -0.016803507 -0.006294565 -0.044365074 -0.08127556
-0.040722705 0.086271726 0.0013984863 0.047399268 0.07182486 0.039782144 0.16526993 -0.055385683
0.053922057 -0.0008491098 -0.042074535 0.090268366 0.06796905 0.042568244 -0.028550873 0.021696294
0.019433977 0.18009366 0.03459827 -0.045457512 -0.0498184 0.0491639 0.03322709 -0.05067061
-0.02429788 -0.0561677 -0.059144303 0.07132099 -0.05382379 0.10686946 -0.004220985 -0.06772521
0.03711376 -0.031982582 0.102039635 0.06325132 0.060150668 -0.024015332 -0.031437963 0.079468444
00000000: 00e1 cabb 35a2 a1bd a286 573d ac58 80bd
00000010: d7bd a1bd 6b0f edbc 57fb 9abd 7d28 aebd
00000020: 6fe8 883d d7ba 87bd 4b56 12bc 8c16 0fbc
00000030: 2c8d 0a3d a933 a53d c094 813a 0b91 98bd
00000040: 138c 67bd 32ea 1c3d 0831 943c 1eab 1ebd
00000050: ea63 9bbd 1c0b 83bd 89b4 adbd d83d d3bc
00000060: 5092 94bb d0d0 16bd 80bf 42bd c0ad 8d3a
00000070: 4d08 03bc 9871 01bc 2cdc a3bd dc78 99bb
00000080: 5205 b2bd b435 973c 825a 443d 20ca 3abb
00000090: 9aa5 f5bc 6b91 6b3c 8aa3 2bbd 7af1 babd
000000a0: 8939 29bd 00dd 793c d4de c1bd 540a d93c
000000b0: 77c0 2ebd 32a5 9dbd 32b5 44bd 7d68 b9bd
000000c0: 17e4 99bd 022a 313d 4027 463d bfd9 5bbc
000000d0: a32d 36bd 20c2 cabc d5e4 5abd 02d8 013d
000000e0: 00cc da3a a44b d2bc 8be6 6b3d 57e3 973d
000000f0: 5124 a3bd 5f41 20bd bf7e a7bd e599 09bd
00000100: 8296 633d 86a0 7dbd bff6 99bd 12ae 023d
00000110: f6e8 9f3b 8651 6ebd c070 48bb 0abe 12bc
00000120: 629c 3cbc a8d1 163c a003 6b3b 983f aabd
00000130: 6435 103d 7f79 a53d d7c5 743d 0960 8ebd
00000140: 5e09 4abc 765d 05bd a8f2 93bd e2c7 663d
00000150: eb95 74bd c456 65bd 787a 743c 446c 063d
00000160: 58b3 d53c a26e eebc eae2 fdbc adda 9fbd
00000170: 3004 42bc d24c b4bd aa96 89bd 0646 f8bc
00000180: d554 38bd e89b 8dbd 8497 ecbc 9823 9ebd
00000190: aa51 95bd 11e8 893d c37e c2bb bef3 643c
000001a0: c29f 6f3d 86f7 99bd 4029 983b 148d 803d
000001b0: fa41 45bd 10b4 c23c 201a 603c 2838 c1bd
000001c0: bca6 a6bc 4541 543d e577 47bd 720e 2f3d
000001d0: bc70 febc 3058 403c 80e2 d9bb 2a9d 8f3c
000001e0: a0a8 e73c 5154 9bbd b995 f4bd de22 713d
000001f0: bafc 00bd 2a1f 7ebc f9cc ac3d f795 b3bd
00000200: 6ca1 b8bc 2389 4fbd ec89 e9bc b796 8bbd
00000210: ec53 7cbd 1741 3d3d 505c 9e3b 2a8f b4bc
00000220: d403 9ebd 9668 653d d4ff b73c 2df4 e03d
00000230: 656f 923c 26ec 773d 9bb4 8b3d 1781 033d
00000240: 7127 44bc 8113 f5bb 74e6 833d 3088 c03c
00000250: b462 533c ef00 c0bc 8512 333d df38 c03d
00000260: 6032 9fbb 3f7b 313c c457 143e 7060 f3bb
00000270: 82c5 b33d 7717 e7bb ef90 19bc 9fa6 903c
00000280: 5f50 22bc 86fe 113e 10f3 47bc 53c5 39bd
00000290: 8686 6d3d 3196 803d 1ad0 ab3a 60fc 74bd
000002a0: c5e6 0dbc 818f ac3c d608 aa3d 1ad7 813d
000002b0: 37d1 663c 4e38 283e bc9e c93d 2894 7b3d
000002c0: 478c 823d 7be0 513d 399a 19bc 720d 9b3d
000002d0: bd53 03bd bed1 883d e382 853d a739 893d
000002e0: a590 e33d 920e 8b3d 0e24 963d 39bb d43b
000002f0: 6f12 403d 6b34 5539 279a 933c f018 e13d
00000300: 60b7 063d a15c a0bb b91f 6cbb 009e 0bbc
00000310: 46f9 3a3d cca6 9a3c ad89 73bd e23f 12bd
00000320: e25d e8bc 1618 333d 597a 1c3e 1f20 863d
00000330: 9312 e63b 3958 dcbb 3282 473d d688 103d
00000340: ed34 c1be 2b25 123d 7da0 0bbd 37bf 85bd
00000350: 82a7 89bc a342 cebb 27b8 35bd cd73 a6bd
00000360: dacc 26bd 3baf b03d 6a4d b73a bc25 423d
00000370: ea18 933d 9af2 223d 853c 293e 19dc 62bd
00000380: 60dd 5c3d cb96 5eba 5956 2cbd 9fde b83d
00000390: 5b33 8b3d 0a5c 2e3d 85e3 e9bc 6dbc b13c
000003a0: 0134 9f3c 796a 383e eab6 0d3d a831 3abd
000003b0: 610e 4cbd 1660 493d 2119 083d fc8b 4fbd
000003c0: 590c c7bc 1a10 66bd 4c41 72bd bd10 923d
000003d0: 5676 5cbd 60de da3d 3050 8abb 84b3 8abd
000003e0: 9904 183d 2b00 03bd 28fa d03d e889 813d
000003f0: 8c60 763d cdbb c4bc 18c5 00bd 5ac0 a23d

shared_layer.2.bias f4 [64]
-0.097124614 0.07450671 0.12619358 0.16881447 0.11110549 -0.021901838 0.12850596 -0.086766645
0.09095097 0.07435084 0.006739381 0.15373881 0.12159127 -0.062415417 0.02051301 0.017511198
0.14671263 0.022892423 0.031320155 -0.043738388 0.14639287 0.075774156 0.10375732 0.09903141
0.019448318 0.20296465 -0.041338574 0.16257524 -0.06859286 0.01771067 0.022832911 0.08445274
0.10689147 0.043288395 0.022891274 0.058205687 -0.038638964 0.10299559 0.040846232 0.02940961
-0.026886081 0.059050873 0.08064645 -0.059035204 0.028415801 0.13403006 -0.047453143 0.09843081
0.09249819 0.14876206 0.087934285 0.012919582 0.15183592 -0.085801676 0.15373485 0.05568478
-0.043805283 -0.027467359 -0.076259665 0.08381573 0.003464874 -0.08797006 -0.05123875 0.13411246
00000000: 45e9 c6bd f996 983d e438 013e b3dd 2c3e
00000010: 468b e33d 7c6b b3bc 1197 033e b6b2 b1bd
00000020: 8144 ba3d 4145 983d 06d6 dc3b b56d 1d3e
00000030: d804 f93d 4fa7 7fbd e60a a83c a573 8f3c
00000040: d63b 163e e488 bb3c 9049 003d 0627 33bd
00000050: 03e8 153e 7b2f 9b3d b87e d43d fbd0 ca3d
00000060: 1452 9f3c f7d5 4f3e a352 29bd 207a 263e
00000070: 6a7a 8cbd f815 913c 160c bb3c 8ff5 ac3d
00000080: eae9 da3d 2c4f 313d 7b86 bb3c 1669 6e3d
00000090: e443 1ebd 5aef d23d 614e 273d 6cec f03c
000000a0: 3340 dcbc 54df 713d f729 a53d e6ce 71bd
000000b0: 41c8 e83c 2d3f 093e 3a5e 42bd 1896 c93d
000000c0: b16f bd3d 1555 183e e416 b43d a8ac 533c
000000d0: e07a 1b3e cab8 afbd ab6c 1d3e b915 643d
000000e0: 2b6d 33bd 3a03 e1bc 072e 9cbd 95a7 ab3d
000000f0: f112 633b a629 b4bd b9df 51bd c754 093e

attention.in_proj_weight f4 [192, 64]
0.14255969 0.030525109 0.07220052 -0.043039884 -0.034668546 -0.07371416 0.24509273 0.12580618
-0.20170261 0.008642636 0.041153 -0.23746361 -0.035265256 -0.18387888 -0.0639422 0.08395927
-0.039104275 0.2356688 -0.15341553 0.08449335 -0.0041569136 0.11016202 -0.09082211 -0.20291732
-0.091569126 0.1027886 -0.07151914 -0.14813697 -0.0014135248 0.008648944 -0.09949408 -0.008750201
-0.22222936 0.07727686 0.118787244 -0.1256071 0.10579039 -0.16058429 -0.11280395 0.13604826
-0.09266574 -0.039493475 -0.061382357 0.06922291 0.16661257 0.040140014 0.07335542 -0.21399839
-0.050587457 -0.25456023 -0.15361333 -0.08470301 -0.028712623 -0.0018578321 0.024314314 0.018496003
0.10021937 0.033859845 0.11421524 -0.1995244 -0.089129195 -0.019372841 -0.09608079 -0.113107905
-0.14863884 0.185059 0.09979293 0.06283214 -0.07443406 0.0252618 -0.0108194975 -0.14157853
-0.07767152 -0.09537403 -0.14766824 -0.13267182 0.006944615 -0.030183246 -0.21326938 -0.16756053
0.13629486 0.28547147 -0.014907024 -0.11683688 0.14097777 0.06658943 0.08169011 -0.062438257
0.031333353 0.16689023 -0.08154852 -0.11515001 -0.08226653 0.012807061 0.06860633 -0.041272596
-0.08234039 0.25119624 0.071679555 0.18660925 0.07168348 0.10454146 0.1473036 0.038659584
-0.051991623 0.10257109 -0.08602366 -0.081389576 -0.13075887 0.122614324 -0.04974972 -0.02134746
-0.08429538 0.09353583 -0.005322299 -0.26210082 0.024368593 -0.011637121 0.066361055 -0.15021685
-0.08272326 -0.036594253 -0.11179838 -0.08337432 -0.01767866 -0.08468901 0.05895187 0.12750271
-0.1373549 0.14907001 -0.032585308 0.25982168 0.13732684 -0.013899127 -0.16484177 -0.15116942
-0.05608207 0.10328512 0.21535528 0.022049002 -0.0002086892 0.19640073 0.048953906 -0.04854697
0.0047489037 -0.29967186 0.016730612 -0.025578108 0.0813096 -0.21059781 0.1351716 0.17616613
-0.051027566 -0.30090117 -0.0007748692 0.0837926 -0.040640686 -0.10637083 0.13486445 0.07765325
0.058895003 -0.21653835 -0.11714627 -0.049978785 -0.123516515 0.097267166 -0.07630857 -0.038308583
0.10849817 0.045922622 0.1830216 0.12319322 0.047194883 0.20560828 -0.015312883 0.13412945
-0.040453006 0.256404 0.006246726 -0.002669104 0.25506234 -0.058134615 0.23942187 0.16554303
0.14582847 0.10904444 0.055237696 0.18821779 -0.10291106 -0.13335805 -0.121995404 -0.0230693
0.0012122178 0.18365394 0.19621174 0.2167829 -0.09268447 0.070754476 -0.14987737 0.14368412
0.14970306 0.08576608 -0.012300409 0.064767025 -0.08754023 0.1622015 0.058516417 0.13281192
0.053059187 -0.26883966 -0.027389634 -0.07092834 0.15471391 -0.15049414 0.11266756 0.00033679727
0.080238864 -0.24458247 -0.036294952 0.1439955 -0.05191383 -0.14194418 0.032519314 0.015961597
0.12258027 -0.14140089 -0.01079288 0.11630758 0.054141447 0.1654537 -0.02552429 0.024740439
0.04156963 -0.0641366 -0.022522407 -0.039070025 -0.009854676 0.2247802 -0.096998096 -0.021487549
0.20263886 0.16240242 0.06426354 0.16370663 0.119495116 -0.002611518 0.22366858 0.15513936
0.08702263 0.12748247 0.085176334 0.10584939 0.15215698 -0.025818838 -0.027486265 -0.04748451
00000000: 2bfb 113e cb0f fa3c dedd 933d 974a 30bd
00000010: 9b00 0ebd 73f7 96bd 97f9 7a3e 56d3 003e
00000020: 218b 4ebe d899 0d3c 0c90 283d a929 73be
00000030: 4d72 10bd bf4a 3cbe 21f4 82bd d6f2 ab3d
00000040: ce2b 20bd 2953 713e f618 1dbe d90a ad3d
00000050: b836 88bb a09c e13d f100 babd 8fc9 4fbe
00000060: 9888 bbbd d482 d23d a078 92bd 38b1 17be
00000070: 0646 b9ba 4db4 0d3c 8dc3 cbbd 015d 0fbc
00000080: 1890 63be 5543 9e3d ba46 f33d 269f 00be
00000090: a2a8 d83d 3570 24be c205 e7bd 3c50 0b3e
000000a0: 89c7 bdbd e9c3 21bd 116c 7bbd bec4 8d3d
000000b0: 7c9c 2a3e db69 243d 5e3b 963d 6522 5bbe
000000c0: cb34 4fbd b855 82be d04c 1dbe c678 adbd
000000d0: bc36 ebbc 8082 f3ba d02e c73c ee84 973c
000000e0: d03f cd3d 9fb0 0a3d aee9 e93d 2050 4cbe
000000f0: 5e89 b6bd cbb3 9ebc 01c6 c4bd 1ea5 e7bd
00000100: c834 18be 1b80 3d3e 3c60 cc3d 23ae 803d
00000110: e270 98bd d6f1 ce3c 4344 31bc f6f9 10be
00000120: 3f12 9fbd 7653 c3bd 5836 17be 1fdb 07be
00000130: a78f e33b db42 f7bc 4a63 5abe fd94 2bbe
00000140: e190 0b3e 5129 923e 973c 74bc 2d48 efbd
00000150: 7a5c 103e 0a60 883d 254d a73d 42bf 7fbd
00000160: 6757 003d 46e5 2a3e e902 a7bd c5d3 ebbd
00000170: 5b7b a8bd b5d4 513c 7a81 8c3d 740d 29bd
00000180: 14a2 a8bd cb9c 803e bbcc 923d 7f16 3f3e
00000190: cace 923d d519 d63d c1d6 163e 8359 1e3d
000001a0: 2bf5 54bd cb10 d23d 2c2d b0bd 94af a6bd
000001b0: a7e5 05be 381d fb3d 5dc6 4bbd dee0 aebc
000001c0: 0ea3 acbd b78f bf3d ae66 aebb 1432 86be
000001d0: a5a0 c73c a0a9 3ebc 4ee8 873d 72d2 19be
000001e0: d06a a9bd dbe3 15bd 8df6 e4bd 28c0 aabd
000001f0: d6d2 90bc 6f71 adbd 8477 713d 1290 023e
00000200: c3a6 0cbe cfa5 183e 2c78 05bd 5907 853e
00000210: 689f 0c3e 2ab9 63bc 48cc 28be 28cc 1abe
00000220: 50b6 65bd 2687 d33d 1886 5c3e 1ca0 b43c
00000230: 95d3 5ab9 461d 493e e483 483d 30d9 46bd
00000240: b19c 9b3b 976e 99be a30e 893c 2e89 d1bc
00000250: a685 a63d f4a6 57be 6d6a 0a3e e564 343e
00000260: 4802 51bd b80f 9abe 9720 4bba 749b ab3d
00000270: d976 26bd f3d8 d9bd e819 0a3e ab08 9f3d
00000280: e33b 713d 3bbc 5dbe 62ea efbd 8eb6 4cbd
00000290: 3af6 fcbd 0234 c73d ab47 9cbd 76e9 1cbd
000002a0: 4a34 de3d 5c19 3c3d 046a 3b3e ba4c fc3d
000002b0: 6c4f 413d fa8a 523e e3e2 7abc 3b59 093e
000002c0: 0db2 25bd 6347 833e 56b1 cc3b 22ec 2ebb
000002d0: 8897 823e 901e 6ebd 022b 753e 1d84 293e
000002e0: 0f54 153e b152 df3d ec40 623d 2abc 403e
000002f0: 09c3 d2bd 038f 08be bad8 f9bd d4fb bcbc
00000300: 48e3 9e3a c70f 3c3e bbeb 483e 56fc 5d3e
00000310: 5bd1 bdbd b9e7 903d 7479 19be ee21 133e
00000320: c24b 193e 20a6 af3d a887 49bc 93a4 843d
00000330: 4b48 b3bd 2618 263e e9ae 6f3d d9ff 073e
00000340: 9754 593d 5aa5 89be 3a60 e0bc e142 91bd
00000350: 536d 1e3e 231b 1abe 40be e63d 2a94 b039
00000360: 4654 a43d d473 7abe 04aa 14bd 8e73 133e
00000370: 99a3 54bd d159 11be f932 053d e5c1 823c
00000380: 5d0b fb3d 65cb 10be 9fd4 30bc ab32 ee3d
00000390: 6cc3 5d3d b26c 293e 5118 d1bc 76ac ca3c
000003a0: eb44 2a3d 0d5a 83bd e980 b8bc e407 20bd
000003b0: 8275 21bc c82c 663e f0a6 c6bd a806 b0bc
000003c0: 9080 4f3e d24c 263e 9a9c 833d b6a2 273e
000003d0: dbb9 f43d 0026 2bbb 6009 653e dadc 1e3e
000003e0: ec38 b23d c48a 023e ee70 ae3d 91c7 d83d
000003f0: 0acf 1b3e 0782 d3bc e02a e1bc 1e7f 42bd

attention.in_proj_bias f4 [192]
-0.039202508 0.2362331 0.002416464 0.007518412 0.023224726 -0.21335742 -0.16523033 -0.0011719915
0.038664892 0.051348343 0.0031425229 0.052300952 0.19453381 -0.09502358 0.041002143 0.1635087
-0.18159573 -0.16316582 -0.057980437 -0.26932606 0.15150918 0.20508245 0.2725079 0.009937955
0.077078074 0.039844498 -0.17665493 -0.07015676 0.17379048 0.06532843 0.16138813 0.08330179
0.15388945 -0.1211655 0.30975312 -0.16348363 -0.047698937 0.3037263 -0.17015193 -0.14994508
0.24565628 0.09186747 0.15835036 0.11429813 -0.10824352 -0.21425058 -0.058785286 -0.11544105
0.21971951 -0.36172837 0.19599369 -0.055557854 0.27040094 0.28210586 0.26712203 -0.23840377
0.21847366 0.20819421 0.2475768 -0.302765 -0.3172403 0.20539667 0.25133604 0.1400905
-0.001384755 0.0007562987 0.0022149135 0.0016088493 -0.0021366344 0.0033593096 0.0020002658 -0.0013632162
-0.0022249767 -0.00051419425 -0.0024993843 -0.0019740285 -0.0023832403 0.0013455835 0.0008017249 -0.0022236304
0.0018123634 0.0017720542 0.0008501172 -0.00032437814 -0.0016528951 -0.0024595144 0.00037625976 0.00030214203
-0.0014015462 -0.0012987664 0.0012715273 0.0011902399 -0.0014685729 0.00010143417 -0.0014975336 -0.000957776
-0.0009322532 0.0010571158 -0.0012706397 0.0012734937 0.0017009978 -0.0017904299 0.0014656447 0.0012551598
-0.002144295 -0.0015844399 -0.0020257845 -0.0008642517 0.001287575 -0.0007901607 -0.00017772648 0.0014406816
-0.00080185395 9.3015085e-05 -0.00058900646 -0.00023295733 -0.0003501065 -0.0006494038 -0.00057818333 4.1947056e-05
-0.001117732 -0.00027977573 -0.00031844334 0.00060288276 0.0013652561 -0.00011492961 0.00045601692 -1.1395841e-05
0.056336973 0.01596007 -0.07187579 0.03948997 -0.018887695 0.050011903 -0.045817874 0.057220526
-0.054674383 0.049742736 -0.041113477 -0.04623236 -0.050058126 -0.046375718 0.04858357 -0.045758903
0.07230742 0.055978704 -0.010004006 -0.036683757 0.04849728 0.055652414 0.04862126 0.052398138
-0.043459736 0.05405436 -0.059419245 -0.05747705 -0.05665386 -0.04472042 -0.05307625 0.06519622
0.06535749 0.033818398 -0.056447208 -0.05562155 0.029786864 0.066012286 -0.049330212 0.045492798
0.03820234 -0.04684724 0.046513155 -0.012682519 -0.055006985 -0.05752274 0.06461996 0.06684971
0.07168551 -0.07819951 -0.07212134 -0.06976711 0.06754076 0.06514005 0.06986138 0.060560387
0.0706483 -0.05915476 0.061900012 0.06275687 0.002587741 0.048849706 0.073006034 0.05139037
00000000: cf92 20bd 17e7 713e 8a5d 1e3b 035d f63b
00000010: c841 be3c 5e7a 5abe 2432 29be 829d 99ba
00000020: 145f 1e3d a452 523d c9f2 4d3b 8639 563d
00000030: df33 473e b99b c2bd ddf1 273d d36e 273e
00000040: 3bf4 39be f114 27be e57c 6dbd 1be5 89be
00000050: 3925 1b3e 2201 523e 2886 8b3e ced2 223c
00000060: 1cdb 9d3d fc33 233d 08e5 34be 59ae 8fbd
00000070: 22f6 313e e9ca 853d ee42 253e 219a aa3d
00000080: 3295 1d3e 9e25 f8bd f697 9e3e 4168 27be
00000090: f65f 43bd 0382 9b3e 4f3c 2ebe 348b 19be
000000a0: 528d 7b3e 0325 bc3d 9926 223e 2315 ea3d
000000b0: c7ae ddbd 8164 5bbe d7c8 70bd 5b6c ecbd
000000c0: 27fe 603e 7634 b9be 92b2 483e a290 63bd
000000d0: fe71 8a3e 2e70 903e 38c4 883e 1e20 74be
000000e0: 8fb7 5f3e dd30 553e c684 7d3e 0404 9bbe
000000f0: 526d a2be 8153 523e 1eaf 803e e273 0f3e
00000100: ab80 b5ba 5942 463a 1528 113b 06e0 d23a
00000110: c706 0cbb dd27 5c3b e416 033b f2ad b2ba
00000120: ead0 11bb feca 06ba b6cc 23bb b45e 01bb
00000130: 2330 1cbb 4a5e b03a d92a 523a 54ba 11bb
00000140: d38c ed3a 4644 e83a 66da 5e3a 4c11 aab9
00000150: f5a5 d8ba ce2f 21bb bb44 c539 d168 9e39
00000160: 16b4 b7ba 5e3b aaba 60a9 a63a d301 9c3a
00000170: 217d c0ba 0eb9 d438 e448 c4ba 4213 7bba
00000180: 7462 74ba ec8e 8a3a 988b a6ba 5ceb a63a
00000190: 04f4 de3a dcac eaba e01a c03a 2d84 a43a
000001a0: 4d87 0cbb fbac cfba 06c3 04bb f38e 62ba
000001b0: d9c3 a83a c922 4fba 175c 3ab9 41d5 bc3a
000001c0: 8233 52ba 1811 c338 8e67 1aba 0246 74b9
000001d0: 808e b7b9 c03c 2aba 3a91 17ba 4ff0 2f38
000001e0: dd80 92ba ddae 92b9 bef4 a6b9 c70a 1e3a
000001f0: 65f2 b23a 5d06 f1b8 8e15 ef39 c430 3fb7
00000200: 99c1 663d b1be 823c 9d33 93bd 3cc0 213d
00000210: 5eba 9abc 48d9 4c3d 86ab 3bbd 1260 6a3d
00000220: 3ff2 5fbd 0abf 4b3d 9b66 28bd 255e 3dbd
00000230: c009 4dbd 77f4 3dbd 91ff 463d b06d 3bbd
00000240: ea15 943d ed49 653d d8e7 23bc b541 16bd
00000250: 15a5 463d c9f3 633d 1627 473d 6e9f 563d
00000260: d602 32bd 1b68 5d3d 9861 73bd 0e6d 6bbd
00000270: e10d 68bd c22c 37bd 7b66 59bd 9985 853d
00000280: 26da 853d 2985 0a3d 3035 67bd 6cd3 63bd
00000290: 9503 f43c 7331 873d 7a0e 4abd a856 3a3d
000002a0: 0f7a 1c3d e4e2 3fbd 9484 3e3d 57ca 4fbc
000002b0: 014f 61bd f79c 6bbd 7857 843d 80e8 883d
000002c0: dacf 923d 1127 a0bd 5ab4 93bd 0fe2 8ebd
000002d0: cf52 8a3d 2668 853d 7c13 8f3d 2b0e 783d
000002e0: 0eb0 903d 434c 72bd de8a 7d3d ad86 803d
000002f0: 1797 293b a116 483d 3084 953d b57e 523d

attention.out_proj.weight f4 [64, 64]
-0.02972126 -0.04638029 -0.09810807 -0.10479009 -0.02166997 -0.009313835 0.07687418 -0.08612571
-0.07040371 0.085049585 0.069234 0.03844335 0.10122308 -0.04761315 -0.123531476 0.14561787
0.0070638726 -0.0192961 -0.03787045 0.12026024 0.009953807 -0.045749404 -0.070750795 -0.05102828
-0.12393639 0.033395752 0.10374039 0.005562381 -0.024828468 0.095813446 0.05520709 0.07501041
0.007951928 -0.078333296 0.09082893 0.024878953 -0.117960475 -0.014170148 -0.016156567 0.040283523
0.01916434 -0.013355378 0.08545794 0.042559378 -0.0053611742 0.027863093 -0.0701363 -0.02886284
0.065908685 0.03334447 -0.12832929 -0.082326934 -0.037894316 -0.073157385 0.10844844 -0.11076126
-0.017377531 0.024516022 -0.064433426 -0.08328776 -0.092612326 -0.09783971 0.049885973 -0.14752576
0.060035452 0.06183712 -0.11254467 -0.06415054 -0.046554808 -0.05283387 0.067986555 -0.10343621
0.07383997 0.030641718 0.06614442 0.05906584 0.047652945 0.1052411 -0.07500593 0.11263753
-0.116407536 0.088277034 0.10604357 0.036697853 -0.088206775 0.0999708 -0.022101557 -0.06898158
-0.043466322 0.09323148 0.09700964 -0.0501124 0.010791528 0.09195331 -0.08272635 -0.13692753
-0.035564758 0.1066676 0.015873238 0.1229043 -0.08547489 -0.0028002628 -0.03660412 -0.06618649
-0.03132933 -0.006141495 0.061106764 0.099131145 0.06254565 -0.05770923 -0.09275961 -0.102039084
-0.07402354 -0.021264693 0.09994131 -0.0070901606 -0.13858119 0.089844644 -0.1202001 -0.09927602
-0.057340015 -0.0044372813 0.05868267 -0.039635006 0.030477634 -0.14753672 0.041474376 0.028815182
0.14903216 -0.057307564 -0.016722754 0.13615817 0.06227672 -0.047475033 0.027165843 0.059632257
-0.0049187616 -0.070858754 0.08670443 -0.1294029 -0.08738889 0.095889114 0.13866967 0.08125038
-0.12930621 0.15208454 0.069541655 -0.14367358 0.037900943 0.08961665 0.0794281 -0.008874861
0.030127954 0.07556463 -0.08612674 -0.0133639425 -0.10939117 -0.0038445275 0.062952794 0.09455655
0.08121967 0.07747211 -0.02411612 -0.08244845 0.02033687 0.08832479 0.054597795 -0.043961495
-0.021541093 -0.019892456 -0.0036047222 0.025637068 -0.1474408 -0.11764247 -0.027825074 0.0697857
-0.020207776 -0.06714433 0.09866559 -0.076535426 0.06436086 -0.025750695 0.060204737 0.039335035
0.14706922 0.034359038 -0.02644141 0.134774 -0.01939042 0.070225395 0.09422074 0.056644395
0.012150045 -0.012503556 -0.0024754207 0.078284785 -0.12124158 -0.032878775 -0.094557606 0.08977472
-0.13851231 0.11053154 -0.01734681 -0.1503588 -0.12401954 -0.07596984 0.114143774 -0.054033652
-0.06469969 0.15830782 -0.09473714 -0.06089775 0.0228315 0.033179928 -0.12657574 -0.115623206
-0.053794228 -0.004430551 -0.0046626325 -0.034922145 -0.05441357 0.064696826 -0.012570018 -0.022291346
0.04052233 -0.03403711 0.10828221 -0.053446215 -0.012860358 0.06839522 -0.020672735 -0.03454645
-0.18020928 0.08718299 -0.07117978 -0.0046468955 0.16401605 -0.026365444 -0.116645284 -0.097855985
0.070462085 -0.022090167 -0.049456466 0.10785501 0.13307612 0.025613913 0.113040894 -0.03985699
-0.075095646 -0.026174117 0.09294203 0.0077173575 -0.030730814 -0.025069494 0.05565429 0.0011013295
00000000: 007a f3bc 42f9 3dbd e2ec c8bd 309c d6bd
00000010: 3985 b1bc 0e99 18bc 3670 9d3d ad62 b0bd
00000020: d22f 90bd 7a2e ae3d 8eca 8d3d c676 1d3d
00000030: 0c4e cf3d 0206 43bd 12fe fcbd da1c 153e
00000040: 0f78 e73b db12 9ebc 0c1e 1bbd 004b f63d
00000050: 4b15 233c ba63 3bbd cbe5 90bd 0803 51bd
00000060: 5dd2 fdbd fcc9 083d d775 d43d a244 b63b
00000070: 1265 cbbc d739 c43d d420 623d 0f9f 993d
00000080: ce48 023c 356d a0bd 8504 ba3d f2ce cb3c
00000090: 4395 f1bd e929 68bc c75a 84bc 5600 253d
000000a0: 89fe 9c3c 84d0 5abc 9304 af3d be52 2e3d
000000b0: caac afbb 2441 e43c 9fa3 8fbd c371 ecbc
000000c0: 22fb 863d 3694 083d c168 03be 069b a8bd
000000d0: 1237 1bbd 8ad3 95bd 371a de3d cdd6 e2bd
000000e0: 535b 8ebc d3d5 c83c acf5 83bd c692 aabd
000000f0: 88ab bdbd 3060 c8bd 3c55 4c3d fe10 17be
00000100: bce7 753d ec48 7d3d d27d e6bd 5c61 83bd
00000110: 41b0 3ebd 5468 58bd 893c 8b3d 5dd6 d3bd
00000120: 6939 973d 5704 fb3c ba76 873d 06ef 713d
00000130: bc2f 433d a588 d73d b69c 99bd 81ae e63d
00000140: 1367 eebd 97ca b43d 5f2d d93d 7d50 163d
00000150: c1a5 b4bd 7ebd cc3d 530e b5bc 3746 8dbd
00000160: be09 32bd 25f0 be3d fdac c63d a942 4dbd
00000170: f3ce 303c 0452 bc3d 6f6c a9bd bb36 0cbe
00000180: 5aac 11bd 8b74 da3d 9808 823c 40b5 fb3d
00000190: 760d afbd 9d84 37bb 34ee 15bd c88c 87bd
000001a0: 2f53 00bd 983e c9bb 164b 7a3d 4505 cb3d
000001b0: ef17 803d 8360 6cbd c0f8 bdbd def9 d0bd
000001c0: a799 97bd 4b33 aebc 08ae cc3d 9454 e8bb
000001d0: 3ae8 0dbe 7800 b83d 782b f6bd 3a51 cbbd
000001e0: 5ddd 6abd 9d66 91bb 3d5d 703d 5158 22bd
000001f0: 3bac f93c de13 17be 09e1 293d d10d ec3c
00000200: e39b 183e 56bb 6abd 28fe 88bc 0c6d 0b3e
00000210: e015 7f3d 2e75 42bd e78a de3c f440 743d
00000220: 902d a1bb 651e 91bd 1892 b13d 3282 04be
00000230: f2f8 b2bd 8361 c43d 6cff 0d3e 9966 a63d
00000240: d968 04be 0dbc 1b3e db6b 8e3d 2b1f 13be
00000250: 053e 1b3d ef88 b73d 33ab a23d dd67 11bc
00000260: e6ce f63c a1c1 9a3d 3763 b0bd 70f4 5abc
00000270: 7a08 e0bd 78f4 7bbb 65ed 803d dda6 c13d
00000280: 8056 a63d b3a9 9e3d 2b8f c5bc bcda a8bd
00000290: 8299 a63c a1e3 b43d f0a1 5f3d f810 34bd
000002a0: f276 b0bc 81f5 a2bc 343d 6cbb d404 d23c
000002b0: b9fa 16be 89ee f0bd 69f1 e3bc ceeb 8e3d
000002c0: c78a a5bc f782 89bd 2f11 ca3d 9bbe 9cbd
000002d0: a0cf 833d 1ff3 d2bc 3e99 763d c61d 213d
000002e0: 5099 163e 10bc 0c3d a89b d8bc 3202 0a3e
000002f0: a8d8 9ebc 55d2 8f3d cef6 c03d f403 683d
00000300: fb10 473c b7db 4cbc ab3a 22bb c653 a03d
00000310: 814d f8bd e5ab 06bd 6ba7 c1bd cfdb b73d
00000320: 2cd6 0dbe 5c5e e23d e61a 8ebc a8f7 19be
00000330: f5fd fdbd 1396 9bbd 36c4 e93d 6452 5dbd
00000340: 4581 84bd 721b 223e 8c05 c2bd eb6f 79bd
00000350: 2009 bb3c ade7 073d 129d 01be dccb ecbd
00000360: 5657 5cbd 282e 91bb ffc8 98bb 860a 0fbd
00000370: c3e0 5ebd c57f 843d 7af2 4dbc 579c b6bc
00000380: befa 253d 7f6a 0bbd 10c3 dd3d 6bea 5abd
00000390: 40b4 52bc cb12 8c3d de59 a9bc 9480 0dbd
000003a0: c888 38be ff8c b23d b4c6 91bd fc44 98bb
000003b0: d3f3 273e 58fc d7bc b9e3 eebd b868 c8bd
000003c0: 6d4e 903d 70f6 b4bc dd92 4abd 16e3 dc3d
000003d0: 1b45 083e 45d4 d13c fc81 e73d 1541 23bd
000003e0: bfcb 99bd 1a6b d6bc 6458 be3d e3e1 fc3b
000003f0: 30bf fbbc 8a5e cdbc c1f5 633d 7c5a 903a

attention.out_proj.bias f4 [64]
-0.03142041 -0.025416026 0.049385954 -0.061379418 0.0016645204 -0.058586355 -0.039062437 -0.054338537
-0.048865885 0.04158774 -0.04668914 0.051333096 -0.047600083 -0.042802278 -0.040579647 0.049701124
-0.047013894 0.017714797 -0.046855286 0.028138803 0.0490846 -0.058712997 0.020654911 0.0471799
-0.04155906 0.03872698 -0.04728856 -0.05131381 0.038693734 0.031634312 0.056532484 -0.03880593
-0.017629288 0.0015549137 0.03192128 0.03518005 0.045415226 -0.04827537 -0.070236385 -0.0385502
-0.041216362 -0.054142535 0.05037044 -0.037667308 -0.023955213 0.049136594 0.040839408 0.014618487
-0.052323185 0.047074765 0.045706008 0.048274066 0.0033818388 -0.021737862 -0.005387165 0.022350365
-0.041243326 -0.04602068 -0.040559035 0.03543908 0.056053128 0.040905893 -0.064520404 0.045322113
00000000: b0b2 00bd 4535 d0bc ed48 4a3d fc68 7bbd
00000010: 092c da3a 3ff8 6fbd efff 1fbd 1692 5ebd
00000020: 9827 48bd e857 2a3d 1d3d 3fbd a742 523d
00000030: 4ef8 42bd 7151 2fbd d836 26bd 6893 4b3d
00000040: a491 40bd 9f1e 913c 54eb 3fbd 5983 e63c
00000050: ef0c 493d 0a7d 70bd 7d34 a93c b63f 413d
00000060: d539 2abd 2fa0 1e3d a6b1 41bd 6e2e 52bd
00000070: 527d 1e3d fb92 013d 9b8e 673d f8f2 1ebd
00000080: 4c6b 90bc 3fce cb3a e3bf 023d f518 103d
00000090: 5105 3a3d 65bc 45bd 18d8 8fbd d1e6 1dbd
000000a0: 7dd2 28bd 90c4 5dbd 3c51 4e3d 0949 1abd
000000b0: b93d c4bc 7443 493d 3947 273d 6182 6f3c
000000c0: d650 56bd 78d1 403d 3936 3b3d 07bb 453d
000000d0: d7a1 5d3b 9a13 b2bc d186 b0bb 1d18 b73c
000000e0: c3ee 28bd 2e80 3cbd 3b21 26bd 9228 113d
000000f0: f797 653d f08c 273d 4623 84bd aea3 393d

classifier.0.weight f4 [32, 64]
-0.0634432 -0.007872497 0.14143582 -0.052253235 0.072718956 -0.04779774 0.009652779 -0.120981626
0.058835175 -0.032630667 -0.15235104 -0.03962378 -0.059255417 0.04322631 0.016861249 0.042022888
-0.15169056 0.08262144 -0.10616683 -0.034242943 0.11433851 -0.118001446 0.07607654 0.15426613
-0.08555165 -0.0066559985 -0.10980404 -0.1397343 -0.065449335 0.052934088 -0.004621098 -0.16361766
-0.03557034 -0.055869814 0.02388256 -0.036450308 0.1084289 -0.022188285 0.02584337 -0.067169435
0.03955855 -0.0007390217 -0.039889213 -0.0930885 0.05589951 -0.08719621 0.105106294 -0.00069071504
0.002157444 0.0024906348 -0.078690045 0.00110439 -0.080606975 -0.04477092 -0.05422926 -0.03338988
0.005104006 0.02415192 -0.092585936 0.07830935 0.036032982 0.05639799 -0.13403243 0.095656425
-0.05401627 -0.013218173 0.06562728 0.048760913 -0.12090573 -0.13684355 -0.072116904 0.039924987
-0.047456756 0.0003892759 0.039015617 -0.10857413 -0.08142336 0.037235916 0.06284442 0.08543483
-0.018899 0.15113574 -0.07147932 0.046450455 0.0031345875 0.021512488 0.100962445 0.004412718
-0.06346599 0.19093482 -0.0044511394 -0.08595492 -0.043742467 -0.12801541 0.11952705 -0.056814123
0.03011092 -0.064535916 -0.073547766 0.10878277 -0.09160179 -0.1307879 -0.08371791 -0.067182146
0.1221175 -0.04719025 0.026764253 -0.09138277 -0.04878566 -0.0353628 0.042622335 -0.025267828
-0.06443329 -0.09502913 -0.032091558 0.14074017 0.09293518 -0.032614183 -0.110406876 -0.102392934
0.0038865223 -0.07202153 -0.012341764 0.044911627 -0.1366527 -0.003818108 -0.07261605 0.11010118
0.13582242 -0.047944363 -0.08138664 0.04274872 0.038499445 0.044543497 0.119204156 0.090330325
0.025115239 -0.09205831 -0.09216831 -0.108078375 -0.067012586 0.021574562 0.0048320205 -0.004286487
0.08405078 -0.09686156 -0.057503816 -0.09381223 0.11405012 -0.038893793 0.10861777 0.0056037577
0.08306199 -0.10727453 0.13027799 0.05672664 0.041707616 -0.030932408 -0.042431135 0.03583187
0.08889872 -0.063090324 0.0018802601 0.06701155 0.062284734 -0.061414633 -0.016820485 -0.049751963
-0.025657868 -0.109214306 -0.09570414 -0.09286063 0.08039341 -0.094703496 0.046769 -0.022593575
0.0901235 -0.013601473 0.051161602 0.014660586 0.04888013 0.06866146 -0.10568347 0.029415091
0.10341033 -0.08344161 -0.03847753 0.024735926 -0.12896621 0.12954846 0.06664514 -0.13046847
-0.09067574 -0.113866225 0.026203806 -0.102380514 0.052970164 0.061477873 0.03427024 0.11047298
-0.12523112 -0.040580176 -0.11753798 -0.06123557 0.111468926 0.019180018 0.0671471 0.034711123
0.041642345 0.08682033 0.07545685 0.07125884 -0.074091196 0.011541526 0.1380644 -0.023575341
-0.120272 -0.043105133 0.0298094 0.111246996 0.13062158 0.03830493 -0.05384965 -0.11995317
0.036882885 0.10089189 -0.0946183 0.1031157 -0.10835982 0.02596423 0.05968492 -0.020923914
0.05164215 -0.039049875 0.028677264 0.017860502 -0.11688621 0.05265829 -0.10548808 0.024740923
-0.05468838 -0.05828117 0.03891514 -0.10178433 -0.023361279 -0.07864504 -0.10784073 -0.12471493
0.019384338 0.009075128 -0.024966938 0.040686183 -0.04108031 0.006701361 -0.03604773 -0.10385389
00000000: 82ee 81bd a5fb 00bc 8dd4 103e 7d07 56bd
00000010: aded 943d 90c7 43bd b126 1e3c 37c5 f7bd
00000020: 27fd 703d bca7 05bd e901 1cbe 8b4c 22bd
00000030: cfb5 72bd 120e 313d 9a20 8a3c 3120 2c3d
00000040: c554 1bbe 6e35 a93d ff6d d9bd 5442 0cbd
00000050: 4f2a ea3d beaa f1bd 04ce 9b3d f1f7 1d3e
00000060: b435 afbd 901a dabb f1e0 e0bd 8216 0fbe
00000070: 4d0a 86bd 6ad1 583d 946c 97bb 638b 27be
00000080: 34b2 11bd bfd7 64bd 5ca5 c33c eb4c 15bd
00000090: f90f de3d 35c4 b5bc 7ab5 d33c 2190 89bd
000000a0: 2508 223d e8ba 41ba df62 23bd 2fa5 bebd
000000b0: e2f6 643d ed93 b2bd f841 d73d 1a11 35ba
000000c0: e763 0d3b eb39 233b 3f28 a1bd 2ec1 903a
000000d0: 4515 a5bd b661 37bd 801f 5ebd d4c3 08bd
000000e0: 813f a73b 3fda c53c b29d bdbd a760 a03d
000000f0: 5297 133d 9401 673d cc3f 09be 84e7 c33d
00000100: 2a40 5dbd 0991 58bc 9867 863d 86b9 473d
00000110: 6c9d f7bd b720 0cbe 07b2 93bd 6288 233d
00000120: 0462 42bd ba17 cc39 d7ce 1f3d 1d5c debd
00000130: 4ac1 a6bd b084 183d 93b4 803d 75f8 ae3d
00000140: 13d2 9abc 54c3 1a3e c063 92bd d542 3e3d
00000150: a76d 4d3b f53a b03c 66c5 ce3d 9098 903b
00000160: 75fa 81bd 6b84 433e ddda 91bb 2209 b0bd
00000170: 4d2b 33bd 7916 03be 99ca f43d edb5 68bd
00000180: 2dab f63c 682b 84bd 36a0 96bd 80c9 de3d
00000190: b899 bbbd 43ed 05be 4c74 abbd cb96 89bd
000001a0: bd18 fa3d 904a 41bd b540 db3c e426 bbbd
000001b0: 79d3 47bd 95d8 10bd c294 2e3d 7afe cebc
000001c0: 9af5 83bd a29e c2bd 7072 03bd 311e 103e
000001d0: cd54 be3d 7396 05bd 001d e2bd 63b3 d1bd
000001e0: 06b5 7e3b 0680 93bd 1c35 4abc 41f5 373d
000001f0: afee 0bbe 3939 7abb b9b7 94bd ba7c e13d
00000200: 0815 0b3e 4f61 44bd 0aae a6bd 4819 2f3d
00000210: 98b1 1d3d 3e73 363d 4f21 f43d 1bff b83d
00000220: 79be cd3c 1189 bcbd bdc2 bcbd 3258 ddbd
00000230: e53d 89bd 23bd b03c ed55 9e3b a975 8cbb
00000240: d122 ac3d 5b5f c6bd 1f89 6bbd a020 c0bd
00000250: 1c93 e93d 194f 1fbd fe72 de3d ba9f b73b
00000260: 681c aa3d c0b2 dbbd 9867 053e 315a 683d
00000270: 9bd5 2a3d f665 fdbc 45cc 2dbd 70c4 123d
00000280: 8810 b63d 8035 81bd 0f73 f63a 5a3d 893d
00000290: 471e 7f3d e98d 7bbd 1dcb 89bc b7c8 4bbd
000002a0: 7330 d2bc c0ab dfbd 8800 c4bd b72d bebd
000002b0: 4da5 a43d e8f3 c1bd da90 3f3d 2916 b9bc
000002c0: ab92 b83d b6d8 5ebc d48e 513d f432 703c
000002d0: 8836 483d 619e 8c3d 9370 d8bd ebf7 f03c
000002e0: ccc8 d33d 6fe3 aabd 9d9a 1dbd ffa2 ca3c
000002f0: b80f 04be 5aa8 043e 3f7d 883d 8799 05be
00000300: 34b4 b9bd b232 e9bd 5da9 d63c e0ac d1bd
00000310: 3ef7 583d 39d0 7b3d f45e 0c3d a83f e23d
00000320: 963c 00be 6637 26bd c1b7 f0bd 26d2 7abd
00000330: d249 e43d 6a1f 9d3c 6b84 893d 402d 0e3d
00000340: 2a91 2a3d dbce b13d 1f89 9a3d 28f0 913d
00000350: 20bd 97bd ab18 3d3c c160 0d3e 1321 c1bc
00000360: 2b51 f6bd 028f 30bd d832 f43c 77d5 e33d
00000370: aac1 053e a1e5 1c3d 7391 5cbd 02aa f5bd
00000380: 8212 173d 68a0 ce3d 3dc7 c1bd 532e d33d
00000390: c1eb ddbd f0b2 d43c 2d78 743d a168 abbc
000003a0: b886 533d c3f2 1fbd 95ec ea3c 3050 923c
000003b0: 0a62 efbd 38b0 573d 220a d8bd 7aad ca3c
000003c0: ec00 60bd 3cb8 6ebd 7b65 1f3d 4e74 d0bd
000003d0: 2760 bfbc a710 a1bd 9adb dcbd 8b6a ffbd
000003e0: e7cb 9e3c d8af 143c 7787 ccbc 8ea6 263d
000003f0: d443 28bd 1797 db3b c9a6 13bd 59b1 d4bd

classifier.0.bias f4 [32]
0.026881205 -0.09691805 0.024259837 -0.054830305 0.005216439 0.085543536 0.10990575 -0.11975091
0.09521487 -0.005465674 -0.03667829 -0.07078228 -0.056283455 -0.12551741 0.045947142 0.07459603
0.005637268 -0.07767773 0.1363291 0.032395408 0.09669539 -0.024787044 0.072346814 0.05309439
0.17439671 0.024561364 0.03885994 -0.065226965 0.11075426 -0.119533576 -0.056928348 -0.09216218
00000000: f935 dc3c f87c c6bd 91bc c63c be95 60bd
00000010: a9ee aa3b 7331 af3d 4416 e13d f73f f5bd
00000020: 0400 c33d 6619 b3bb fa3b 16bd 4df6 90bd
00000030: 7b89 66bd a387 00be 1233 3c3d cec5 983d
00000040: d5b8 b83b 8015 9fbd db99 0b3e 0cb1 043d
00000050: 3c08 c63d 330e cbbc 912a 943d 8179 593d
00000060: 0d95 323e ea34 c93c 9a2b 1f3d b795 85bd
00000070: 21d3 e23d 05ce f4bd b32d 69bd 86bf bcbd

classifier.2.weight f4 [1, 32]
-0.09365892 -0.047105275 0.025629165 0.10740668 0.16066362 -0.053745896 0.1455809 -0.07581861
0.13598369 0.14434154 0.15202677 -0.087605625 -0.010851033 -0.022777611 -0.1747016 -0.19550662
0.09224707 0.07691966 -0.12332673 -0.002181567 -0.18227997 0.016623734 0.102046594 0.0020392817
-0.17594747 0.17119095 -0.07312864 -0.036994327 -0.0473806 -0.15998428 -0.08370471 0.048060406
00000000: 3fd0 bfbd 76f1 40bd 41f4 d13c 09f8 db3d
00000010: 0185 243e a824 5cbd 2913 153e ca46 9bbd
00000020: 4f3f 0b3e 45ce 133e e8ac 1b3e 946a b3bd
00000030: 88c8 31bc 1d98 babc fae4 32be e332 48be
00000040: 08ec bc3d 0e88 9d3d ba92 fcbd 9ff8 0ebb
00000050: 9aa7 3abe 7f2e 883c cefd d03d 78a5 053b
00000060: 932b 34be ae4c 2f3e 78c4 95bd 5d87 17bd
00000070: 2912 42bd ebd2 23be 606d abbd fdda 443d
