signals/MultiSignalClassifier_model3.pth (torch, 276839 bytes, 11 tensors)

shared_layer.0.weight f4 [128, 320]
-0.0029256823 -0.024587162 0.026597062 -0.034599796 0.024844587 -0.021521308 -0.024992093 0.016539166
0.015758803 -0.029856533 -0.03240031 -0.03359924 -0.06576677 -0.06578854 0.012476125 -0.010491519
-0.030845754 -0.035356846 -0.06898814 -0.018316258 -0.08299046 0.0041514523 -0.038214255 0.021603681
-0.033839416 -0.0038311384 0.010007984 -0.004756176 0.10898463 0.02767626 0.08524494 0.07340344
0.08933165 0.049364913 0.010687673 -0.008478321 -0.02252641 -0.018923081 -0.048939895 -0.032006476
-0.06403426 -0.04849659 -0.0249426 -0.0842442 -0.07422305 -0.09233189 -0.022825012 -0.02175691
-0.037003998 -0.027075242 0.021763192 -0.04328571 -0.011852719 0.09365318 0.029959546 0.025891287
-0.028730199 0.00025541137 -0.00711549 -0.09956547 -0.090934575 -0.12601452 -0.03405721 -0.10855849
-0.09042253 -0.012860057 -0.06669947 -0.034710836 0.024033573 0.05263878 0.05199179 0.045631673
0.03575381 0.03839608 0.1056135 0.025504988 0.08826409 0.042284004 0.0041201715 0.042354923
-0.042547002 -0.051180754 -0.05793166 -0.048110414 -0.05034854 -0.06573133 -0.025762971 -0.07378045
0.03703881 0.03441399 -0.014760783 0.070764564 0.12939349 0.13460457 0.074345574 0.0025805908
-0.06372099 -0.0400501 0.016377024 -0.037739027 -0.051605172 -0.043944262 0.012938354 -0.06168872
-0.034062095 0.032622293 -0.008774204 0.051808767 -0.039937425 -6.926711e-06 0.0410601 -0.030449644
0.022575656 0.0037625094 -0.040520083 -0.106897965 -0.020530429 -0.063745245 -0.025974803 0.031834476
0.00066111493 0.024365738 0.05129452 0.047411 0.03306573 0.033678584 -0.010296034 -0.013293794
-0.044514783 -0.052260723 -0.022501884 -0.028550703 0.05596157 0.027329335 0.008174636 -0.0051838267
0.034882005 -0.07282126 -0.07730982 -0.051508643 -0.15186098 -0.13871925 -0.1273357 -0.0738978
-0.07711855 -0.08226495 -0.06799756 -0.07962197 -0.108035244 -0.10591809 -0.067210265 -0.04417516
-0.015183154 -0.09156394 -0.088136554 -0.028674658 -0.03553227 -0.05560499 -0.029790072 0.023008652
-0.011881367 -0.01893926 -0.09533166 -0.13573876 -0.04783116 -0.12421483 -0.1387079 -0.09148129
-0.13195457 -0.108434565 -0.08656648 -0.11796553 -0.07805042 -0.029980969 -0.01383822 -0.045990683
-0.031513758 -0.023262631 -0.033162344 0.013449271 -0.009257572 -0.02261142 -0.041417994 -0.062941454
0.0012528896 -0.055399556 0.022135794 0.008882598 0.05262156 0.054289207 0.07876673 0.09158201
0.08918626 0.045063905 -0.022702243 0.03769079 0.040528845 0.05141608 0.089714825 0.15533379
0.14986186 0.047857083 0.056535326 0.0425976 0.051961895 -0.035222538 -0.031592544 0.0089902915
-0.016417611 -0.022355407 -0.11026448 -0.08897122 -0.060741995 -0.01970949 -0.082787305 -0.09023643
0.0008691832 -0.072524026 0.011818378 0.03032443 0.025926013 0.0186435 -0.02991558 -0.06580106
0.069797926 -0.022403764 0.005734472 -0.011304355 -0.0692796 -0.11489881 -0.08434857 -0.106641084
-0.049368743 -0.12378781 -0.073529534 -0.03298783 -0.018809816 -0.14458379 -0.017751945 -0.017423276
-0.067685515 -0.15970686 -0.15763484 -0.11532399 -0.10963068 -0.22685868 -0.15510279 -0.10510123
-0.19892788 -0.18282387 -0.08110806 -0.056843523 -0.009682741 -0.022486413 -0.08358276 -0.10518493
00000000: cebc 3fbb 046b c9bc 15e2 d93c 84b8 0dbd
00000010: e086 cb3c 744d b0bc 38bc ccbc 257d 873c
00000020: 9b18 813c b095 f4bc 30b6 04bd 5b9f 09bd
00000030: bab0 86bd 24bc 86bd a968 4c3c 9fe4 2bbc
00000040: 3cb0 fcbc 57d2 10bd a749 8dbd fa0b 96bc
00000050: e7f6 a9bd e808 883b 8d86 1cbd 34fa b03c
00000060: 339b 0abd d613 7bbb 87f8 233c b2d9 9bbb
00000070: 5533 df3d 53b9 e23c e694 ae3d 8b54 963d
00000080: 83f3 b63d dd32 4a3d 5a1b 2f3c a8e8 0abc
00000090: 4e89 b8bc 9404 9bbc 3375 48bd 3919 03bd
000000a0: 6524 83bd 5ca4 46bd 6c54 ccbc 3988 acbd
000000b0: 4102 98bd 8018 bdbd 85fb babc 8c3b b2bc
000000c0: 8191 17bd e6cc ddbc b948 b23c 5b4c 31bd
000000d0: e831 42bc 3dcd bf3d b96d f53c f719 d43c
000000e0: 985b ebbc bce8 8539 0e29 e9bb fbe8 cbbd
000000f0: e83b babd f309 01be 937f 0bbd ea53 debd
00000100: 732f b9bd fdb2 52bc bb99 88bd f32c 0ebd
00000110: 0ee2 c43c c39b 573d 58f5 543d 47e8 3a3d
00000120: 9672 123d 3545 1d3d e44b d83d d6ef d03c
00000130: cec3 b43d fe31 2d3d 8102 873b 5b7c 2d3d
00000140: c445 2ebd e9a2 51bd c049 6dbd 6d0f 45bd
00000150: 453a 4ebd 269e 86bd de0c d3bc 341a 97bd
00000160: 02b6 173d aff5 0c3d 36d7 71bc 03ed 903d
00000170: ba7f 043e c8d5 093e 7e42 983d 211f 293b
00000180: 2780 82bd 930b 24bd 1c29 863c 3d94 1abd
00000190: f25f 53bd e6fe 33bd 64fb 533c 50ad 7cbd
000001a0: b284 0bbd f49e 053d aec1 0fbc 6e35 543d
000001b0: 6d95 23bd ff6b e8b6 a32e 283d 8871 f9bc
000001c0: 95f0 b83c 6f94 763b 63f8 25bd 52ed dabd
000001d0: 6e2f a8bc de8c 82bd 1cc9 d4bc de64 023d
000001e0: ac4e 2d3a a89a c73c 341a 523d 0932 423d
000001f0: ee6f 073d 8ef2 093d b2b0 28bc 37ce 59bc
00000200: 2255 36bd 570f 56bd df55 b8bc 2ae3 e9bc
00000210: f637 653d c5e1 df3c e9ee 053c 17dd a9bb
00000220: 6fe0 0e3d 5023 95bd 9c54 9ebd bafa 52bd
00000230: 7281 1bbe 6b0c 0ebe 4a64 02be bb57 97bd
00000240: 55f0 9dbd 877a a8bd 4e42 8bbd d810 a3bd
00000250: 9541 ddbd 95eb d8bd 89a5 89bd 03f1 34bd
00000260: c3c2 78bc e085 bbbd f080 b4bd 1ee7 eabc
00000270: 498a 11bd 0fc2 63bd 4f0a f4bc a47c bc3c
00000280: 11aa 42bc 8226 9bbc 3f3d c3bd 1aff 0abe
00000290: 9bea 43bd 5864 febd 7209 0ebe 8b5a bbbd
000002a0: 191f 07be f112 debd c449 b1bd e997 f1bd
000002b0: e6d8 9fbd a69a f5bc b4b9 62bc ba60 3cbd
000002c0: 9214 01bd 4691 bebc 3dd5 07bd 555a 5c3c
000002d0: 12ad 17bc 963b b9bc eaa5 29bd 73e7 80bd
000002e0: 0038 a43a a5ea 62bd 2056 b53c 5188 113c
000002f0: b489 573d 5c5e 5e3d 7450 a13d 598f bb3d
00000300: 49a7 b63d ee94 383d 0efa b9bc a861 1a3d
00000310: 9301 263d ab99 523d 68bc b73d d20f 1f3e
00000320: 6375 193e ca05 443d 9691 673d d27a 2e3d
00000330: ffd5 543d 8245 10bd 2f67 01bd 044c 133c
00000340: 3a7e 86bc b022 b7bc 58d2 e1bd 8b36 b6bd
00000350: 99cc 78bd cc75 a1bc 648c a9bd e1cd b8bd
00000360: e6d9 633a 7a87 94bd dfa1 413c f06a f83c
00000370: ca62 d43c 41ba 983c 8511 f5bc b5c2 86bd
00000380: 37f2 8e3d 1988 b7bc 3de8 bb3b e735 39bc
00000390: 77e2 8dbd 1150 ebbd f1be acbd a466 dabd
000003a0: e136 4abd 7784 fdbd a796 96bd 3f1e 07bd
000003b0: 0b17 9abc c60d 14be 876c 91bc 42bb 8ebc
000003c0: b49e 8abd 328a 23be 076b 21be fc2e ecbd
000003d0: 0d86 e0bd a44d 68be 44d3 1ebe 503f d7bd
000003e0: c0b3 4bbe 2e36 3bbe fc1b a6bd c1d4 68bd
000003f0: 5ca4 1ebc 6d35 b8bc 702d abbd 326b d7bd

shared_layer.0.bias f4 [128]
0.071664706 0.07179534 0.16601391 0.067638844 -0.04288743 -0.051306017 -0.049997665 0.09582784
-0.002800298 0.039599787 -0.04391747 0.12843072 0.15367539 0.19244668 0.11429565 0.19015488
-0.030838866 -0.0045626727 -0.005545687 -0.05608507 0.02871927 0.11268998 0.07839908 0.13558567
0.17227475 0.09461225 -0.0029873326 0.031869125 -0.04849834 0.00050438027 -0.015896497 -0.012658183
0.044572137 -0.055148985 -0.062467456 -0.019076424 -0.034681976 0.07540864 0.10854478 0.077468276
-0.05974636 0.23979035 0.12334103 0.10321101 -0.061762568 -0.05192764 0.0020279274 -0.0065501565
0.014278001 0.017767332 0.114003465 0.14195335 0.14656904 -0.049588613 0.03486915 0.06180766
0.17637248 0.20478442 -0.006296828 0.011697906 -0.009278957 -0.030922927 0.1738205 -0.04239052
0.11580734 -0.0035067648 -0.032435734 0.13157393 0.11023808 0.19989544 0.13577656 -0.015988268
0.010871681 0.058326047 0.10271133 -0.042354204 -0.011944197 0.22500445 0.16921958 0.0625802
-0.051312003 0.11972938 -0.024001502 0.00912695 0.14577013 0.06327633 -0.00039888392 0.16784
-0.031106934 -0.028138805 0.22447902 -0.046140805 -0.04975751 0.10915348 0.030941004 0.16856012
-0.0067121065 0.14637245 0.011176991 0.021505328 0.052369103 -0.023555622 0.12251392 0.0108430395
0.124584556 -0.046771728 -0.05179062 0.05107752 -0.017872086 -0.03627449 0.057972018 -0.04737141
-0.055288184 -0.06753937 -0.00531694 0.14122647 -0.07260473 -0.04160541 -0.021592127 0.031108629
-0.047729947 0.19173263 -0.04949974 -0.021160016 0.058522675 0.2061804 -0.02102141 0.016643617
00000000: f2c4 923d 6f09 933d 8dff 293e 3c86 8a3d
00000010: bbaa 2fbd 4226 52bd 5aca 4cbd 6341 c43d
00000020: 3485 37bb 6333 223d cee2 33bd 5883 033e
00000030: 155d 1d3e be10 453e d613 ea3d f6b7 423e
00000040: caa1 fcbc 7982 95bb 98b8 b5bb 75b9 65bd
00000050: ad44 eb3c 01ca e63d b28f a03d f8d6 0a3e
00000060: cb68 303e 11c4 c13d 20c7 43bb 3389 023d
00000070: 32a6 46bd 6338 043a 5f39 82bc 4564 4fbc
00000080: 4691 363d e7e3 61bd e0dd 7fbd 2946 9cbc
00000090: b00e 0ebd d86f 9a3d ba4c de3d b0a7 9e3d
000000a0: 99b8 74bd 9a8b 753e 399a fc3d 4b60 d33d
000000b0: bffa 7cbd 14b2 54bd fae6 043b b2a2 d6bb
000000c0: 47ee 693c cc8c 913c a67a e93d 385c 113e
000000d0: 3216 163e 6e1d 4bbd f4d2 0e3d 072a 7d3d
000000e0: fd9a 343e 02b3 513e 9f55 cebb 93a8 3f3c
000000f0: c406 18bc 1452 fdbc 00fe 313e afa1 2dbd
00000100: 662c ed3d c0d1 65bb 55db 04bd 51bb 063e
00000110: 81c4 e13d 64b1 4c3e 0309 0b3e d4f9 82bc
00000120: 231f 323c 4be7 6e3d 515a d23d 9a7b 2dbd
00000130: 98b1 43bc 9167 663e e647 2d3e 0c2a 803d
00000140: 892c 52bd ad34 f53d cc9e c4bc 3489 153c
00000150: c444 153e 0597 813d 4b21 d1b9 40de 2b3e
00000160: f8d3 febc 5a83 e6bc d4dd 653e 24fe 3cbd
00000170: 88ce 4bbd dc8b df3d fd77 fd3c 069b 2c3e
00000180: 3bf1 dbbb a9e2 153e b31f 373c f12b b03c
00000190: fc80 563d b8f7 c0bc 94e8 fa3d 01a7 313c
000001a0: 3026 ff3d b693 3fbd 6722 54bd a936 513d
000001b0: 7b68 92bc 8f94 14bd 1174 6d3d 8608 42bd
000001c0: dd75 62bd 1552 8abd ba39 aebb ac9d 103e
000001d0: cab1 94bd 6f6a 2abd f9e1 b0bc 86d7 fe3c
000001e0: 7a80 43bd 8f55 443e 3dc0 4abd c557 adbc
000001f0: 79b5 6f3d f420 533e 1835 acbc 3258 883c

shared_layer.2.weight f4 [64, 128]
-0.07734817 0.045070585 0.0081063695 -0.1238198 -0.0431701 -0.07390989 0.06629547 0.05657298
0.0247726 0.013794832 0.042927034 -0.05516045 -0.027134473 -0.071820326 -0.13581552 0.0023271888
-0.1352731 -0.064876296 -0.0667083 -0.057048086 -0.0020290464 -0.08101992 -0.040551987 -0.09764927
-0.08218737 0.03785949 0.062174983 -0.06778705 0.0030686557 -0.09954529 0.085573606 -0.012871437
-0.10047787 0.026557848 -0.04491956 0.049623676 0.021862336 -0.055259235 -0.0053223073 -0.029380774
-0.036909226 -0.0510399 -0.10033215 -0.04841129 -0.06880764 0.017656654 0.0126263425 0.010979269
-0.0016319084 -0.039942294 -0.07465045 -0.078075096 -0.060436707 -0.06847619 -0.015805615 0.020841481
0.07954993 -0.018400347 -0.10927536 -0.044975027 0.08538499 -0.17077227 0.0076334407 0.083812825
-0.05960932 0.030275911 0.087004535 -0.0032010903 -0.09408968 0.06896541 -0.09266541 0.028127097
-0.0120519325 0.06202338 -0.0867655 0.031644665 -0.06974274 -0.06482671 -0.08218071 0.02205018
-0.0762949 -0.055530775 0.007702389 -0.07603763 0.026715241 0.05757364 -0.08553369 0.0012627037
-0.0859774 0.0036174133 -0.0122032305 0.05930417 0.003026858 -0.0620565 0.02374644 -0.04602007
0.0072346404 -0.035785265 -0.020653136 -0.10251947 -0.059444502 -0.05663391 -0.10823975 0.04777547
-0.04583002 0.036509484 -0.025955271 -0.054879207 -0.029274926 -0.018716287 -0.018339302 0.015720697
0.004307471 0.04160375 -0.05477962 -0.0553765 0.06641922 0.02564425 0.03827516 -0.024409609
0.083155625 -0.038211767 0.042263873 0.05843603 -0.084758066 0.06001463 -0.028162979 0.04466074
0.06463851 0.012032982 0.028139545 -0.042067926 -0.016374633 -0.05951269 -0.0589324 0.042928122
-0.087850735 -0.0025827987 -0.075638555 -0.020807616 -0.08475499 0.008924425 0.005906783 0.010733301
0.050972044 0.085135765 0.06687377 -0.06904279 0.0033042317 -0.08665032 -0.07927528 0.024492195
-0.045708366 0.041787826 0.063334085 0.02633629 0.07857927 0.04030597 -0.06423523 0.026746087
-0.008519967 -0.057431202 -0.021045461 -0.01642444 -0.008391134 -0.023465604 -0.05478371 -0.04744148
0.06286048 -0.06976754 -0.07874742 -0.10189668 0.08466386 -0.022443548 0.0213819 -0.03933739
0.014923138 -0.026728362 -0.02980855 -0.017062636 -0.064177245 -0.0035839155 -0.02427258 -0.023406096
0.04026525 0.016044736 -0.053088974 -0.08159899 0.02858515 -0.043871064 -0.09798741 0.035674863
-0.09415497 -0.03132123 -0.06999532 -0.08360042 0.008199854 -0.021390587 0.05020795 -0.06017908
0.043401428 -0.07718382 0.021768838 0.04862813 -0.029568668 -0.034788672 -0.03900214 0.027440488
-0.08711762 -0.058217663 0.044521376 0.017782733 0.06823125 0.064565495 -0.017095929 0.023768205
0.014875613 0.02401936 0.05525487 -0.060229123 0.04816229 -0.0057599624 -0.043808155 0.018483948
0.02094776 0.034707025 0.017959416 -0.01864987 -0.052368607 0.031429045 -0.015419718 -0.045262806
-0.08739485 7.326901e-05 -0.08546266 -0.016990382 0.030772053 -0.018083937 -0.057227578 -0.096485935
-0.032489065 -0.049137563 -0.022357881 0.070066266 -0.06786297 -0.013492979 0.045574374 -0.031139579
-0.082157806 -0.07179444 0.06489124 0.06470866 -0.08984178 0.022570573 0.07213869 0.03940428
00000000: b868 9ebd ef9b 383d 94d0 043c 3c95 fdbd
00000010: 21d3 30bd 125e 97bd ebc5 873d 12b9 673d
00000020: e8ef ca3c b803 623c 42d4 2f3d edef 61bd
00000030: 1d49 debc 8916 93bd 3913 0bbe c083 183b
00000040: 0885 0abe dddd 84bd 5c9e 88bd 41ab 69bd
00000050: c0f9 04bb c6ed a5bd d719 26bd 57fc c7bd
00000060: da51 a8bd 8d12 1b3d 32ab 7e3d f0d3 8abd
00000070: 801b 493b 67de cbbd 3741 af3d b8e2 52bc
00000080: 57c7 cdbd d88f d93c 93fd 37bd 3242 4b3d
00000090: a418 b33c 8257 62bd c066 aebb f3af f0bc
000000a0: 212e 17bd 370f 51bd f17a cdbd eb4a 46bd
000000b0: 05eb 8cbd b0a4 903c b8de 4e3c 64e2 333c
000000c0: c2e5 d5ba 889a 23bd 56e2 98bd d6e5 9fbd
000000d0: 7b8c 77bd 3f3d 8cbd c77a 81bc c1bb aa3c
000000e0: 13eb a23d 53bc 96bc c3cb dfbd bc37 38bd
000000f0: 53de ae3d edde 2ebe f121 fa3b 0fa6 ab3d
00000100: e728 74bd 3005 f83c 6f2f b23d 62c9 51bb
00000110: 17b2 c0bd bd3d 8d3d 5dc7 bdbd cc6a e63c
00000120: 7875 45bc 3a0c 7e3d 1cb2 b1bd d69d 013d
00000130: 48d5 8ebd dec3 84bd 5c4e a8bd 94a2 b43c
00000140: 8040 9cbd 3d74 63bd 5264 fc3b 9eb9 9bbd
00000150: ecd9 da3c 56d2 6b3d 4a2c afbd 4e81 a53a
00000160: eb14 b0bd 2012 6d3b 0ff0 47bc eee8 723d
00000170: 405e 463b f52e 7ebd e587 c23c 8a7f 3cbd
00000180: 9010 ed3b 9293 12bd c430 a9bc baf5 d1bd
00000190: 147c 73bd f5f8 67bd cdac ddbd 36b0 433d
000001a0: 42b8 3bbd f88a 153d 26a0 d4bc 05c9 60bd
000001b0: f8d1 efbc e652 99bc 4e3c 96bc b1c8 803c
000001c0: b025 8d3b b268 2a3d 9860 60bd 78d2 62bd
000001d0: cd06 883d e413 d23c 6ac6 1c3d a9f6 c7bc
000001e0: 7f4d aa3d f183 1cbd e21c 2d3d 9e5a 6f3d
000001f0: a395 adbd e7d1 753d 0cb6 e6bc 2eee 363d
00000200: 3261 843d fc25 453c e784 e63c 6b4f 2cbd
00000210: 1824 86bc 94c3 73bd 1a63 71bd 66d5 2f3d
00000220: 16eb b3bd 2c44 29bb 63e8 9abd bc74 aabc
00000230: 0694 adbd c037 123c b08d c13b bada 2f3c
00000240: 10c8 503d a95b ae3d 1df5 883d 4e66 8dbd
00000250: cf8b 583b b975 b1bd 145b a2bd dba3 c83c
00000260: b238 3bbd b629 2b3d 4db5 813d 34bf d73c
00000270: 2bee a03d df17 253d c38d 83bd 9c1a db3c
00000280: 5597 0bbc fb3c 6bbd 8867 acbc 8c8c 86bc
00000290: f87a 09bc f03a c0bc e264 60bd ff51 42bd
000002a0: ffbc 803d 49e2 8ebd 5446 a1bd 35af d0bd
000002b0: 3f64 ad3d 88db b7bc 1829 af3c 3e20 21bd
000002c0: 2d80 743c 70f5 dabc 0f31 f4bc f1c6 8bbc
000002d0: 5c6f 83bd 20e0 6abb 4ad7 c6bc 24be bfbc
000002e0: 2ded 243d 4070 833c d373 59bd 5f1d a7bd
000002f0: 682b ea3c 25b2 33bd a0ad c8bd ce1f 123d
00000300: 52d4 c0bd b14a 00bd b559 8fbd b236 abbd
00000310: ae58 063c 503b afbc daa6 4d3d 577e 76bd
00000320: b2c5 313d 8d12 9ebd 9054 b23c 4a2e 473d
00000330: fe39 f2bc 917e 0ebd b5c0 1fbd e0ca e03c
00000340: b96a b2bd a575 6ebd 0c5c 363d 18ad 913c
00000350: d3bc 8b3d ea3a 843d c30c 8cbc 8ab5 c23c
00000360: d8b8 733c 40c4 c43c ee52 623d d0b2 76bd
00000370: d245 453d 11be bcbb 2e70 33bd a66b 973c
00000380: a39a ab3c f428 0e3d a01f 933c 9dc7 98bc
00000390: 7780 56bd bebb 003d fca2 7cbc 7e65 39bd
000003a0: 12fc b2bd 00a8 9938 0c07 afbd 6a2f 8bbc
000003b0: ac15 fc3c c424 94bc 7767 6abd 6b9a c5bd
000003c0: 4113 05bd 7844 49bd e027 b7bc e77e 8f3d
000003d0: befb 8abd a811 5dbc 32ac 3a3d 6e18 ffbc
000003e0: 5a42 a8bd f708 93bd b3e5 843d f985 843d
000003f0: f8fe b7bd ece5 b83c 73bd 933d 6266 213d

shared_layer.2.bias f4 [64]
-0.022097198 -0.07064048 0.09852741 0.1400657 -0.031819362 -0.08440037 0.14238285 0.13124397
0.11914652 0.029987523 0.14404522 0.105633736 0.15357313 -0.13397615 0.1804554 0.06062708
0.057933204 -0.026387205 0.13601506 0.14684932 0.03641709 0.20159967 -0.004780437 0.050364673
0.20515747 0.1406971 -0.031419776 -0.045745637 0.008751664 0.0042066737 -0.072698444 0.033874836
0.07864241 0.04177018 -0.029885594 0.1449101 0.052017894 -0.008271117 0.16738099 -0.07893993
0.11899979 -0.019114744 0.1376636 0.15425141 0.15660414 -0.049502827 0.11153804 -0.034288794
-0.095553316 0.12041762 0.12489877 -0.095266074 -0.00030042816 -0.057527676 0.19214638 0.007450826
-0.035033587 0.002492761 -0.13321319 -0.0806524 0.18005142 0.17117353 0.12596628 -0.051871594
00000000: 2f05 b5bc f5ab 90bd bdc8 c93d 626d 0f3e
00000010: 0555 02bd 1ada acbd cfcc 113e d264 063e
00000020: 1703 f43d 65a8 f53c 9780 133e 8056 d83d
00000030: 4642 1d3e 0b31 09be 4dc9 383e 1a54 783d
00000040: 5e4b 6d3d fb29 d8bc 8847 0b3e ab5f 163e
00000050: 162a 153d 2570 4e3e 36a5 9cbb 304b 4e3d
00000060: cd14 523e e712 103e 06b2 00bd c75f 3bbd
00000070: 2463 0f3c 23d8 893b ece2 94bd 57c0 0a3d
00000080: 460f a13d 3517 2b3d a2d2 f4bc 5063 143e
00000090: b710 553d 9483 07bc ec65 2b3e 42ab a1bd
000000a0: 29b6 f33d 8696 9cbc b0f7 0c3e 15f4 1d3e
000000b0: d65c 203e 7ac3 4abd 0e6e e43d 6872 0cbd
000000c0: 75b1 c3bd 839d f63d edca ff3d dc1a c3bd
000000d0: c982 9db9 24a2 6bbd 05c2 443e 0f26 f43b
000000e0: 617f 0fbd 975d 233b 0a69 08be 162d a5bd
000000f0: 665f 383e 1d48 2f3e 4efd 003e 4f77 54bd

attention.in_proj_weight f4 [192, 64]
-0.05875511 0.04450596 -0.056098763 0.09780592 -0.10958524 0.0446533 0.05308331 -0.19014414
-0.017379468 -0.07836606 -0.08254723 -0.77826893 0.049165066 -0.06572893 0.16796254 -0.088792056
-0.03167058 0.01580291 0.08341123 0.198579 -0.29517746 0.010369133 0.05176645 0.06289903
0.17164633 0.22576483 -0.12129459 0.026459007 0.20656498 -0.10246476 -0.12013326 -0.022241032
-0.16184884 -0.005583108 0.056402486 -0.052303214 0.13952942 -0.14245722 0.085857905 -0.06841337
-0.15984493 0.14622894 0.043014064 -0.07093476 -0.121970154 0.12416859 0.003556397 -0.035717085
-0.10837477 0.05534604 0.22153859 -0.065049924 0.060880326 -0.08712712 -0.08629464 0.032244407
-0.11105545 0.08206882 -0.006272584 0.018495653 0.07627272 -0.15788847 0.056438953 0.007219164
-0.056050517 -0.009237201 0.15294948 0.01169671 0.04080174 0.07957423 -0.12975697 0.06766489
-0.078356594 -0.12662718 -0.028455392 0.75831604 -0.124341324 0.01556094 0.02294993 0.15487258
0.18701212 0.043646894 -0.1284678 0.021719832 0.14913954 0.041650992 0.024436185 -0.24006028
0.0350407 -0.016587025 0.17563747 0.0045092343 0.03760369 0.046668533 0.036927935 0.14708921
0.06740503 0.06809081 -0.134706 -0.10542013 -0.12157955 0.013860644 -0.016263627 -0.118265495
0.053134985 -0.16166857 -0.18659255 -0.12732284 -0.027078234 -0.019863332 -0.2200425 -0.021261714
-0.06299611 -0.22094299 -0.109265104 0.09572318 0.07868835 0.12349809 0.012890343 0.14650333
0.20299388 -0.112266004 -0.08288783 0.04107625 -0.11869726 0.16780025 -0.15208276 -0.0968774
-0.028825063 -0.06393903 0.07975038 -0.10468394 0.08094556 0.10939543 -0.08763287 0.222647
0.022982253 -0.03919346 0.16052644 0.36993054 -0.0076022344 0.09772723 0.10582363 0.19017863
0.42270386 -0.09051797 -0.009096058 -0.15689209 0.021997713 -0.058429495 0.07474459 -0.110288225
0.08166336 -0.15241936 -0.011969604 0.023705397 -0.18269008 0.37275252 -0.13139464 0.15941352
-0.06026206 0.33351222 0.08191944 -0.029702092 -0.064397335 -0.114264086 -0.122181915 0.0009556265
-0.052106578 -0.12004518 -0.14679326 -0.06751746 -0.10223253 -0.025363138 0.0082412865 -0.11335782
-0.14100528 -0.2380016 0.0055976836 -0.109985076 0.051374897 0.0036870963 0.033976957 -0.042801645
0.038317543 -0.13428307 0.10387578 0.16467941 -0.094963945 0.32393897 0.15366942 -0.101343855
-0.1536338 0.08575928 -0.13511807 0.18751965 -0.09614248 -0.08521506 0.12347203 -0.054302145
0.21480069 0.15880789 0.15921684 -0.96227384 0.12910688 -0.046571318 0.19799921 -0.1325775
0.071442 0.04980391 0.08358141 0.26493177 -0.27544242 -0.040431827 0.07893677 0.019787025
0.0048083793 0.14544497 -0.27689266 -0.023692561 0.077307306 0.00016524133 -0.0019535313 -0.16957936
-0.022333156 -0.15456668 0.14759721 -0.07001386 0.20151004 0.10499741 0.06968211 -0.07895339
0.082493626 0.04871731 0.034786813 -0.05655266 0.08477488 -0.10253404 0.14577928 -0.03745055
0.12071432 0.010165198 0.04317434 0.08735129 -0.065012746 0.038753003 -0.0439188 -0.07480934
-0.16765127 0.062259335 0.081883006 0.016652573 -0.0043013794 -0.041509353 -0.037893396 0.027672805
00000000: 33a9 70bd e24b 363d d1c7 65bd 784e c83d
00000010: 3a6e e0bd 61e6 363d e36d 593d 25b5 42be
00000020: 635f 8ebc 637e a0bd 860e a9bd a23c 47bf
00000030: 4f61 493d e49c 86bd 5ffe 2b3e 9cd8 b5bd
00000040: 03b9 01bd 1b75 813c 82d3 aa3d 4b58 4b3e
00000050: 8021 97be 4ce3 293c 0f09 543d 35d1 803d
00000060: 0ec4 2f3e e52e 673e 4c69 f8bd 8fc0 d83c
00000070: c585 533e 0bd9 d1bd 6d08 f6bd d332 b6bc
00000080: b4bb 25be 81f2 b6bb 4b06 673d e53b 56bd
00000090: cde0 0e3e 4ee0 11be 45d6 af3d 4f1c 8cbd
000000a0: 64ae 23be 0abd 153e 842f 303d 3e46 91bd
000000b0: 7dcb f9bd 1a4c fe3d 7112 693b 144c 12bd
000000c0: 97f3 ddbd 87b2 623d 03db 623e e538 85bd
000000d0: a65d 793d b46f b2bd 3fbb b0bd b612 043d
000000e0: 0a71 e3bd b313 a83d 408a cdbb 3284 973c
000000f0: df34 9c3d 84ad 21be 882c 673d bd8e ec3b
00000100: 3a95 65bd a157 17bc ca9e 1c3e 8fa3 3f3c
00000110: ba1f 273d d0f7 a23d 03df 04be e493 8a3d
00000120: 6c79 a0bd 8eaa 01be 481b e9bc 0021 423f
00000130: aaa6 febd 50f3 7e3c 7e01 bc3c eb96 1e3e
00000140: 1b80 3f3e 16c7 323d 108d 03be caed b13c
00000150: 09b8 183e 3b9a 2a3d 652e c83c 5dd2 75be
00000160: d686 0f3d 83e1 87bc 4fda 333e 33c2 933b
00000170: 5406 1a3d 8127 3f3d bf41 173d 8e9e 163e
00000180: a60b 8a3d 3273 8b3d 5ff0 09be 82e6 d7bd
00000190: b3fe f8bd c117 633c 4c3b 85bc 2e35 f2bd
000001a0: 12a4 593d 728c 25be 1e12 3fbe eb60 02be
000001b0: 2cd3 ddbc 6db8 a2bc d252 61be 0c2d aebc
000001c0: 1b04 81bd e13e 62be 62c6 dfbd 840a c43d
000001d0: 5c27 a13d 91ec fc3d 0432 533c f804 163e
000001e0: a1dd 4f3e b8eb e5bd 18c1 a9bd 923f 283d
000001f0: 8d17 f3bd d4d3 2b3e 95bb 1bbe a967 c6bd
00000200: 8a22 ecbc 77f2 82bd 2b54 a33d 8964 d6bd
00000210: c9c6 a53d b60a e03d dd78 b3bd 93fd 633e
00000220: 4745 bc3c 5289 20bd 0b61 243e 8967 bd3e
00000230: 2a1c f9bb 3725 c83d 0fba d83d 30be 423e
00000240: a46c d83e 7c61 b9bd a207 15bc 52a8 20be
00000250: 8c34 b43c c453 6fbd b113 993d cbde e1bd
00000260: 1f3f a73d d213 1cbe 281c 44bc d231 c23c
00000270: 1c13 3bbe 6bd9 be3e 518c 06be 4c3d 233e
00000280: 5ad5 76bd 1dc2 aa3e 61c5 a73d cd51 f3bc
00000290: c0e2 83bd 4a03 eabd 833a fabd 0283 7a3a
000002a0: b56d 55bd 3fda f5bd f950 16be 9846 8abd
000002b0: 4a5f d1bd 5bc6 cfbc 7606 073c 2528 e8bd
000002c0: b063 10be b1b6 73be c66c b73b db3f e1bd
000002d0: 7c6e 523d 36a3 713b 6c2b 0b3d c750 2fbd
000002e0: dbf2 1c3d 8081 09be d3bc d43d b8a1 283e
000002f0: 757c c2bd 54db a53e 845b 1d3e 5e8d cfbd
00000300: 2e52 1dbe 90a2 af3d 645c 0abe 2705 403e
00000310: 59e6 c4bd 3c85 aebd e7de fc3d ed6b 5ebd
00000320: b6f4 5b3e 899e 223e bd09 233e 9457 76bf
00000330: 9834 043e 91c1 3ebd 4ec0 4a3e 65c2 07be
00000340: 2f50 923d 2fff 4b3d bb2c ab3d 23a5 873e
00000350: ca06 8dbe d89b 25bd 9aa9 a13d 6618 a23c
00000360: 9c8f 9d3b 87ef 143e e0c4 8dbe e716 c2bc
00000370: 4b53 9e3d a244 2d39 d106 00bb 36a6 2dbe
00000380: 06f4 b6bc ba46 1ebe b923 173e 6d63 8fbd
00000390: a658 4e3e e208 d73d 7eb5 8e3d 51b2 a1bd
000003a0: 6bf2 a83d cd8b 473d 9e7c 0e3d c3a3 67bd
000003b0: 749e ad3d 5efd d1bd 2a47 153e bf65 19bd
000003c0: 1239 f73d ee8b 263c 94d7 303d 3ce5 b23d
000003d0: 6725 85bd 78bb 1e3d 33e4 33bd a435 99bd
000003e0: c6ac 2bbe a503 7f3d 47b2 a73d fa6a 883c
000003f0: 96f2 8cbb b605 2abd 1b36 1bbd 14b2 e23c

attention.in_proj_bias f4 [192]
0.06266573 -0.0024017547 0.0049076793 0.17896467 -0.1625611 -0.016016586 0.11130575 -0.18596016
-0.02202897 0.11757516 0.06210665 -0.005730024 -0.022813298 -0.019007072 0.25805753 -0.06204639
0.06749611 0.2922182 -0.25338337 0.18275945 0.3865678 0.09694395 -0.0428679 -0.0916616
-0.18430743 0.08973793 -0.10763853 0.069683135 0.03630059 -0.20707187 0.2566769 0.08139799
-0.16799033 0.16784368 -0.19840184 -0.2432383 -0.16800486 0.3097746 -0.16477685 0.07583651
-0.024087276 0.20638238 0.29666364 0.102857254 -0.111791514 -0.16881703 -0.3111774 -0.13246952
-0.25180098 -0.19782732 0.3840308 -0.2321936 -0.425356 0.23375323 0.40770638 -0.3715823
0.4087441 0.42034134 -0.34854552 0.231474 0.16615433 -0.40452167 -0.3653882 0.46319738
0.0005086241 -0.001393337 -0.004587657 -0.0007295361 -0.0046425816 -0.005758696 -0.0024812766 0.00088158116
0.003763569 -0.0033552065 -0.0034014108 0.0044072797 -0.0035295358 -0.0036334472 0.00045057555 0.0034447396
-0.004584533 0.013259075 -0.009448784 0.01291637 0.019174617 -0.00493196 0.004368697 0.0065598884
0.008525599 -0.005229935 0.0012341876 -0.005066114 -0.004503322 0.008510832 0.0054043406 0.003516801
0.00044899844 -0.0005919686 0.0006368798 0.0008817822 -0.00059158885 0.0015749657 0.0003646198 -0.0003749364
-0.00088002754 0.00086303474 0.0013161472 -0.0002715801 0.0003375157 -0.0014036493 -0.0015457035 0.00024060138
-0.0044069467 -0.00073153805 0.0026858402 0.00011210436 -0.001815243 -0.00031974228 0.0052151633 -0.0007501219
0.004134669 0.0054655285 -0.00017981313 0.00038562357 -0.0010444114 -0.003321162 0.0008888871 0.008827901
0.033403162 -0.032250028 -0.032119986 -0.016304048 0.023418114 0.019686587 0.028519962 0.04350009
-0.033794995 -0.02754372 -0.02226333 -0.0453783 0.0137482425 -0.010137666 -0.029011603 -0.050213035
0.04069014 0.04444452 0.03900947 -0.03694115 -0.049017303 -0.038903322 0.022002894 -0.037749328
-0.04370191 0.04644223 0.03696802 -0.025269648 -0.07845241 -0.023657922 0.04119311 -0.054088157
0.053328216 0.016324073 0.036788527 -0.040049482 -0.025232611 -0.050218567 -0.041432645 -0.036571175
-0.07694694 -0.050779793 0.031070648 -0.031600717 0.042861547 -0.031951517 -0.01492047 -0.011517451
-0.038393483 0.06672823 -0.06946733 0.052220766 -0.055081148 0.03480629 -0.053020064 0.03520161
-0.040001962 -0.061104648 0.06543059 -0.07220082 -0.060181424 -0.022046069 0.035304923 -0.06895299
00000000: e456 803d c266 1dbb 99d0 a03b 8442 373e
00000010: 6b76 26be 3735 83bc 45f4 e33d 576c 3ebe
00000020: 1976 b4bc 3fcb f03d 8b63 7e3d edc2 bbbb
00000030: f4e2 babc b8b4 9bbc 1e20 843e 5b24 7ebd
00000040: 673b 8a3d a09d 953e 77bb 81be 4b25 3b3e
00000050: 37ec c53e 8d8a c63d 4096 2fbd 14b9 bbbd
00000060: 16bb 3cbe 85c8 b73d 9771 dcbd 08b6 8e3d
00000070: edaf 143d a60a 54be 286b 833e fdb3 a63d
00000080: a805 2cbe 37df 2b3e da29 4bbe 7613 79be
00000090: 7709 2cbe c79a 9e3e 43bb 28be 2c50 9b3d
000000a0: ae52 c5bc e755 533e 4ce4 973e d3a6 d23d
000000b0: f3f2 e4bd 5fde 2cbe a552 9fbe 17a6 07be
000000c0: 0fec 80be 3f93 4abe af9f c43e 29c4 6dbe
000000d0: 43c8 d9be 025d 6f3e e4be d03e 0940 bebe
000000e0: e846 d13e fb36 d73e 8f74 b2be 8507 6d3e
000000f0: 5c24 2a3e 771d cfbe 2a14 bbbe 3528 ed3e
00000100: 3055 053a a2a0 b6ba 0e54 96bb 573e 3fba
00000110: cc20 98bb 71b3 bcbb ea9c 22bb e919 673a
00000120: 36a6 763b 06e3 5bbb 34ea 5ebb f16a 903b
00000130: c94f 67bb 211f 6ebb 3a3b ec39 24c1 613b
00000140: da39 96bb 973c 593c 13cf 1abc 2f9f 533c
00000150: 1614 9d3c 479c a1bb 4927 8f3b 55f4 d63b
00000160: f4ae 0b3c e05f abbb 77c4 a13a a501 a6bb
00000170: 9a90 93bb 0471 0b3c e516 b13b 217a 663b
00000180: 8d67 eb39 572e 1bba 48f4 263a 6727 673a
00000190: db14 1bba 146f ce3a 712a bf39 1d93 c4b9
000001a0: a6b1 66ba 483d 623a 9282 ac3a dd62 8eb9
000001b0: 97f4 b039 a8fa b7ba 3499 caba f149 7c39
000001c0: 2668 90bb b0c4 3fba ec04 303b 9219 eb38
000001d0: 73ed edba 15a3 a7b9 f6e3 aa3b d4a3 44ba
000001e0: 1e7c 873b 2d18 b33b 388c 3cb9 852d ca39
000001f0: a2e4 88ba daa7 59bb 3404 693a e7a2 103c
00000200: c1d1 083d 9b18 04bd 3f90 03bd 1190 85bc
00000210: 58d7 bf3c c445 a13c b2a2 e93c 262d 323d
00000220: 9f6c 0abd 5ea3 e1bc 9661 b6bc 99de 39bd
00000230: 4f40 613c 7418 26bc bea9 edbc 2fac 4dbd
00000240: b4aa 263d 750b 363d 65c8 1f3d 9a4f 17bd
00000250: 5ec6 48bd 1759 1fbd 6a3f b43c 0a9f 1abd
00000260: c600 33bd 353a 3e3d c76b 173d 4b02 cfbc
00000270: a8ab a0bd 42ce c1bc 1bba 283d 8b8b 5dbd
00000280: b06e 5a3d 10ba 853c 91af 163d ed0a 24bd
00000290: 9fb4 cebc fcb1 4dbd 47b5 29bd a8cb 15bd
000002a0: 5b96 9dbd 79fe 4fbd df87 fe3c c16f 01bd
000002b0: 978f 2f3d 98df 02bd fd74 74bc b1b3 3cbc
000002c0: 7c42 1dbd cfa8 883d e344 8ebd 71e5 553d
000002d0: c59c 61bd 0a91 0e3d 912b 59bd 902f 103d
000002e0: 19d9 23bd de48 7abd 7900 863d 06de 93bd
000002f0: cc80 76bd f599 b4bc e59b 103d 3a37 8dbd

attention.out_proj.weight f4 [64, 64]
-0.10258655 0.03570265 0.005399966 0.07792546 -0.096594796 -0.18978123 -0.011016646 0.014108944
0.11809627 0.058191314 0.16473588 0.09764119 -0.04735049 0.08652918 -0.0009263984 -0.023018394
-0.13878852 0.009271233 0.05965714 -0.028620707 0.12291761 0.085301995 -0.1294011 0.1528228
0.08084564 -0.1664695 -0.04343396 0.09683232 0.039562758 0.10727099 -0.058460403 0.084374435
-0.0013237074 -0.08082627 0.02088502 0.11689125 0.07448371 0.059965067 0.027142288 -0.114567585
0.09344519 0.11350994 0.061340183 0.081453755 0.042890258 0.10544314 -0.11120216 -0.06731965
0.072075106 -0.08827365 0.044868715 -0.13092892 0.10486391 -0.11126693 0.022533633 0.054513995
0.15449096 0.07244153 -0.24465932 0.17442784 0.09480998 0.06435558 -0.16509712 0.0503955
0.10607137 -0.18658778 -0.1480605 -0.12562384 0.11212766 -0.05392467 -0.00872148 0.23831014
-0.2293612 -0.094999395 -0.033749238 -0.06595814 0.09312236 0.040795498 -0.10108722 -0.19049107
-0.07480541 0.010255807 -0.09676983 0.122928225 -0.046856984 0.00015410688 -0.09684367 0.06626387
-0.051557425 -0.07122675 0.027613211 0.11805344 -0.14018437 0.01371776 -0.13634624 0.120687634
0.12950929 -0.022097617 -0.09024199 0.08489743 0.122146405 -0.07287472 -0.030636951 -0.1755542
-0.0712975 -0.102717526 -0.09226138 0.10156236 -0.026679285 -0.04591132 0.002150912 -0.12613977
-0.07066739 -0.060955904 -0.042960275 0.05207006 0.07772259 -0.14144272 0.15717387 -0.011462521
-0.048343565 0.112856865 -0.1608475 0.018777676 0.11423394 0.0022990354 -0.0061541568 0.08932761
-0.14832832 0.14817685 0.21248738 -0.02404385 -0.14521092 -0.14206043 -0.07810291 -0.06885596
0.11344028 -0.03349458 0.07557658 0.03600095 -0.032906234 0.12222842 0.14352965 0.003412065
-0.043576136 -0.12831749 -0.026347134 0.09688147 0.06309021 0.05253914 0.005782096 0.07463311
-0.07876325 0.0033040745 0.00832289 0.10894777 -0.0680164 0.13437328 -0.15142275 0.11670843
0.0034597334 0.038090773 -0.08258088 -0.067789674 -0.09154962 -0.004309853 0.0641569 0.115225114
0.0026356734 0.13980725 0.034750503 -0.009889723 -0.0915267 -0.088159256 0.0014296008 0.060550325
0.05815124 -0.18519674 0.053972855 -0.13926266 0.17910942 -0.17707302 0.17318651 -0.13861975
-0.03653103 0.104401395 -0.080922484 0.16608186 0.1821808 -0.076418534 0.046855982 0.21711342
0.16769348 0.025769927 -0.0020978174 0.016305985 0.17249236 0.10861741 -0.025479367 0.19716801
-0.18722987 0.098613024 -0.027025286 -0.10687497 0.18122417 -0.13929224 -0.034091655 0.057393447
-0.055231586 -0.16451645 0.081544235 0.010689178 0.027565733 0.05911014 -0.15602916 0.07006927
0.0021405686 -0.021068187 0.034266748 -0.07049028 0.043208 0.12731591 0.024322378 -0.009217331
-0.039903704 -0.16947305 -0.07744831 -0.015079406 0.085437186 -0.049346916 -0.05565215 -0.15335944
-0.058746915 0.128122 -0.13282107 -0.12064608 -0.052567203 0.060907956 -0.062364418 -0.047410402
-0.05801446 0.057007287 -0.13862245 0.025151392 -0.14698027 0.078033626 -0.08391837 0.17281115
0.013442935 0.046301544 0.05309222 -0.056464676 -0.16648985 0.047056325 -0.02666308 0.008631981
00000000: e618 d2bd f13c 123d 33f2 b03b 6297 9f3d
00000010: 7ed3 c5bd 0356 42be 2a7f 34bc 3329 673c
00000020: 75dc f13d 045a 6e3d 86b0 283e 1bf8 c73d
00000030: 96f2 41bd 3636 b13d 8bd9 72ba 1291 bcbc
00000040: 941e 0ebe 5fe6 173c 0c5b 743d f975 eabc
00000050: 3abc fb3d d0b2 ae3d b981 04be 957d 1c3e
00000060: 6692 a53d fb76 2abe cfe7 31bd 0650 c63d
00000070: 8f0c 223d e5b0 db3d 2d74 6fbd 81cc ac3d
00000080: 4080 adba 3e88 a5bd 1017 ab3c ae64 ef3d
00000090: ea8a 983d ee9d 753d 8159 de3c 69a2 eabd
000000a0: 3160 bf3d e677 e83d d83f 7b3d 3ad1 a63d
000000b0: b2ad 2f3d 93f2 d73d f5bd e3bd e2de 89bd
000000c0: 1d9c 933d d1c8 b4bd 42c8 373d 3b12 06be
000000d0: e4c2 d63d ebdf e3bd 7498 b83c 114a 5f3d
000000e0: e132 1e3e 3a5c 943d f987 7abe 369d 323e
000000f0: bc2b c23d dccc 833d 380f 29be 836b 4e3d
00000100: f23b d93d de10 3fbe 2c9d 17be 89a3 00be
00000110: 30a3 e53d 1de0 5cbd 8ae4 0ebc 9307 743e
00000120: aadd 6abe 0b8f c2bd a43c 0abd 1015 87bd
00000130: f0b6 be3d 2e19 273d d106 cfbd 1710 43be
00000140: 9433 99bd f907 283c 432f c6bd cbc1 fb3d
00000150: 1ced 3fbd c097 2139 f955 c6bd 5ab5 873d
00000160: e12d 53bd 55df 91bd 1a35 e23c 00c6 f13d
00000170: 7e8c 0fbe 75c0 603c 599e 0bbe 142b f73d
00000180: 159e 043e 1006 b5bc cbd0 b8bd b4de ad3d
00000190: e527 fa3d 573f 95bd 58fa fabc 7bc4 33be
000001a0: 6c04 92bd 915d d2bd 89f3 bcbd edff cf3d
000001b0: 848e dabc 820d 3cbd 51f6 0c3b c92a 01be
000001c0: 11ba 90bd e6ac 79bd 1df7 2fbd 6a47 553d
000001d0: 052d 9f3d 5cd6 10be 30f2 203e 4ccd 3bbc
000001e0: e703 46bd 8021 e73d 35b5 24be a4d3 993c
000001f0: 7cf3 e93d 6aab 163b cfa8 c9bb 65f1 b63d
00000200: 61e3 17be acbb 173e 4b96 593e 9cf7 c4bc
00000210: 2cb2 14be 4a78 11be 6bf4 9fbd 5b04 8dbd
00000220: 6153 e83d 9d31 09bd e5c7 9a3d bb75 133d
00000230: b0c8 06bd e552 fa3d 70f9 123e f49c 5f3b
00000240: e47c 32bd a965 03be f2d5 d7bc cb69 c63d
00000250: 7135 813d 4833 573d bd77 bd3b 3ed9 983d
00000260: a04e a1bd 2c89 583b bb5c 083c 0220 df3d
00000270: 2f4c 8bbd 2699 093e 910e 1bbe d404 ef3d
00000280: b2bc 623b 1205 1c3d 2a20 a9bd 50d5 8abd
00000290: 5e7e bbbd ab39 8dbb b164 833d 25fb eb3d
000002a0: 43bb 2c3b a229 0f3e 8b56 0e3d 8108 22bc
000002b0: 5a72 bbbd d78c b4bd 7161 bb3a 9e03 783d
000002c0: ff2f 6e3d 37a4 3dbe a412 5d3d df9a 0ebe
000002d0: 7668 373e a152 35be ce57 313e 56f2 0dbe
000002e0: 90a1 15bd 66d0 d53d b0ba a5bd 5d11 2a3e
000002f0: 9b8d 3a3e 5281 9cbd 0fec 3f3d fb52 5e3e
00000300: d7b7 2b3e 741b d33c 897b 09bb 2194 853c
00000310: d6a1 303e ce72 de3d 1bba d0bc 69e6 493e
00000320: 30b9 3fbe a0f5 c93d 2264 ddbc 44e1 dabd
00000330: d492 393e a0a2 0ebe b1a3 0bbd 6415 6b3d
00000340: 843a 62bd 0077 28be aa00 a73d a921 2f3c
00000350: 88d1 e13c 791d 723d 1cc6 1fbe 7a80 8f3d
00000360: c848 0c3b 3197 acbc 4a5b 0c3d 355d 90bd
00000370: dffa 303d 1a5f 023e b93f c73c 4a04 17bc
00000380: 1172 23bd 588a 2dbe 389d 9ebd 9d0f 77bc
00000390: b1f9 ae3d fe1f 4abd 82f3 63bd 420a 1dbe
000003a0: 9ba0 70bd 6a32 033e 3f02 08be 4b15 f7bd
000003b0: b550 57bd 9f7a 793d d571 7fbd 6931 42bd
000003c0: 92a0 6dbd 7980 693d 0bf3 0dbe 4b0a ce3c
000003d0: ff81 16be 18d0 9f3d 65dd abbd 68f5 303e
000003e0: c23f 5c3c b0a6 3d3d 3a77 593d 8147 67bd
000003f0: 517c 2abe 22be 403d 886c dabc 276d 0d3c

attention.out_proj.bias f4 [64]
-0.005572847 -0.004151548 -0.025018217 0.03549535 -0.032536168 -0.021754183 -0.008721537 0.04891469
0.06801252 0.07001453 0.011621306 -0.07148636 0.013812816 -0.11342416 0.009072124 0.0462506
0.014240216 0.0042797327 -0.01681021 -0.026082532 -0.035721485 -0.03306434 -0.03828188 0.00010001989
-0.0012264325 0.02817511 0.057965167 0.011503609 -0.03546823 -0.0046072826 -0.061791603 0.019818485
-0.024561802 0.02656981 0.043016177 0.053953096 0.020461567 0.03510638 -0.02297084 -0.0184617
0.015155747 -0.02559833 0.02953171 -0.033022042 -0.053983845 0.031697873 0.028619979 0.024146091
0.004193626 0.021460371 -0.045778833 -0.008604466 0.028969584 -0.017087745 -0.03613504 0.0038972397
-0.0037219585 0.045677565 -0.016641196 -0.0053650425 0.023938011 0.033583943 0.006661829 0.022340847
00000000: 6e9c b6bb b509 88bb 01f3 ccbc 9263 113d
00000010: a544 05bd d435 b2bc c7e4 0ebc c55a 483d
00000020: 264a 8b3d c763 8f3d 4a67 3e3c 7167 92bd
00000030: 264f 623c ed4a e8bd 3fa3 143c 4571 3d3d
00000040: cc4f 693c 003d 8c3b 91b5 89bc 09ab d5bc
00000050: b150 12bd 796e 07bd 76cd 1cbd c5c1 d138
00000060: 3fc0 a0ba 7dcf e63c e26c 6d3d a279 3c3c
00000070: 2247 11bd b0f8 96bb 3119 7dbd 605a a23c
00000080: d535 c9bc eea8 d93c bb31 303d ecfd 5c3d
00000090: 049f a73c b5cb 0f3d 582d bcbc fe3c 97bc
000000a0: cf4f 783c 97b3 d1bc 7cec f13c 1f42 07bd
000000b0: 2a1e 5dbd a1d5 013d 7274 ea3c 06ce c53c
000000c0: af6a 893b a9cd af3c 9682 3bbd bff9 0cbc
000000d0: 9f51 ed3c 99fb 8bbc 5602 14bd d568 7f3b
000000e0: 1aec 73bb 6618 3b3d 1e53 88bc 3dcd afbb
000000f0: a619 c43c 518f 093d 794b da3b 2704 b73c

classifier.0.weight f4 [32, 64]
-0.047509424 -0.008290605 0.03764014 0.023531452 -0.045908067 0.10240415 -0.12929687 0.03555102
-0.08954366 0.026660163 -0.012328437 -0.032395598 0.10469223 0.053850584 0.10143325 -0.057855055
0.014854067 0.08993722 -0.1665157 -0.02806886 -0.034518704 0.08608953 -0.09860699 -0.05601009
0.064040236 0.014104824 -0.11663008 -0.051730804 -0.0425637 -0.014374279 0.034567766 0.007838913
0.09917235 0.096498616 0.047722466 0.04578078 -0.00048576161 -0.09484443 -0.15873885 -0.15011632
-0.039144218 -0.07550642 0.099422246 0.23983723 0.0282105 -0.09296354 -0.055351228 0.06442817
0.018329456 -0.06686823 0.07532308 -0.05321821 0.02570389 0.08868366 -0.053766698 0.032513164
0.15707004 -0.044784915 0.048150945 0.0016987805 0.022387758 0.048551463 -0.05873541 -0.029267574
0.16769545 -0.016181568 0.16236442 -0.042954355 0.14530402 0.07881233 0.05801325 0.09657925
0.0003590954 -0.065185 -0.110157296 0.019867627 -0.13000238 0.08179796 -0.035387628 0.0203328
0.03742924 -0.01655544 -0.05853892 -0.035485707 0.09796294 -0.0686134 0.11427433 0.10867239
-0.13585348 -0.1259529 -0.10276957 -0.10569961 0.01895532 -0.038574003 -0.076383844 0.032347444
0.1591795 -0.16482373 0.044446 -0.15444545 -0.05197767 -0.011462625 -0.026247634 0.07831893
-0.004872125 0.16778155 0.012798111 0.13126679 0.11613827 -0.031598266 -0.11875142 -0.17599583
-0.032773335 -0.16067433 0.082064964 0.15707964 -0.04951046 0.120902166 0.0067935213 -0.113738135
-0.12868838 -0.09946592 -0.04110974 -0.053821173 -0.14849487 -0.10051235 0.08678087 -0.0990431
0.055911772 0.051690448 -0.093301736 0.081402995 0.08470008 -0.08100373 0.06105711 0.103096165
-0.009600869 -0.10271042 -0.0060120495 -0.07432934 0.097917266 0.09960467 -0.06925366 -0.073673874
0.023237433 -0.0052204723 -0.15192755 0.076357044 -0.09639332 -0.101958536 0.038245086 -0.09999384
0.001761336 -0.04044099 0.09167731 0.05873456 0.07041923 -0.041317638 -0.02786338 0.107663445
-0.033915464 -0.026403671 -0.018308979 -0.05324194 -0.023506012 -0.046032306 -0.09710257 -0.14653215
-0.086527415 -0.05846721 -0.014227032 -0.044850048 -0.10084652 0.14111714 -0.11794494 0.030324815
0.11246598 0.09381722 0.08615119 0.052359622 -0.062222227 -0.07920942 0.042892355 -0.0021049194
0.010121378 0.04526411 -0.021121474 -0.08094812 -0.034680165 -0.012339623 -0.01495189 0.026929565
-0.08022021 0.2487919 -0.10113881 0.1388802 -0.14039545 0.028609494 0.041090023 0.1400467
-0.029480813 0.16355751 -0.054292973 -0.11552665 0.073300116 0.055553157 -0.052646507 0.007375769
0.13097548 0.051421598 0.0147139095 -0.018802295 -0.07247756 -0.14122838 -0.14861041 -0.14974049
-0.04783805 -0.07199609 -0.006416274 0.07209907 0.10728448 -0.103880934 -0.0113937305 0.11320039
-0.06827292 0.11028888 0.19205749 0.17238222 0.11245284 0.080480255 0.0059691565 0.04483
0.07930181 0.023340872 -0.09354942 -0.00713831 0.022440115 -0.07083793 -0.04161588 0.17051178
0.089024834 0.14130227 0.045812443 -0.036065727 0.12055071 -0.002579724 0.076646134 -0.00421745
0.103903435 -0.006730118 0.09279069 -0.10015355 -0.0101826945 -0.058900602 -0.019864632 0.015439458
00000000: 3e99 42bd 51d5 07bc 8c2c 1a3d 08c5 c03c
00000010: 190a 3cbd 44b9 d13d 6666 04be f29d 113d
00000020: ab62 b7bd 6a66 da3c 36fd 49bc 3fb1 04bd
00000030: e168 d63d 6e92 5c3d 3cbc cf3d 6cf9 6cbd
00000040: 795e 733c 0131 b83d 1783 2abe aaf0 e5bc
00000050: 7c63 0dbd b54f b03d 76f2 c9bd d66a 65bd
00000060: 8727 833d eb17 673c c0db eebd aee3 53bd
00000070: 4657 2ebd 1982 6bbc ee96 0d3d c96e 003c
00000080: df1a cb3d 11a1 c53d a278 433d a184 3b3d
00000090: d2ad feb9 cc3d c2bd 708c 22be 18b8 19be
000000a0: b055 20bd 1ca3 9abd e49d cb3d e497 753e
000000b0: b519 e73c ab63 bebd f8b7 62bd ebf2 833d
000000c0: a827 963c 36f2 88bd fd42 9a3d 56fb 59bd
000000d0: f790 d23c c79f b53d 783a 5cbd 862c 053d
000000e0: f8d6 203e 6370 37bd ed39 453d 9da9 de3a
000000f0: 8866 b73c e6dd 463d 8b94 70bd 8dc2 efbc
00000100: 5bb8 2b3e 358f 84bc dc42 263e e8f0 2fbd
00000110: 94ca 143e 5c68 a13d 4d9f 6d3d 58cb c53d
00000120: f844 bc39 b77f 85bd 269a e1bd 6fc1 a23c
00000130: 581f 05be b085 a73d 9ef2 10bd f990 a63c
00000140: 674f 193d 469f 87bc 82c6 6fbd 7659 11bd
00000150: cba0 c83d 2f85 8cbd a908 ea3d a18f de3d
00000160: 2d1d 0bbe ccf9 00be da78 d2bd 0a79 d8bd
00000170: 3048 9b3c c6ff 1dbd 226f 9cbd c17e 043d
00000180: f3ff 223e 8dc7 28be 020d 363d f326 1ebe
00000190: 8ae6 54bd bccd 3bbc 4705 d7bc ad65 a03d
000001a0: 59a6 9fbb edce 2b3e 2baf 513c cd6a 063e
000001b0: e7d9 ed3d 2f6d 01bd f233 f3bd 4038 34be
000001c0: 553d 06bd d087 24be ad11 a83d 7cd9 203e
000001d0: 7bcb 4abd 8e9b f73d 309c de3b 8aef e8bd
000001e0: e3c6 03be cab4 cbbd b062 28bd 9773 5cbd
000001f0: 0a0f 18be 6bd9 cdbd 2bba b13d 1cd7 cabd
00000200: be03 653d 5db9 533d fb14 bfbd 9db6 a63d
00000210: 3c77 ad3d 49e5 a5bd 0517 7a3d 1524 d33d
00000220: f74c 1dbc d759 d2bd ba00 c5bb fb39 98bd
00000230: d988 c83d 89fd cb3d ddd4 8dbd 54e2 96bd
00000240: 6e5c be3c 7f10 abbb e592 1bbe 1561 9c3d
00000250: dc69 c5bd a3cf d0bd e1a6 1c3d 92c9 ccbd
00000260: a1dc e63a 74a5 25bd 50c1 bb3d a693 703d
00000270: f537 903d af3c 29bd be41 e4bc a77e dc3d
00000280: f1ea 0abd 834c d8bc b6fc 95bc 3814 5abd
00000290: ae8f c0bc 5f8c 3cbd b6dd c6bd 860c 16be
000002a0: 4935 b1bd 507b 6fbd 7f18 69bc afb4 37bd
000002b0: 9f88 cebd 0381 103e 1e8d f1bd bf6b f83c
000002c0: 9054 e63d 3e23 c03d 0970 b03d 0b77 563d
000002d0: bcdc 7ebd 8c38 a2bd e5af 2f3d b0f2 09bb
000002e0: 23d4 253c dc66 393d f106 adbc 21c8 a5bd
000002f0: ca0c 0ebd 212c 4abc c6f8 74bc 649b dc3c
00000300: 7e4a a4bd 4ec3 7e3e dd21 cfbd 9c36 0e3e
00000310: d3c3 0fbe 755e ea3c 034e 283d 6768 0f3e
00000320: bf81 f1bc 9f7b 273e 4f62 5ebd 3c99 ecbd
00000330: 5f1e 963d b58b 633d dda3 57bd 6fb0 f13b
00000340: 701e 063e 749f 523d 9c12 713c 4507 9abc
00000350: 1d6f 94bd 2c9e 10be 542d 18be 9255 19be
00000360: d5f1 43bd b072 93bd 9b3f d2bb ada8 933d
00000370: f7b7 db3d 87bf d4bd c5ac 3abc 9bd5 e73d
00000380: acd2 8bbd 23df e13d b8aa 443e f784 303e
00000390: ad4d e63d d5d2 a43d ea98 c33b a99f 373d
000003a0: fd68 a23d 5b35 bf3c d796 bfbd 7ce8 e9bb
000003b0: 55d4 b73c 7a13 91bd 6a75 2abd a49a 2e3e
000003c0: a752 b63d 8bb1 103e d4a5 3b3d a8b9 13bd
000003d0: 4ae3 f63d 9610 29bb a6f8 9c3d 8932 8abb
000003e0: 53cb d43d 5288 dcbb 0c09 be3d 4e1d cdbd
000003f0: 51d5 26bc c241 71bd 27bb a2bc c8f5 7c3c

classifier.0.bias f4 [32]
-0.27422008 0.014393563 -0.06773286 0.064749524 0.1399918 0.035126258 0.09483609 0.026424449
0.051094625 -0.08905994 0.05280753 -0.009008126 -0.13634883 0.060347646 0.06921224 0.04275273
-0.14158177 -0.015209941 -0.08987785 0.08391281 -0.24468696 -0.12723903 0.04845653 0.051941197
0.022892471 -0.06110547 -0.041456968 0.020485332 0.046141274 0.0254606 0.010399843 0.080169745
00000000: 9366 8cbe fbd2 6b3c 87b7 8abd 669b 843d
00000010: 035a 0f3e 8de0 0f3d 6d39 c23d 1678 d83c
00000020: 9948 513d 0f65 b6bd b54c 583d d296 13bc
00000030: 079f 0bbe 182f 773d 26bf 8d3d 7d1d 2f3d
00000040: d0fa 10be 1e33 79bc e111 b8bd 7bda ab3d
00000050: 388f 7abe f34a 02be 5b7a 463d 4bc0 543d
00000060: fe88 bb3c bb49 7abd c8ce 29bd dbd0 a73c
00000070: a2fe 3c3d c092 d03c 1a64 2a3c 0930 a43d

classifier.2.weight f4 [1, 32]
-0.00085524214 -0.18705438 -0.015131622 0.043340437 0.17346166 -0.051161714 0.23782715 0.012997326
0.20163134 0.058135793 0.12413638 0.14606738 -0.0091267 0.111713715 0.15140282 -0.14471975
-0.010402128 0.15051268 0.025736362 0.1290029 -0.23801123 -0.07069293 0.08067718 0.12748303
-0.1848653 0.0014014022 -0.03930811 -0.007174935 -0.19428067 0.033390146 -0.1329858 -0.019602861
00000000: 5432 60ba 2f8b 3fbe 9fea 77bc be85 313d
00000010: ef9f 313e f28e 51bd f688 733e bdf2 543c
00000020: 7278 4e3e cc1f 6e3d 373b fe3d b092 153e
00000030: 2888 15bc 29ca e43d 5709 1b3e 6a31 14be
00000040: b06d 2abc ff1f 1a3e 10d5 d23c 5619 043e
00000050: 37b9 73be 74c7 90bd 143a a53d e98a 023e
00000060: 544d 3dbe 41af b73a 8a01 21bd b81b ebbb
00000070: 83f1 46be 1bc4 083d 6e2d 08be 2e96 a0bc
