signals/set_transformer_model.pth (torch, 734279 bytes, 17 tensors)

encoder.0.weight f4 [128, 320]
0	0x3cf71556	0.030161541
1	0xbd8990c9	-0.06717069
2	0x3c8149c9	0.015782254
3	0x3cd8d4c5	0.026468644
4	0x3cd6e537	0.026232345
5	0xbc978d30	-0.01849994
6	0xbd948862	-0.072525755
7	0xbc5009d4	-0.012697656
8	0xbceb5745	-0.028728137
9	0xbd406ff7	-0.046981778
10	0xbd144931	-0.036202613
11	0xbd81ab3a	-0.06331487
12	0xbc27cae0	-0.01024124
13	0xbbef7a23	-0.007308261
14	0xbca2e624	-0.01988513
15	0xbd925c23	-0.0714648
16	0x3c6bb535	0.014386465
17	0xbd025b5d	-0.031825412
18	0xbcbae8a5	-0.022816012
19	0xbd9bb34d	-0.07602558
20	0xbd603488	-0.054737598
21	0xbbd8cbe2	-0.0066161016
22	0x3b6f3676	0.0036500967
23	0x3c1fcf97	0.009754083
24	0xbd184fec	-0.037185594
25	0x3b72777d	0.003699749
26	0x3d01c11e	0.03167831
27	0xbd4d747c	-0.050159916
28	0xbd0e3715	-0.0347205
29	0xbd421ec3	-0.047392618
30	0x3cbd1e1f	0.023085652
31	0xbd0c3f35	-0.034239966
32	0x3d0a6800	0.03379059
33	0xbd8be219	-0.06830234
34	0xbb9daf61	-0.0048121666
35	0x3d0a7e39	0.03381178
36	0xba751368	-0.00093489
37	0xbd9049ef	-0.07045352
38	0x3d25befb	0.040465336
39	0xbd02bbd2	-0.0319174
40	0x3d4389f8	0.047739
41	0xbd4fc1de	-0.050721996
42	0x3c72162b	0.014775793
43	0x3c8098b4	0.015697815
44	0x3c3159a8	0.010824598
45	0x3d2fc1f9	0.042909596
46	0x3ccf6ef5	0.025321463
47	0xbd3ff027	-0.046859886
48	0x3c87f1ef	0.016594855
49	0x3d1c136d	0.038104463
50	0xbd1a78aa	-0.03771273
51	0x3c220a89	0.009890207
52	0xbd8b6d2f	-0.068079345
53	0xbd722a05	-0.059122104
54	0xbd818af3	-0.063253306
55	0xbd8eaf27	-0.069670014
56	0xbd94bc50	-0.0726248
57	0x3cd1f0d4	0.025627531
58	0xbd66546e	-0.056232862
59	0xbd8e475d	-0.06947205
60	0xbd88cebb	-0.06680056
61	0x3c820dbd	0.015875692
62	0xbd6856f2	-0.056723543
63	0xbce08b1e	-0.027410086
64	0xbae05029	-0.0017113733
65	0xbd78cba4	-0.06074108
66	0x3beb9622	0.007189528
67	0x3d0b2696	0.033972345
68	0xbd70f0a2	-0.058823235
69	0x3cc095dc	0.023508959
70	0xbd21c5f4	-0.039495423
71	0xbc8a0471	-0.016847821
72	0xbd241cf7	-0.040066686
73	0x3c3c2dff	0.011485576
74	0xbc80cff0	-0.015724152
75	0x3a8f5076	0.0010934013
76	0xbd978eec	-0.07400307
77	0xbd30e760	-0.043189406
78	0xbcdd47d4	-0.02701179
79	0x3cfddf7e	0.030990358
80	0x3a752f58	0.0009353063
81	0xbc9c90c7	-0.019112004
82	0xbca4f2af	-0.020135252
83	0xbd02632d	-0.031832863
84	0x3c76b9f0	0.015058979
85	0xbd2f31c2	-0.042772062
86	0x3cb47a94	0.022031106
87	0x3cf4b3c1	0.02987087
88	0xbd1160e0	-0.035492778
89	0x3cc88bcf	0.024480728
90	0x3ce16db3	0.027518129
91	0x3c0b530b	0.008503686
92	0xbc83895c	-0.016056709
93	0xbd3116c2	-0.043234594
94	0xbc7e255b	-0.015511836
95	0x3ce8545a	0.028360534
96	0x3a57a62f	0.00082263624
97	0x3ba608cb	0.005066966
98	0x3c878e19	0.01654725
99	0xbc095172	-0.0083812345
100	0xbc241bb2	-0.010016369
101	0xbbe964f7	-0.0071226317
102	0xbcfc1d50	-0.030775696
103	0x3b6c0917	0.003601616
104	0xbd41013f	-0.04712033
105	0xbd677c20	-0.05651486
106	0xbd2cccc9	-0.042187486
107	0xbc96e33f	-0.018418906
108	0xbc421fa0	-0.01184836
109	0xbd8cd37c	-0.06876275
110	0x3c523576	0.012830129
111	0x3cc142d5	0.023591438
112	0xbd4b601e	-0.04965221
113	0xbb4037df	-0.0029330177
114	0xbb913ace	-0.004432059
115	0x3d0af0a4	0.0339209
116	0x3cce45fe	0.02517986
117	0xbc954a1f	-0.01822382
118	0x3d1160d4	0.035492733
119	0xbd0482bf	-0.03235125
120	0xbce6be72	-0.028166983
121	0x3d16d61f	0.036825296
122	0xbd66cc52	-0.0563472
123	0xbca5b599	-0.020228194
124	0x3d164cb0	0.03669423
125	0xbd73ca0b	-0.059518855
126	0xbb6b2792	-0.003588174
127	0x3b1bcb03	0.0023772127
128	0x3c9684bd	0.018373841
129	0xbd1aafbd	-0.037765253
130	0xbcc97b74	-0.024595
131	0x3ce4cbdb	0.027929237
132	0xbd59ab2e	-0.053141765
133	0x3c8bdb00	0.0170722
134	0xbcb7bc42	-0.022428636
135	0xbc2d15de	-0.010564296
136	0xbcefd866	-0.029277992
137	0xbd3b00a2	-0.0456549
138	0xbd8d2881	-0.06892491
139	0x3c9c21ea	0.01905914
140	0xbd65ccae	-0.0561034
141	0xbd280fcd	-0.041030694
142	0xbc167375	-0.009182801
143	0x3d0a82d9	0.033816192
144	0xbcbee984	-0.023304708
145	0xbb7d67c8	-0.0038666595
146	0xbd83bbee	-0.06432329
147	0xbce49942	-0.02790511
148	0xbd62bec5	-0.055357713
149	0xbd96f20a	-0.07370384
150	0xbd416a90	-0.047220767
151	0x3cdf4b28	0.027257517
152	0xbc0ffcf4	-0.008788336
153	0xbbbea149	-0.0058175665
154	0x3cb73755	0.022365252
155	0x3c847c5e	0.016172584
156	0x3cb46fe2	0.022026006
157	0xbd820ad6	-0.06349723
158	0x3bbe1d0f	0.005801804
159	0x3ceefce7	0.029173328
160	0xbd83cf4c	-0.06436023
161	0xbce1d0c4	-0.027565368
162	0xbd6a8488	-0.057255298
163	0xbd18f956	-0.03734716
164	0x3cb908a4	0.022587128
165	0xbcea7b9b	-0.028623393
166	0xbd710ac5	-0.05884816
167	0xbb8c9ba1	-0.0042910133
168	0xbcfd2a13	-0.030903852
169	0xbd4dee37	-0.050276008
170	0xbd130b4f	-0.035899457
171	0xbd89aad1	-0.06722034
172	0xbbcff3e4	-0.0063462127
173	0xbd835200	-0.06412125
174	0xbcbd389c	-0.023098283
175	0x3caebdc6	0.021330725
176	0xbd903df8	-0.070430696
177	0x3c1cdaa3	0.009573611
178	0x3ce66c5e	0.028127845
179	0x3cabf70a	0.02099182
180	0x3b75b2b8	0.0037490558
181	0x3b92b281	0.0044768457
182	0xbd915141	-0.07095576
183	0xbb3bdb44	-0.0028664628
184	0xbd02bd25	-0.031918664
185	0xbacf6b19	-0.0015824764
186	0xbd1ebb1f	-0.03875267
187	0xbca363e6	-0.019945096
188	0xbc3ada9b	-0.011404659
189	0xbaafcea2	-0.0013413022
190	0xbc349946	-0.011022871
191	0x3d13c7b1	0.036079112
192	0xbd7c56f9	-0.06160638
193	0xbd82a800	-0.063797
194	0xbd2aeea8	-0.041731507
195	0xbc236ffb	-0.009975429
196	0xbceac7b1	-0.028659673
197	0xbd22c7b9	-0.03974125
198	0xbd930f18	-0.07180613
199	0x3c26a1a8	0.010170378
200	0x3a5ccec2	0.00084231433
201	0x3c9d5e9c	0.019210152
202	0xbd62e17a	-0.055390812
203	0xbc89871c	-0.016788058
204	0xbcd64a3b	-0.026158443
205	0xbcaa41ea	-0.020783383
206	0xbd2d9ab5	-0.04238387
207	0xbd45b37b	-0.04826687
208	0xbd4b6233	-0.049654197
209	0xbcd856f2	-0.026408646
210	0x3c314473	0.010819542
211	0xbd2bd79c	-0.041953668
212	0x3c4d1420	0.012517005
213	0xbd8f1615	-0.06986634
214	0xbd4616d2	-0.048361607
215	0xbb26d872	-0.0025458601
216	0xbd802566	-0.06257133
217	0xbce80364	-0.02832193
218	0x3d00102b	0.03126542
219	0xbc956838	-0.018238172
220	0xbc1275aa	-0.008939186
221	0xbc96fda2	-0.018431488
222	0x3bac58e2	0.005259619
223	0xbc6c79dd	-0.014433351
224	0xbd455ce6	-0.048184298
225	0xbd372ee8	-0.044722468
226	0xbc44cbb8	-0.012011461
227	0xbd46d737	-0.04854509
228	0xbc537335	-0.012905885
229	0xbc80d51a	-0.015726615
230	0x3cfa86f9	0.030581938
231	0xbd68b791	-0.056815688
232	0x3cf6dc99	0.030134486
233	0xbb6e9ace	-0.0036408189
234	0x3c399bfc	0.0113286935
235	0x3b3469f1	0.0027528966
236	0x3ccb0ec7	0.02478732
237	0xbd4779ae	-0.048700027
238	0x3be74c4b	0.0070586554
239	0x3d1b9155	0.037980396
240	0xbcd1738f	-0.025567798
241	0x3af99a57	0.0019043189
242	0x3c2eeff7	0.010677329
243	0xbcb3cf26	-0.021949362
244	0x3cab2cf2	0.020895455
245	0x3d065085	0.032791633
246	0x3d096e97	0.033552732
247	0x3c1e56e3	0.00966427
248	0xbcd91270	-0.02649805
249	0xbd4cd051	-0.050003354
250	0xbbe61fcd	-0.007022834
251	0xbd327a48	-0.043573648
252	0x3cbd463f	0.023104785
253	0xbd87801e	-0.06616233
254	0xbccaf2c7	-0.024773968
255	0xbbd6d051	-0.006555595

encoder.0.bias f4 [128]
0	0x3ca8ff74	0.020629622
1	0x3b8883f8	0.0041661225
2	0xbc1d6e8c	-0.009608876
3	0xbcca62f2	-0.024705384
4	0x3dcf7bfa	0.101310685
5	0x3d42cbc0	0.047557592
6	0x3dbc3eec	0.09191689
7	0xbc1e7e13	-0.009673613
8	0xbc57b749	-0.013166257
9	0x3da15c7c	0.07878968
10	0xbd2d5a6f	-0.042322572
11	0xbc858d87	-0.016302837
12	0xbd4c7e93	-0.049925398
13	0x3cc6bab9	0.024258958
14	0x3bf6aada	0.0075276913
15	0x3bd340ae	0.0064469194
16	0xbcf3f629	-0.029780464
17	0x3b806ec0	0.0039194524
18	0x3c3065fc	0.0107665025
19	0x3d3addbf	0.04562163
20	0xbb288e67	-0.0025719644
21	0x3d83ff17	0.06445139
22	0x3cbf37f9	0.02334212
23	0xbd1c4fcb	-0.038162034
24	0xbcbd61a8	-0.023117855
25	0x3c7108f8	0.014711611
26	0xbd075e28	-0.03304878
27	0x3c66b5ea	0.014081458
28	0xbcbd94fd	-0.023142332
29	0xbd1da9ba	-0.038491942
30	0xbca2d190	-0.019875318
31	0xbcb5f706	-0.022212517
32	0xbbb5dff9	-0.0055503813
33	0xbceaf7a8	-0.028682545
34	0x3d561591	0.05226666
35	0x3caa2d35	0.02077351
36	0xbc8f9b9e	-0.017530259
37	0x3d97b410	0.07407391
38	0x3d89a015	0.06719986
39	0xbcbcf5c1	-0.023066403
40	0x3c10b2a2	0.008831652
41	0x3ba2c1b9	0.004966941
42	0x3d636348	0.055514604
43	0xbd4ded44	-0.050275102
44	0xbd1ed19c	-0.038774118
45	0x3c37804a	0.01120002
46	0xbd320162	-0.04345835
47	0x3b8f3ca6	0.0043712435
48	0xbd1f9e0a	-0.038969077
49	0x3cb18441	0.021669509
50	0xbcfbc9e1	-0.030735912
51	0xbca52e37	-0.020163639
52	0x3ca5811b	0.020203164
53	0xbd3d589e	-0.04622709
54	0xbd0560bf	-0.032562967
55	0xbcba49c0	-0.022740245
56	0xbd2d5f7c	-0.04232739
57	0xbc8df187	-0.017327083
58	0xbcf58fdc	-0.029975824
59	0x3da4db8d	0.080496885
60	0x39634100	0.00021672621
61	0xbd0278da	-0.031853534
62	0x3d066fe5	0.032821555
63	0xbc82b030	-0.015953153
64	0x3c2b15eb	0.010442237
65	0x3b63cae5	0.0034758386
66	0x3df67e47	0.12035804
67	0xbb739481	-0.0037167373
68	0xba2b038a	-0.00065236597
69	0x3d42778e	0.047477297
70	0xbcca6e54	-0.024710812
71	0x3c5c75dd	0.013455835
72	0xbd156299	-0.036470983
73	0xbd516686	-0.051123165
74	0x3b889ebc	0.0041693132
75	0xbd606635	-0.054784972
76	0xbcd91ca9	-0.026502924
77	0xbc638aa6	-0.013888037
78	0xbd3bb2c8	-0.045824796
79	0xbcdab188	-0.026695982
80	0x3ba5c731	0.005059146
81	0x3d0bcbca	0.034129895
82	0xbd13822e	-0.03601282
83	0xbd00bd12	-0.03143031
84	0xbd5c41d4	-0.053773716
85	0x3b1ca388	0.0023901183
86	0x3d1a17fd	0.037620533
87	0xbc36d747	-0.011159725
88	0xbcc9297c	-0.024555914
89	0xbd3adba6	-0.04561963
90	0x3cda6584	0.026659735
91	0x3d6b3cc9	0.057431016
92	0x3a58a7c7	0.0008264747
93	0xbd6a633c	-0.057223544
94	0xbcd0314f	-0.025414137
95	0xbca426e8	-0.020038083
96	0xbd156588	-0.03647378
97	0xbd308750	-0.043097794
98	0x3c70093a	0.014650637
99	0xbc91fa52	-0.017819557
100	0x3cb1dae2	0.021710817
101	0x3bd82beb	0.0065970323
102	0xbcbc9a70	-0.02302286
103	0x3c248a41	0.010042728
104	0xbd1d3c43	-0.03838755
105	0x3d9d4a5f	0.07680201
106	0x3d97270b	0.07380494
107	0x3b39c418	0.002834564
108	0xbc290a1b	-0.010317351
109	0xbc74f741	-0.014951528
110	0x3c950b68	0.018193915
111	0xbcb2c202	-0.021821026
112	0x3bfd9417	0.007738601
113	0x3d0f5f85	0.035003204
114	0x3cace7e8	0.021106675
115	0x3d67ab17	0.05655965
116	0x3d2f6f8d	0.042830992
117	0xbc96e19b	-0.018418124
118	0xbd3135ac	-0.043264076
119	0x3bee326f	0.0072691957
120	0xbbdf993c	-0.006823687
121	0x3c8e8634	0.017397977
122	0xbb05ae27	-0.0020397992
123	0xbd094fcf	-0.033523377
124	0xbd4f8cea	-0.050671495
125	0x3d4f7bc2	0.050655134
126	0x3c81c4a0	0.015840828
127	0xbb1cbc35	-0.002391589

encoder.2.attention.in_proj_weight f4 [384, 128]
0	0x3ca5b300	0.020226955
1	0xbc5fbdf0	-0.0136561245
2	0xbda7a27e	-0.0818529
3	0x3b2b6500	0.002615273
4	0xbeb0fc8d	-0.3456768
5	0xbd97e97f	-0.07417583
6	0xbe68a018	-0.22717321
7	0xbd7a423f	-0.061098333
8	0x3c2af74e	0.010434939
9	0xbe7b8cf7	-0.24565493
10	0xbd402baf	-0.04691666
11	0x3dadc430	0.084846854
12	0xbda7d0ba	-0.08194108
13	0x3e0b67a7	0.13613759
14	0xbd4ab4bd	-0.04948877
15	0xbbe091c0	-0.0068533123
16	0xbd4e6f96	-0.050399385
17	0xbea08a4c	-0.31355512
18	0x3d5aff2a	0.053466
19	0xbe46036f	-0.19337247
20	0xbca601f1	-0.020264598
21	0xbe9be681	-0.30449298
22	0xbe82f1f6	-0.25575227
23	0x3d116c6c	0.03550379
24	0x3bd8fb70	0.0066217706
25	0xbd1c80a3	-0.038208615
26	0xbdbea55e	-0.09308885
27	0xbe303229	-0.17206635
28	0xbd5c4213	-0.05377395
29	0x3d1c1eee	0.038115434
30	0x3d941689	0.07230861
31	0xbcb5d854	-0.02219788
32	0xbe775a1b	-0.24155466
33	0x3e1ca299	0.15296401
34	0xbc5d315e	-0.01350054
35	0xbe0f52be	-0.13996407
36	0x3b91be0d	0.0044477046
37	0xbdef1a02	-0.116748825
38	0xbe82dc7a	-0.25558835
39	0x3da2240b	0.07917031
40	0xbd295258	-0.041338295
41	0xbe611aee	-0.21982929
42	0xbe9f34eb	-0.3109506
43	0x3d2dd852	0.042442627
44	0xbdb4cd59	-0.088282295
45	0xbd9140cf	-0.070924394
46	0xbd864916	-0.06556909
47	0x3e02e3fb	0.1278228
48	0x3e0cd25f	0.13752125
49	0xbe8b3070	-0.27185392
50	0xbe0bd300	-0.13654709
51	0xbe8bc797	-0.27300712
52	0xbe96a365	-0.29421535
53	0x3d5b54fb	0.05354784
54	0x3e155b2f	0.14585565
55	0xbd5909a0	-0.052987695
56	0xbc63e012	-0.013908403
57	0xbda7724e	-0.08176099
58	0xbdbb5ba9	-0.09148342
59	0xbe5ee182	-0.21765712
60	0x3c8660cc	0.016403578
61	0xbd65a707	-0.056067493
62	0xbde1b7e6	-0.11021404
63	0x3d9e3c63	0.077263616
64	0xbec7516a	-0.38929302
65	0x3e355140	0.17706776
66	0xbdb2876b	-0.08717235
67	0x3d184f3f	0.03718495
68	0xbdb288ed	-0.08717523
69	0xbe9530e2	-0.29138857
70	0xbda7e4ae	-0.08197914
71	0xbd97c2d2	-0.07410206
72	0xbe71b251	-0.23603179
73	0xbd19fb20	-0.037593007
74	0xbd6dfbf6	-0.058101617
75	0xbc47d978	-0.012197845
76	0x3c6c1e6d	0.014411551
77	0xbdc71578	-0.09720892
78	0xbd7c4548	-0.06158951
79	0x3d49dcaa	0.049282707
80	0x3c7cc6ff	0.015428304
81	0xbe20345d	-0.15644975
82	0xbd9f2beb	-0.077720486
83	0x3daac8b2	0.08339061
84	0x3d9d7cbf	0.07689809
85	0x3e24203d	0.16027923
86	0xbea3f46d	-0.3202242
87	0x3e8854fb	0.26627335
88	0xbe85ec60	-0.26156902
89	0xbe930ac0	-0.2871914
90	0xbcb5f486	-0.022211324
91	0xbdc444d9	-0.09583444
92	0xbc930d6e	-0.01795074
93	0xbe191f93	-0.14953451
94	0x3bc39690	0.005968876
95	0x3e7604cc	0.24025267
96	0x3d431ec9	0.04763678
97	0x3bd56280	0.0065119863
98	0xbe121e40	-0.14269352
99	0x3e8707ef	0.2637324
100	0x3d2ed517	0.042683687
101	0xbdf055a8	-0.11735088
102	0x3e4523bb	0.19251911
103	0x3da72383	0.0816107
104	0xbcd91f51	-0.02650419
105	0xbe1c86a5	-0.15285738
106	0xbe3ba33c	-0.18323988
107	0x3d1a6708	0.037695915
108	0x3e8d43e0	0.27590847
109	0xba954ec2	-0.001139127
110	0x3d2cc815	0.042183
111	0xbcb277f4	-0.021785714
112	0xbd30d55c	-0.043172225
113	0xbe6f5970	-0.23373961
114	0x3dc38765	0.09547309
115	0xbe8fed06	-0.28110522
116	0xbe53edb9	-0.20696153
117	0xbe505b36	-0.20347294
118	0x3daeb2e2	0.08530213
119	0x3e57802b	0.21044986
120	0xbcd5b61f	-0.026087819
121	0xbe82b564	-0.25529015
122	0xbc6c2f00	-0.014415503
123	0xbe395e5f	-0.18102406
124	0xbdb7ee0d	-0.089809515
125	0xbec66171	-0.38746217
126	0x3e18caa7	0.14921056
127	0x3b84da3b	0.0040543354
128	0xbbf9a586	-0.007618609
129	0x3dcb0ad3	0.09914174
130	0x3b99bf40	0.004691988
131	0xbd1669c0	-0.036721945
132	0x3eb47620	0.35246372
133	0x3d7e3d61	0.062070254
134	0x3da9ca2b	0.082905136
135	0x3d91bb46	0.07115798
136	0xbccf8dc5	-0.025336156
137	0x3e52ee7a	0.20598784
138	0x3dbcfa45	0.092274226
139	0x3d1cb07a	0.03825424
140	0x3d53feb4	0.051756576
141	0xbe475754	-0.19466907
142	0xbc4adee6	-0.012382245
143	0x3d2d9917	0.042382326
144	0x3e1365f8	0.14394367
145	0x3e7b24e7	0.24525796
146	0xbc28d20b	-0.010303984
147	0x3e826e9b	0.2547501
148	0xbe3d2e12	-0.18474606
149	0x3e9bfcde	0.3046636
150	0x3e79fe09	0.24413313
151	0xbb56fcca	-0.0032804483
152	0xbcee5b50	-0.029096276
153	0x3bb60983	0.005555333
154	0xbd9e3135	-0.07724229
155	0x3d80a6ff	0.06281852
156	0x3cd65d01	0.026167395
157	0xbdbce5a7	-0.0922349
158	0xbd8bc033	-0.068237685
159	0x3dcbe121	0.09955049
160	0x3e0d5978	0.13803661
161	0xbe854e3a	-0.26036245
162	0xbdf00974	-0.11720553
163	0x3ddb6501	0.10712624
164	0xbd5dab88	-0.054118663
165	0x3e761f5c	0.240354
166	0x3eb5d2a8	0.3551228
167	0x3ddc4ffb	0.107574426
168	0x3d132a4b	0.035929006
169	0x3e107eca	0.14110866
170	0x3e7c6868	0.24649203
171	0x3d743616	0.059621893
172	0x3da14fc6	0.07876544
173	0x3ba6f963	0.005095647
174	0xbcca2f08	-0.02468063
175	0xbc833cb7	-0.016020162
176	0xbe733e43	-0.2375422
177	0x3e4fb0fa	0.20282355
178	0x3d8d3d38	0.06896442
179	0x3e7b93b9	0.2456807
180	0x3ed5a301	0.41725925
181	0x3d9e07f3	0.0771636
182	0xbe946301	-0.28981784
183	0xbcd5e535	-0.026110271
184	0xbba39e77	-0.0049932557
185	0x3d846ce4	0.06466082
186	0x3e743f36	0.23852238
187	0x3e71d0cb	0.23614804
188	0xbda32ddf	-0.079677336
189	0x3dc4cc99	0.096093364
190	0x3e029888	0.12753499
191	0x3a887340	0.0010410324
192	0x3e56f1eb	0.20990722
193	0xbe0fcebd	-0.14043708
194	0x3e7941f2	0.24341562
195	0x3cb2d83d	0.021831626
196	0xbd0e1932	-0.034691997
197	0x3de04b0f	0.10951816
198	0xbd9165ba	-0.07099481
199	0x3d1bc0e0	0.038025737
200	0x3e642828	0.22280943
201	0xbd227abe	-0.039667837
202	0xbcba39cd	-0.02273264
203	0x3d29515e	0.041337363
204	0xbca572a1	-0.02019626
205	0x3d1323eb	0.035922926
206	0xbc8e9621	-0.017405571
207	0xbdcc3cb5	-0.099725164
208	0xbbca5a49	-0.0061753136
209	0x3dee3419	0.116310306
210	0xbafe1585	-0.0019385075
211	0xbbdcfc8d	-0.0067439736
212	0x3d0a47a6	0.033759736
213	0xbe14fc8f	-0.14549468
214	0x3ea8c91b	0.3296593
215	0xbe49abed	-0.1969449
216	0x3e59f068	0.21283114
217	0x3e36fda7	0.17870198
218	0x3e17cb2d	0.14823599
219	0x3e07a447	0.1324626
220	0x3dd6cc93	0.10488238
221	0x3d13d773	0.03609414
222	0xbdb27de8	-0.08715421
223	0xbe1a50a8	-0.1506983
224	0xbe3d4b67	-0.18485795
225	0xbd9757e4	-0.07389811
226	0x3e169bf8	0.14707935
227	0xbe11c1db	-0.14234106
228	0x3dd08675	0.10181896
229	0x3e4e5947	0.20151244
230	0xbe09f3b6	-0.13471875
231	0xbcda79a9	-0.02666934
232	0x3ccce2e3	0.025010532
233	0x3de83467	0.1133812
234	0x3e3a1e7b	0.1817569
235	0xbc7e749b	-0.015530731
236	0xbe80d968	-0.25165868
237	0xbb1d506e	-0.0024004239
238	0xbe04954a	-0.12947574
239	0xbd356a8d	-0.044291068
240	0x3c328388	0.010895617
241	0x3dd393dd	0.10330937
242	0xbe4993bc	-0.19685262
243	0x3e9c4654	0.30522406
244	0x3e901beb	0.281463
245	0x3da103be	0.07862042
246	0xbd90865c	-0.07056877
247	0xbe26de21	-0.16295673
248	0x3e345dd6	0.1761392
249	0x3e850754	0.25982153
250	0xbd44bbda	-0.04803071
251	0x3e74646e	0.23866436
252	0xbc140430	-0.0090342015
253	0x3e85076c	0.25982225
254	0xbd8dcf56	-0.06924312
255	0x3c8f5e36	0.017500978

encoder.2.attention.in_proj_bias f4 [384]
0	0xbe604e22	-0.21904805
1	0x3e6708af	0.22561906
2	0x3e84d0b5	0.2594048
3	0x3e0c3e5d	0.13695665
4	0xbdd98c9a	-0.10622521
5	0xbe18d8bc	-0.14926428
6	0x3e551a3c	0.20810789
7	0x3c466f6c	0.012111526
8	0xbe837a74	-0.25679362
9	0xbe7dedba	-0.24797717
10	0x3e8477f9	0.25872782
11	0xbe71b82e	-0.23605415
12	0x3e1c0bc3	0.15238862
13	0xbe6ca9aa	-0.23111597
14	0x3e633144	0.22186762
15	0x3e77ce45	0.2419978
16	0x3e1bccb8	0.15214813
17	0xbdc1dad2	-0.09465565
18	0xbe19c78e	-0.1501753
19	0x3e2725a2	0.1632295
20	0x3e2dd588	0.16975987
21	0x3d81adf5	0.06332008
22	0x3e014b6f	0.12626432
23	0x3e0ecb7c	0.1394481
24	0x3e015091	0.1262839
25	0x3e154d5d	0.14580293
26	0xbe10dc42	-0.14146522
27	0x3df524be	0.11969899
28	0x3e143c64	0.14476162
29	0x3dc191e5	0.09451655
30	0x3e44c5ba	0.19216052
31	0xbd81786e	-0.06321798
32	0x3d7614a6	0.060078286
33	0x3d4d1587	0.05006936
34	0xbd42108d	-0.047379065
35	0xbd64681c	-0.05576335
36	0xbd990b25	-0.07472829
37	0x3d96a6d7	0.07356041
38	0x3d721a28	0.059106976
39	0xbd8e0d31	-0.0693611
40	0xbcc2be08	-0.023772255
41	0xbd99aeba	-0.075040296
42	0x3d817911	0.0632192
43	0xbd2eabe4	-0.042644396
44	0x3d38fb95	0.045161802
45	0xbdb2b65a	-0.08726187
46	0x3c9696ca	0.018382449
47	0xbd748962	-0.05970133
48	0xbe7b647a	-0.24550048
49	0x3e7bb56a	0.24580923
50	0x3e7ad4cc	0.24495238
51	0x3e87977d	0.26482764
52	0x3e893bf2	0.26803547
53	0xbe7de062	-0.24792627
54	0x3e68a476	0.22718987
55	0x3e65d4d7	0.22444473
56	0x3e53e94d	0.20694466
57	0x3e78723c	0.24262327
58	0xbe7cea1b	-0.24698679
59	0x3e7c8986	0.24661836
60	0xbe8443f3	-0.2583309
61	0xbe6d1b24	-0.23154885
62	0x3e7e918c	0.24860209
63	0xbe6e9ddd	-0.23302408
64	0xbd4d3ef5	-0.05010887
65	0xbaddf15d	-0.0016932894
66	0x3dce9e7d	0.10088823
67	0xbcb24289	-0.021760242
68	0x3db42ee1	0.08798004
69	0xbd7d6b1e	-0.061869733
70	0xbcbd0b95	-0.023076812
71	0x3d8c41db	0.068484984
72	0x3d5bcb75	0.05366083
73	0xbdda9174	-0.10672274
74	0xbd5d8a5d	-0.05408703
75	0x3d91adbf	0.071132176
76	0x3c5f0c5c	0.013613787
77	0xbc4d98dd	-0.0125486525
78	0xbdac161c	-0.084026545
79	0x3d67b60b	0.056570094
80	0x3e29b876	0.16574273
81	0xbe20e70b	-0.15713136
82	0xbe1a8c46	-0.15092573
83	0x3e24f1d5	0.16107877
84	0xbe03236b	-0.1280648
85	0x3dd369c4	0.103229076
86	0x3df7b4a5	0.12095002
87	0xbe046b33	-0.12931518
88	0xbdec82aa	-0.1154836
89	0x3e0dd42d	0.1385047
90	0x3df4c19b	0.1195099
91	0x3e15586c	0.14584512
92	0xbdfff42e	-0.124977455
93	0xbe1907fa	-0.14944449
94	0xbe11c76b	-0.14236228
95	0x3e082c7d	0.13298221
96	0x3dd460ed	0.103700496
97	0x3d632d89	0.055463348
98	0xbdb45ffe	-0.088073716
99	0xbdc07c67	-0.09398728
100	0xbdabb950	-0.08384955
101	0xbcdd3a04	-0.027005203
102	0x3d97b541	0.07407618
103	0x3d92ae25	0.07162122
104	0xbdd10828	-0.10206634
105	0xbdb068ab	-0.08613714
106	0x3dcd0a20	0.10011697
107	0xbda6f4bf	-0.0815215
108	0xbd6de243	-0.058077108
109	0x3d99af0c	0.07504091
110	0x3da2333e	0.0791993
111	0xbdbf5dcc	-0.09344062
112	0xbd123fdd	-0.035705436
113	0x3e1d085d	0.15335222
114	0xbe16c570	-0.14723754
115	0x3e09e01f	0.13464402
116	0x3e0e993a	0.13925639
117	0x3e1c71d1	0.15277793
118	0xbe0df87f	-0.13864325
119	0xbe236d0f	-0.15959571
120	0xbe0bcba5	-0.13651903
121	0xbe1e856f	-0.15480588
122	0x3de1b0ce	0.11020051
123	0xbe1a2ea9	-0.15056862
124	0xbe1200c1	-0.142581
125	0xbdf8126c	-0.12112889
126	0xbe0ff746	-0.14059171
127	0xbdb980ce	-0.09057771
128	0x3ca52402	0.020158771
129	0x3bf55e7b	0.0074880696
130	0x3c3cdf2d	0.011527819
131	0xbc4a6f5c	-0.012355652
132	0x3c2d624c	0.010582518
133	0x3b39be5a	0.0028342218
134	0xbbf4a963	-0.0074664815
135	0x3b869e45	0.0041082227
136	0xbb36e883	-0.0027909584
137	0xbbae0154	-0.005310217
138	0x3bd42a6f	0.006474785
139	0x3b6d914d	0.0036249936
140	0xbc152576	-0.00910317
141	0x39b74897	0.00034958564
142	0x3b0b4ec4	0.0021256665
143	0x3a17675c	0.00057755946
144	0x3bb66e73	0.005567366
145	0xbb9dc371	-0.004814558
146	0xbbbc33a6	-0.0057434617
147	0x3bb624b3	0.005558574
148	0x3bcf93a4	0.006334739
149	0x3b5128f4	0.003191528
150	0x3bd4fc8e	0.0064998334
151	0x3bf0d414	0.0073495004
152	0x3bb9dec4	0.0056723077
153	0x3bf69065	0.0075245374
154	0xbb927700	-0.0044697523
155	0x3bba6284	0.0056880135
156	0x3bbc40c6	0.0057450263
157	0x3b836e5d	0.004010959
158	0x3bbfa4e7	0.0058485153
159	0xbb15cf84	-0.0022859285
160	0x39554dfa	0.00020342311
161	0x39892ecc	0.00026165543
162	0xbae8d958	-0.0017764969
163	0xba5367d4	-0.0008064483
164	0xbad11d4f	-0.0015954169
165	0x3aeb99df	0.0017974934
166	0x39d38208	0.00040341937
167	0xba97773c	-0.001155592
168	0x3a338958	0.0006848774
169	0xb98e35f5	-0.00027124552
170	0x3a6ddeb9	0.0009074021
171	0xb9aaf93a	-0.00032610615
172	0xba5a331a	-0.0008323655
173	0xbac481ec	-0.0014992333
174	0xba49b6ff	-0.000769481
175	0xbac6e7ed	-0.001517532
176	0x3c040868	0.008058645
177	0xbc1e658f	-0.009667768
178	0xbbc82424	-0.006107824
179	0xbb8f95a5	-0.0043818527
180	0xbbb07430	-0.0053849444
181	0x3b908181	0.0044099693
182	0xbba5583f	-0.00504592
183	0xbc2987ca	-0.010347316
184	0xbb9ad0bd	-0.0047245906
185	0xbbbba511	-0.0057264646
186	0x3c09b2f5	0.008404483
187	0xbbea4788	-0.0071496405
188	0x3b7ea956	0.0038858256
189	0x3bb6837b	0.005569873
190	0xbae449c5	-0.0017417005
191	0x3c0692f5	0.008213748
192	0x3b7e8e97	0.0038842314
193	0xbb9d9135	-0.00480857
194	0xbb36e5e0	-0.0027908012
195	0xbba0b92b	-0.0049048862
196	0xbb500bae	-0.0031745243
197	0x3b8abd3c	0.0042339843
198	0x3b9aa062	0.004718826
199	0xbb4f4345	-0.003162579
200	0xbb34581b	-0.0027518335
201	0x3b6d2e64	0.003619098
202	0x3b8f1faa	0.0043677883
203	0xbb9974e7	-0.0046831253
204	0xbb57dfe6	-0.003293985
205	0x3b734165	0.0037117836
206	0x3b223966	0.002475345
207	0xbb229a94	-0.0024811374
208	0x3c79e2e2	0.015251847
209	0xbc9a2e38	-0.018820867
210	0xbc5a069c	-0.01330724
211	0x3c81b125	0.01583154
212	0xbc83d2e7	-0.016091777
213	0x3c6636c0	0.014051139
214	0x3c85afe1	0.016319217
215	0xbc8129bb	-0.015766969
216	0xbc8776c3	-0.016536122
217	0x3c90c6e3	0.017672962
218	0x3c68e3f8	0.014214508
219	0x3c7a0b67	0.015261508
220	0xbc5864cb	-0.013207625
221	0xbc4df5fa	-0.012570852
222	0xbc848a01	-0.016179087
223	0x3c9cb9b7	0.019131524
224	0x39953c90	0.00028464617
225	0x38f696d4	0.00011758288
226	0xba1b216f	-0.0005917763
227	0xbaa533ef	-0.0012603978
228	0xba0f21e9	-0.000546007
229	0xb97ae224	-0.00023926102
230	0x3a76e97c	0.0009418947
231	0x39c281bf	0.00037099232
232	0xb8f3cc79	-0.00011625229
233	0xb962c2b8	-0.00021625578
234	0x3aec0744	0.0018007536
235	0xb99ba73e	-0.0002968851
236	0x39c11a50	0.00036831433
237	0x3ad9e310	0.0016623456
238	0xb9bd8981	-0.00036151338
239	0xba1b4165	-0.00059225253
240	0x3bc14f1e	0.005899324
241	0xbacc0356	-0.0015564959
242	0xba24fb97	-0.00062935933
243	0x3b7d4e9a	0.0038651587
244	0x3ab52c29	0.0013822365
245	0x3b370ae9	0.0027930087
246	0xba81af5a	-0.0009894178
247	0xbb315fe8	-0.0027065221
248	0x3a9244dc	0.0011159438
249	0x3aacbeca	0.0013179418
250	0xba7314b1	-0.00092727976
251	0xbb34a229	-0.0027562475
252	0xbb29b057	-0.002589246
253	0x3b0cc6a1	0.0021480697
254	0x39c865ae	0.0003822273
255	0xba90dd02	-0.0011052194

encoder.2.attention.out_proj.weight f4 [128, 128]
0	0x3d883440	0.06650591
1	0x3d8cfe5b	0.06884452
2	0xbc99a5d6	-0.018755835
3	0x3d8ba2ad	0.06818137
4	0x3d9c0547	0.07618194
5	0xbafbd1c9	-0.0019212301
6	0xbd8ed23b	-0.06973692
7	0xbdd82534	-0.10553971
8	0xbd0973f3	-0.033557843
9	0xbcc204b6	-0.023683887
10	0x3d6343c8	0.055484563
11	0xbdceadf6	-0.10091774
12	0xbd4ef6a6	-0.05052819
13	0xbd1639ae	-0.0366761
14	0xbc3eced2	-0.0116459895
15	0xbd66076b	-0.056159418
16	0xbcd2be94	-0.02572564
17	0xbd40ce8a	-0.04707197
18	0x3d1e29ed	0.038614202
19	0x3d95870e	0.0730115
20	0xbd9f289f	-0.0777142
21	0x3c7b4cfb	0.015338178
22	0xbd005367	-0.03132954
23	0x3d49083f	0.04908013
24	0x3b989b67	0.0046571973
25	0x3d82cd12	0.0638677
26	0x3d8ccfd0	0.068755746
27	0x394deee6	0.0001963932
28	0xbc31021c	-0.010803726
29	0xbc150c38	-0.009097151
30	0xbd922ac6	-0.07137065
31	0xbd5b18ac	-0.053490326
32	0xbd2c3d99	-0.04205093
33	0xbc713716	-0.014722606
34	0xbc02ecfa	-0.00799107
35	0xbd57f940	-0.052727938
36	0xbe0bbd4c	-0.1364643
37	0xbcbee3bb	-0.02330195
38	0x3cd72cce	0.026266482
39	0xbe19570d	-0.14974613
40	0xbdc6bfc1	-0.09704543
41	0xbc5f884e	-0.013643337
42	0xbd9cd54a	-0.07657869
43	0x3ba1a688	0.004933182
44	0xbd82914b	-0.06375369
45	0x3c8da013	0.017288243
46	0x3b29a8ff	0.0025888083
47	0x3cec0a5b	0.028813532
48	0x3a712452	0.00091988326
49	0xbd85f8a7	-0.06541567
50	0xbd6a3f03	-0.057189
51	0x3cf300d9	0.02966349
52	0x3d754f1d	0.0598899
53	0xbdd6ec2f	-0.10494267
54	0xbd40c49f	-0.047062512
55	0x3d9f9208	0.07791525
56	0xbdd3e6f1	-0.10346783
57	0x3c37621d	0.011192826
58	0xbd884460	-0.066536665
59	0xbc43657f	-0.011926054
60	0x3cbb4a67	0.022862626
61	0xbc9289fa	-0.017888058
62	0xbd044a16	-0.032297216
63	0xbd595cc2	-0.053066976
64	0x3c7685c3	0.01504654
65	0xbdc030b2	-0.09384288
66	0x3ce14496	0.027498525
67	0xbd68c71a	-0.056830503
68	0x3dc6a3db	0.09699222
69	0xbc3e1402	-0.01160145
70	0x3c1b2684	0.009469632
71	0xbcbeb2d6	-0.023278635
72	0xbd55fb8e	-0.052241854
73	0xbdd2ffc7	-0.10302692
74	0xbc4c13da	-0.012455905
75	0x3de08134	0.109621435
76	0x3e01c305	0.1267205
77	0x3ba2a146	0.004963073
78	0xbd62b3ce	-0.055347256
79	0xbc4c3084	-0.012462739
80	0xbd4406e6	-0.04785814
81	0xbda4fc4a	-0.08055933
82	0x3cd7e373	0.026353573
83	0xbd2046d4	-0.039130047
84	0x3d2c574c	0.04207544
85	0x3cad59ca	0.021160979
86	0x3c6c4340	0.0144203305
87	0x3c31970c	0.010839235
88	0xbdc51c23	-0.09624507
89	0x3ceba084	0.028763063
90	0x3d9fe09f	0.07806515
91	0xbb246860	-0.0025086626
92	0xbdbc9d0a	-0.0920964
93	0x3dc0b8ae	0.09410225
94	0xbd4bc65f	-0.04974973
95	0x3d93a7e9	0.07209761
96	0xbd238092	-0.039917536
97	0x3d51b3cd	0.051196862
98	0xbdc96656	-0.09833972
99	0x3cfb2365	0.030656526
100	0x3cd5edb3	0.02611432
101	0x3d84db57	0.06487148
102	0xba9f9412	-0.0012174866
103	0x3bb99eba	0.0056646736
104	0xbd819fa2	-0.06329276
105	0xbc8c7132	-0.01714382
106	0x3dc67191	0.0968963
107	0xbcb3b656	-0.02193753
108	0xbd93da49	-0.07219369
109	0xbd2aac6d	-0.041668344
110	0xbd05fe1d	-0.032713044
111	0xbd262d25	-0.040570397
112	0x3c8eb5a1	0.017420592
113	0xbd14faf9	-0.03637216
114	0xbcc8bf85	-0.024505386
115	0x3d9e5561	0.077311285
116	0x3d53bcee	0.05169385
117	0x3cd4c7e0	0.025974214
118	0xbd85a855	-0.065262474
119	0x3c8310d7	0.01599924
120	0xbd0bea67	-0.03415909
121	0x3c0c3d35	0.008559515
122	0x3d6b2f4a	0.057418145
123	0xbd0f5372	-0.03499169
124	0xbd972702	-0.07380487
125	0xbd00e779	-0.03147075
126	0x3d3ba42d	0.045810867
127	0xbd0d32ba	-0.034472205
128	0x3d1cddd4	0.03829749
129	0x3d6b795f	0.057488795
130	0x3d67797a	0.056512333
131	0xbd1a58e5	-0.037682433
132	0xbdb93945	-0.090441264
133	0xbd35b000	-0.0443573
134	0x3ce249cd	0.027623082
135	0x3da527a3	0.08064201
136	0xbca6ec4c	-0.020376347
137	0xbd21c93a	-0.039498545
138	0x3d84c17c	0.06482217
139	0x3d57081b	0.052497964
140	0x3c8fc1f0	0.017548531
141	0xbd686d37	-0.05674478
142	0x3d4d50ef	0.050126012
143	0xbcd3b811	-0.025844606
144	0x3d99b824	0.07505825
145	0x3bd35064	0.0064487923
146	0xbca4c15b	-0.02011173
147	0x3c302a5b	0.010752286
148	0xbca44b0a	-0.020055313
149	0x3d7d4375	0.06183191
150	0x3d1d463d	0.038397063
151	0x3d18afbe	0.037276976
152	0x3cd7a40e	0.026323345
153	0xbd480e02	-0.048841484
154	0x3debe9f7	0.11519235
155	0xbd73f368	-0.059558302
156	0xbb984bbd	-0.0046477006
157	0x3c0cbf68	0.008590557
158	0x3cdb5a51	0.026776465
159	0xbdbdf375	-0.09274951
160	0xbcaf4f58	-0.021400139
161	0x3d4dd682	0.0502534
162	0xbd9ac6f6	-0.0755748
163	0xbdca3d7b	-0.09875008
164	0x3d99fade	0.07518552
165	0x3d178e4c	0.03700094
166	0x3c83bdcf	0.016081719
167	0x3d8c7c44	0.06859639
168	0x3c6e8322	0.014557632
169	0x3de9f704	0.114240676
170	0x3cf0b4b9	0.02938305
171	0x38c5a5e1	9.4245894e-05
172	0xbd181a97	-0.037134733
173	0x3c81cd4d	0.015844965
174	0x3de3f455	0.11130587
175	0x3dcdf1b1	0.100558646
176	0x3cab2cec	0.020895444
177	0x3caf1ffa	0.021377552
178	0xbd1b9931	-0.03798789
179	0x3dc6ee0d	0.09713373
180	0xbd20ca05	-0.03925516
181	0x3db8b456	0.09018771
182	0xbd98d41e	-0.07462333
183	0x3d68bc3c	0.05682014
184	0x3de64a27	0.11244612
185	0xbd23c63c	-0.039983973
186	0x3ca30dec	0.0199041
187	0x3c8b07a8	0.016971424
188	0x3a57edda	0.0008237042
189	0xbd744c94	-0.059643343
190	0x3cce09ba	0.025151122
191	0x3cd40d71	0.025885316
192	0xbc8f9eee	-0.017531838
193	0x3d456b60	0.048198104
194	0xbd9dc292	-0.07703127
195	0x3cd84d4e	0.02640405
196	0xbd5d88bd	-0.054085482
197	0xbdc70041	-0.09716845
198	0xbd4c9c49	-0.049953733
199	0x3cd241b5	0.025666097
200	0xbd52314f	-0.051316556
201	0x3d7a20d5	0.061066467
202	0x3d9013c1	0.07035018
203	0xbd2ac8d8	-0.041695446
204	0xbd45c211	-0.04828078
205	0x3d844864	0.0645912
206	0xbd8ef6eb	-0.069806896
207	0x3d928f8c	0.07156286
208	0x3d51505b	0.051102024
209	0x3c488d21	0.012240679
210	0x3c2f0d47	0.010684318
211	0xbd085b05	-0.033289928
212	0xbd7c0f14	-0.061537817
213	0x3cba7f9d	0.022765929
214	0xbd890b7b	-0.06691643
215	0x3cd52734	0.02601967
216	0x3c495a7d	0.0122896405
217	0xbd815c04	-0.06316379
218	0xbd634872	-0.05548901
219	0x3ca3e846	0.020008218
220	0x3a8f6fa9	0.0010943311
221	0xbd7d81ac	-0.061891243
222	0xbd5168a6	-0.05112519
223	0x3d4f91de	0.05067622
224	0x3dc07462	0.09397198
225	0x3d81801a	0.063232616
226	0x3d1fe3a7	0.039035466
227	0x3d821210	0.063511014
228	0xbdabbf03	-0.08386042
229	0x3ce1f7d7	0.027584
230	0x3ca7d4e5	0.020487258
231	0x3d1e3c45	0.038631696
232	0xbdadb88e	-0.08482467
233	0x3c7ebcec	0.015547972
234	0x3c9dcc0c	0.019262336
235	0xbd588e22	-0.052869923
236	0x3da4eddc	0.080531806
237	0x3b88b69d	0.00417216
238	0xbd5dc57e	-0.05414342
239	0x3d321c7d	0.0434842
240	0x3c5d5e3c	0.013511237
241	0x3c9af656	0.01891629
242	0xbc6b7376	-0.01437079
243	0x3c42806d	0.011871439
244	0xbd2cedf5	-0.04221912
245	0x3d34eda8	0.04417196
246	0xbd029fae	-0.031890564
247	0x3d526aec	0.0513715
248	0xbdca7c61	-0.09887005
249	0xbd915143	-0.070955776
250	0xbc956d0f	-0.01824048
251	0x3ac990d2	0.0015378243
252	0x3da8557b	0.08219429
253	0xbc0d6475	-0.008629908
254	0x3d9ff7cf	0.078109376
255	0x3c84667e	0.016162153

encoder.2.attention.out_proj.bias f4 [128]
0	0xbca640ff	-0.020294664
1	0xbb38e7f6	-0.0028214431
2	0xbd1286bc	-0.035773024
3	0x3c98c6d7	0.018649502
4	0x3cc961f8	0.024582848
5	0x3d4b1183	0.049577247
6	0xbbe4c7de	-0.006981834
7	0xbb3cbd43	-0.0028799332
8	0xbd0b9dd0	-0.03408605
9	0x3d890a19	0.06691379
10	0xbd465eff	-0.04843044
11	0x3d5c4150	0.053773224
12	0x3d05c489	0.032658134
13	0x3c877332	0.016534422
14	0xbcdcd8b5	-0.026958803
15	0xbc8601b9	-0.016358243
16	0xbbc9386e	-0.00614076
17	0x3d012018	0.031524748
18	0xbc6eaca1	-0.014567525
19	0xbb817de1	-0.0039517735
20	0xbc0db32f	-0.008648678
21	0x3cb98ef4	0.022651173
22	0x3d409871	0.04702038
23	0xbc6dccea	-0.014514187
24	0x3d0858da	0.03328786
25	0xbd012ab3	-0.03153486
26	0xbd154f5e	-0.036452644
27	0x3b5fc621	0.0034145194
28	0x3d43410a	0.047669448
29	0x3d39ad56	0.04533132
30	0x3c8f50bc	0.017494552
31	0xba3c9bff	-0.0007194876
32	0xbcb1602c	-0.021652304
33	0xbd05c2c7	-0.032656457
34	0x3cb1a669	0.021685796
35	0x3c2c51ca	0.010517547
36	0xbc7f6c6e	-0.0155898165
37	0xbc75084c	-0.014955591
38	0x3da46f05	0.08028988
39	0x3d82bebf	0.06384038
40	0x3ce38274	0.027772166
41	0x3d5b2399	0.053500745
42	0x3d336de4	0.04380597
43	0xbc02f91a	-0.007993961
44	0xbc97b570	-0.018519133
45	0xbc931cb4	-0.017958023
46	0x3c07dd59	0.0082925195
47	0x3c7ec192	0.01554908
48	0x3ad2a30a	0.0016070318
49	0x3ccee917	0.02525763
50	0xbcb5aae2	-0.02217621
51	0x3d28e576	0.041234456
52	0x3d0dc5cd	0.034612466
53	0x3d335bac	0.043788597
54	0xbcf3a1f6	-0.029740315
55	0xbb4d5e94	-0.003133689
56	0x3d10a492	0.035313196
57	0xbc419afd	-0.011816737
58	0xb8679ec8	-5.522257e-05
59	0x3d3a248c	0.04544501
60	0xbd08916a	-0.033341803
61	0xbc1afafa	-0.009459252
62	0xbc8e913e	-0.017403241
63	0x3c2a00e0	0.010376185
64	0x3bbac4d3	0.005699733
65	0xbc3762e1	-0.011193008
66	0x3cc5422a	0.024079401
67	0x3d6785d5	0.056524117
68	0xbb1c2ef2	-0.0023831693
69	0x3b882da0	0.0041558295
70	0x3c7f4d87	0.015582449
71	0x3c8291dd	0.015938694
72	0x3d0b1479	0.03395507
73	0xbd23631a	-0.039889432
74	0x3c772deb	0.015086631
75	0xbc387983	-0.011259439
76	0x3ca5a44b	0.020219943
77	0x3b360898	0.0027776118
78	0xb9d539f1	-0.00040669696
79	0x3d546640	0.051855326
80	0xbc880f89	-0.01660897
81	0xbc58fb2d	-0.013243479
82	0xbd09c667	-0.033636477
83	0xbce24453	-0.02762047
84	0xbcd04947	-0.025425566
85	0xbc643387	-0.013928301
86	0x3c9093a4	0.017648526
87	0xbc5001b4	-0.012695719
88	0x3d4ce6c6	0.05002477
89	0xbc8436bf	-0.016139386
90	0x3d061005	0.03273012
91	0xbc3da6b9	-0.011575394
92	0xbcb7fb95	-0.02245883
93	0x3d86637a	0.065619424
94	0x3c854196	0.016266625
95	0xbcaffc7b	-0.021482697
96	0x3bf49ed1	0.0074652215
97	0xbc6f46bf	-0.0146042695
98	0xbb80e7cc	-0.0039338823
99	0xbc430d6a	-0.011905054
100	0xbd2a8c18	-0.04163751
101	0x3d5ef685	0.054434318
102	0xbd2b52a2	-0.04182685
103	0xbc36cdce	-0.011157466
104	0xbcfdc43a	-0.030977357
105	0xbd1ed786	-0.038779758
106	0x3c856ba0	0.016286671
107	0xbcc9a24f	-0.024613528
108	0xbd0d9052	-0.034561463
109	0xbc82fdc0	-0.015990138
110	0xbd16b85c	-0.036796913
111	0xbc9983dc	-0.018739633
112	0x39837460	0.00025072973
113	0xbc8aea1f	-0.01695734
114	0xbd2b99c3	-0.041894685
115	0x3d1d8fad	0.038467098
116	0x3ce51cb2	0.027967785
117	0x3cde04a1	0.027101817
118	0xba832d55	-0.0010008017
119	0xbc463dec	-0.012099724
120	0x3c9efcec	0.019407712
121	0x3c9bfdd0	0.019041926
122	0xbd06ac21	-0.032879
123	0x3d15d465	0.03657951
124	0xbb944817	-0.0045251953
125	0x3cbe5e4b	0.023238322
126	0xbce18b18	-0.027532145
127	0xbca486a1	-0.020083727

encoder.2.layer_norm.weight f4 [128]
0	0x3f6c2c9c	0.9225557
1	0x3f69d0a0	0.9133396
2	0x3f7d93c1	0.9905358
3	0x3f6da0ff	0.92823786
4	0x3f88c658	1.068553
5	0x3f678de2	0.9045087
6	0x3f825d4e	1.0184724
7	0x3f5f1e2a	0.871554
8	0x3f757f2e	0.95897186
9	0x3f7d0216	0.9883131
10	0x3f809c32	1.0047667
11	0x3f66a8fb	0.90101594
12	0x3f76864c	0.9629867
13	0x3f69707a	0.9118725
14	0x3f7382f5	0.951217
15	0x3f665868	0.8997865
16	0x3f76f2ff	0.9646453
17	0x3f87079a	1.0549195
18	0x3f6c5add	0.92326146
19	0x3f78e5fd	0.97225934
20	0x3f80ee1a	1.0072663
21	0x3f85b627	1.0446213
22	0x3f575c9d	0.8412569
23	0x3f6d5302	0.92704785
24	0x3f5739d2	0.840726
25	0x3f74374a	0.95396864
26	0x3f69ebae	0.91375244
27	0x3f73db17	0.9525618
28	0x3f666595	0.8999875
29	0x3f68d765	0.90953666
30	0x3f722fe7	0.94604343
31	0x3f797301	0.9744111
32	0x3f6da427	0.928286
33	0x3f8e0afd	1.1097103
34	0x3f6c56a7	0.9231972
35	0x3f6575ca	0.89632857
36	0x3f73d08b	0.95240086
37	0x3f6ecda6	0.93282545
38	0x3f83ae81	1.0287629
39	0x3f761b57	0.9613547
40	0x3f715338	0.94267607
41	0x3f6ec136	0.93263566
42	0x3f75f50b	0.9607703
43	0x3f7197ba	0.9437214
44	0x3f81d444	1.0142903
45	0x3f6d0286	0.92581975
46	0x3f67b543	0.9051096
47	0x3f87cf43	1.0610126
48	0x3f819d64	1.0126157
49	0x3f8c45fd	1.0958859
50	0x3f6c3131	0.9226256
51	0x3f81eef5	1.0151049
52	0x3f86f223	1.0542644
53	0x3f640d7d	0.8908308
54	0x3f8e5556	1.1119792
55	0x3f776724	0.96641755
56	0x3f710fc0	0.9416466
57	0x3f72de6d	0.94870645
58	0x3f6c2b38	0.92253447
59	0x3f699d39	0.9125553
60	0x3f5fea8d	0.8746727
61	0x3f6c6aab	0.9235026
62	0x3f8174ab	1.0113729
63	0x3f6801be	0.9062766
64	0x3f7743da	0.9658791
65	0x3f7afd29	0.9804254
66	0x3f6f6dde	0.9352702
67	0x3f76744c	0.96271205
68	0x3f74110d	0.9533852
69	0x3f767337	0.96269554
70	0x3f682565	0.9068206
71	0x3f714670	0.94248104
72	0x3f82bf0c	1.0214553
73	0x3f81174e	1.0085237
74	0x3f5b81f3	0.8574516
75	0x3f63a362	0.8892118
76	0x3f752abe	0.95768344
77	0x3f6ccf33	0.9250366
78	0x3f757e1d	0.9589556
79	0x3f721637	0.9456515
80	0x3f68654a	0.90779555
81	0x3f7214e8	0.9456315
82	0x3f715033	0.94263
83	0x3f6e0095	0.9296964
84	0x3f704f90	0.938714
85	0x3f6fcbac	0.93670154
86	0x3f8148de	1.0100362
87	0x3f8b55c0	1.0885544
88	0x3f6e411b	0.93068093
89	0x3f6fcde6	0.9367355
90	0x3f6bc296	0.9209379
91	0x3f6d6dc7	0.9274563
92	0x3f680e40	0.90646744
93	0x3f7ce910	0.98793125
94	0x3f7639d4	0.9618199
95	0x3f8027aa	1.0012105
96	0x3f7fb3f0	0.9988394
97	0x3f7d0213	0.9883129
98	0x3f736829	0.9508081
99	0x3f909bd2	1.1297553
100	0x3f77bf95	0.96776706
101	0x3f672d44	0.90303445
102	0x3f927512	1.1441977
103	0x3f57985c	0.84216857
104	0x3f6bce22	0.9211141
105	0x3f64a64c	0.8931625
106	0x3f625e9c	0.8842561
107	0x3f7a1cb9	0.9770008
108	0x3f91bd16	1.138583
109	0x3f68b9f7	0.9090876
110	0x3f6a128d	0.91434556
111	0x3f6f2149	0.93410164
112	0x3f4e8abc	0.8068044
113	0x3f685aaa	0.9076334
114	0x3f93805a	1.1523545
115	0x3f8a6f08	1.0815134
116	0x3f7a91a9	0.9787851
117	0x3f717e97	0.94333786
118	0x3f701f8a	0.93798125
119	0x3f8bb561	1.0914727
120	0x3f6d2cbe	0.92646396
121	0x3f8777d3	1.0583442
122	0x3f809b38	1.0047369
123	0x3f6599e8	0.8968797
124	0x3f6bf21e	0.92166317
125	0x3f89076a	1.0705388
126	0x3f87b39d	1.0601689
127	0x3f771d6c	0.9652927

encoder.2.layer_norm.bias f4 [128]
0	0x3be5b22d	0.0070097656
1	0x3b5d2a04	0.0033746967
2	0xbbbfea96	-0.0058568222
3	0xbbff4b1c	-0.007790936
4	0x3c2ca15a	0.010536516
5	0x3d485a1c	0.04891406
6	0xbd4c9dbe	-0.049955122
7	0x3ba032a3	0.004888849
8	0xbc965fc9	-0.01835622
9	0x3c9cbcbd	0.019132966
10	0xbbc2cbfd	-0.0059447275
11	0x3cb64236	0.022248369
12	0xbc0724c1	-0.008248509
13	0x3c66fbe9	0.014098146
14	0x3c89cb8b	0.01682069
15	0x3cbe7db9	0.023253309
16	0x3c80f52b	0.015741905
17	0x3cc60825	0.024173805
18	0xbc9a09cf	-0.018803505
19	0xbc831c89	-0.016004818
20	0x395fa78e	0.00021329356
21	0x3d12a98d	0.035806227
22	0x3d628b82	0.055308826
23	0xbb96071f	-0.0045784856
24	0x3d071ee0	0.03298843
25	0xbcca829d	-0.024720484
26	0xbbd12367	-0.006382394
27	0x3d2668b6	0.040627204
28	0x3b6c0798	0.0036015268
29	0x3cf48262	0.029847328
30	0xbbd9bb59	-0.006644648
31	0x3ccd1c3f	0.025037883
32	0xbc5eac82	-0.013590934
33	0xbcd2adf8	-0.02571772
34	0xbcb8b7c1	-0.022548558
35	0x3d0e6bd8	0.034770817
36	0xbc9a7192	-0.018852983
37	0xbc8f1660	-0.017466724
38	0x3d91b567	0.07114678
39	0x3d395003	0.04524232
40	0x3d1531b9	0.036424372
41	0x3d8ba5a5	0.068187036
42	0xbcaa0b9c	-0.020757489
43	0xbc81c917	-0.015842957
44	0xbcd78eb9	-0.026313173
45	0xbc351768	-0.011052944
46	0xbce38f21	-0.02777821
47	0x3b49e3dd	0.0030805983
48	0xbbd00412	-0.0063481415
49	0x3b89483a	0.0041895183
50	0xbce3358b	-0.027735492
51	0x3d35fe6f	0.0444321
52	0x3d15b43c	0.036548838
53	0x3d26d73f	0.04073262
54	0xbc941df1	-0.018080683
55	0xbc44b63a	-0.012006337
56	0xbb8778d0	-0.004134275
57	0xbc57cb39	-0.013171011
58	0xbd3418a6	-0.04396882
59	0x3bc48960	0.0059978217
60	0x3b40ac13	0.002939944
61	0xbc592d39	-0.013255411
62	0xbba3a28b	-0.004993742
63	0x3ba24a3d	0.0049526975
64	0xbc0f606c	-0.008751016
65	0x3a2f7261	0.0006692764
66	0xbc69d96a	-0.014273027
67	0x3c9e74a3	0.019342726
68	0xbcfc6aa0	-0.030812562
69	0xbb658e3d	-0.0035027408
70	0x3d4a9f21	0.049468163
71	0xbbd70d0c	-0.0065628346
72	0x3d313352	0.043261833
73	0xbd08af4a	-0.033370294
74	0x3aff3200	0.0019469857
75	0x3c1c95c6	0.009557193
76	0x3c941141	0.018074634
77	0xbcabaf3e	-0.020957585
78	0xbc6402f6	-0.013916722
79	0x3cb9d872	0.022686217
80	0x3aaab6c8	0.0013024444
81	0xbd40c0a9	-0.047058735
82	0x3c2dcd53	0.010608035
83	0xbcd6c1be	-0.02621543
84	0xbcc3097c	-0.023808233
85	0xbb936efd	-0.004499315
86	0x3a544e23	0.00080988015
87	0xbc585077	-0.013202778
88	0x3d124f26	0.035720013
89	0xbbec4765	-0.0072106593
90	0x3cb7a64a	0.02241816
91	0xbc37eef6	-0.011226406
92	0xbb5e57fe	-0.003392696
93	0x3d868eb3	0.065701865
94	0x3d5909bc	0.0529878
95	0xbd0c56a8	-0.03426233
96	0x3ceefdd3	0.029173767
97	0xbcf93b75	-0.03042386
98	0xbb166bf2	-0.0022952524
99	0xbb834ee9	-0.0040072096
100	0xbd112474	-0.035435155
101	0x3cf6c70e	0.030124214
102	0xbcdeca25	-0.027196
103	0x3bf3cc4a	0.0074401246
104	0xba82168d	-0.0009924934
105	0xbd08869d	-0.033331502
106	0xbc8a0861	-0.016849698
107	0xbd2ca9e8	-0.042154223
108	0xbc9a73d5	-0.018854061
109	0x3ca4613a	0.020065892
110	0xbcbc4d11	-0.022985967
111	0xbc97cc65	-0.01853008
112	0x3c9df473	0.019281602
113	0xbd76a945	-0.06022002
114	0xbceb4a9b	-0.028722098
115	0x3d1b6729	0.037940178
116	0x3c325314	0.010884065
117	0x3cdef418	0.027216002
118	0x3b6e5ae0	0.0036370084
119	0xbca1fcd6	-0.019773882
120	0xbb171acf	-0.002305675
121	0x3ce7e499	0.028307246
122	0xbd65385d	-0.055961955
123	0x3d4dc8dd	0.050240386
124	0xbc0a0e2f	-0.008426233
125	0x3c5cf7b7	0.013486794
126	0xbcaeca5d	-0.021336729
127	0x3c82b7d0	0.01595679

encoder.3.attention.in_proj_weight f4 [384, 128]
0	0xbe27928f	-0.16364501
1	0xbc24ade2	-0.0100512225
2	0x3d686ca3	0.05674423
3	0x3dbfc38f	0.09363472
4	0xbc1d40a4	-0.009597931
5	0x3b9d215a	0.0047952356
6	0x3e2aa922	0.16666082
7	0xbc4acbe0	-0.012377709
8	0x3d945a11	0.07243741
9	0xbc72b86d	-0.014814478
10	0xbd4c639a	-0.049899675
11	0x3d04142c	0.0322458
12	0x3e23c6ef	0.15993856
13	0xbb435407	-0.0029804723
14	0xbddd4c9f	-0.1080563
15	0x3d5b889d	0.05359708
16	0xbd53dd57	-0.051724758
17	0x3da0cd4d	0.07851658
18	0x3d61183e	0.05495476
19	0xbb91db60	-0.0044512004
20	0xbdeebbcb	-0.116569124
21	0x3e04dc27	0.12974606
22	0xbd6a9509	-0.057271037
23	0xbcd42c4b	-0.025900027
24	0x3b719afc	0.003686606
25	0x3d3f8b96	0.04676398
26	0x3d143c22	0.03619016
27	0xbcd8b925	-0.026455471
28	0x3d98f894	0.074692875
29	0x3cbc2945	0.022968898
30	0x3d964183	0.07336714
31	0x3da5ea75	0.0810136
32	0x3d41dcf6	0.047329865
33	0xbdce0e56	-0.10061328
34	0xbd98e704	-0.07465938
35	0xbe34da2a	-0.17661348
36	0x3dde2000	0.10845947
37	0x3d18a43f	0.037266012
38	0xbc677a13	-0.014128226
39	0x3d166c24	0.036724225
40	0xbc2fbc69	-0.010726073
41	0x3c7030a7	0.014660037
42	0x3e0a3fae	0.13500854
43	0x3cd1fdeb	0.025633773
44	0x3e33e887	0.17569171
45	0xbd94459a	-0.07239838
46	0x3e430021	0.19043018
47	0x3d80d97c	0.06291482
48	0xbd6028ae	-0.054726295
49	0x3d0b8647	0.034063604
50	0x3e19ffb7	0.15038954
51	0x3c242100	0.010017633
52	0xbdcd8ad4	-0.10036245
53	0x3bffd395	0.007807205
54	0xbe245ac3	-0.16050248
55	0x3d6e1e05	0.058134098
56	0x3dbc24fd	0.091867425
57	0x3d05948a	0.03261236
58	0x3d31753d	0.043324698
59	0x3c2d6bc2	0.0105847735
60	0x3dd62b0e	0.10457431
61	0x3e0650b2	0.1311672
62	0x3e2ba282	0.1676121
63	0x3da9ca14	0.082904965
64	0x3d1ce640	0.03830552
65	0xbe66288e	-0.22476408
66	0x3e1eda29	0.15512909
67	0x3db61306	0.08890347
68	0x3cab2541	0.020891787
69	0xbdb34bcb	-0.08754691
70	0xbd3cbaa6	-0.04607644
71	0xbd9c3526	-0.07627325
72	0x3cd59dfd	0.026076311
73	0xbd181d76	-0.03713747
74	0xbd8ac511	-0.06775869
75	0x3cc0dbc7	0.023542298
76	0x3d8cf59e	0.06882785
77	0xbd10cf14	-0.035353735
78	0xbba9141c	-0.005159868
79	0x3cb8feec	0.022582494
80	0x3d939e70	0.07207954
81	0xbbd02a52	-0.006352701
82	0x3d6a94c1	0.05727077
83	0x3dd99bd9	0.10625429
84	0x3d8e37b1	0.06944216
85	0xbe38fa8c	-0.18064326
86	0x3d506b53	0.050883602
87	0xbddec498	-0.10877341
88	0x3d4efbe4	0.05053319
89	0x3987e7d3	0.0002592193
90	0x3cc4f208	0.02404119
91	0xbc7e269e	-0.015512137
92	0xbd8639b3	-0.06553974
93	0x3cb1362b	0.021632275
94	0xbd6dc270	-0.05804676
95	0xbcb846fc	-0.022494785
96	0xbe2cfff7	-0.16894518
97	0x3e054aa8	0.1301676
98	0x3d27e2c4	0.040987745
99	0xbe1a0b2e	-0.15043327
100	0x3d819014	0.06326309
101	0x3d419054	0.047256783
102	0xbb618128	-0.0034409259
103	0x3c13dfff	0.009025573
104	0x3ccf8024	0.025329657
105	0x3db0b699	0.08628578
106	0xbd264cc2	-0.040600546
107	0xbd14be11	-0.036314074
108	0xbd038e2a	-0.032118
109	0xbcca2494	-0.024675645
110	0xbdb841eb	-0.08996948
111	0xbc033d47	-0.008010215
112	0xbd933134	-0.07187119
113	0xbe05d886	-0.13070878
114	0x3db4d80f	0.088302724
115	0xbd927fb7	-0.07153266
116	0x3d1202dc	0.03564726
117	0xbd5aaaa0	-0.053385377
118	0xbdb1820a	-0.08667381
119	0xbe6cf6a6	-0.23140964
120	0x3dfac1bb	0.122439824
121	0x3d07b6be	0.03313326
122	0xbca43be6	-0.020048093
123	0xbdecfd4f	-0.11571752
124	0x3daa267b	0.08308121
125	0xbd6cea3c	-0.05784057
126	0x3b117b35	0.0022198681
127	0x3d422e66	0.04740753
128	0xbded9c85	-0.11602119
129	0x3dbabfa8	0.09118587
130	0xbe124343	-0.14283471
131	0xbd6ff572	-0.058583684
132	0xbcaf0d58	-0.021368667
133	0xbd3a364f	-0.04546195
134	0x3d9c4cf7	0.076318674
135	0xbd27e61d	-0.040990938
136	0x3c006e74	0.007838834
137	0xbd57688c	-0.052589938
138	0xbcafb23a	-0.02144729
139	0x3db50eff	0.08840751
140	0x3cd34fa0	0.025794804
141	0x3d911e27	0.07085829
142	0x3da84004	0.08215335
143	0xbd319f1c	-0.04336463
144	0x3c9dd3b2	0.019265983
145	0xbc76c80e	-0.015062345
146	0xbc90bf3a	-0.017669309
147	0xbd9e7711	-0.07737554
148	0xbe01fac4	-0.12693316
149	0xbda03128	-0.07821876
150	0x3cd427b3	0.025897836
151	0x3dde3532	0.1084999
152	0x3d21dbac	0.039516136
153	0xbd359ac8	-0.044337064
154	0x3da65cb8	0.081231534
155	0xbdc8aa4e	-0.09798108
156	0x3e252256	0.1612638
157	0x3d3961ca	0.045259275
158	0x3d6bc0a4	0.057556763
159	0x3daca619	0.08430118
160	0x3ccb949f	0.024851141
161	0x3db8e1ee	0.09027468
162	0x3c562705	0.013070826
163	0xbd3a3e5b	-0.045469623
164	0x3c2762ad	0.010216397
165	0x3c862d14	0.016378917
166	0xbcc2893a	-0.023747075
167	0xbd07616f	-0.033051904
168	0xbd82418c	-0.06360158
169	0x3c198132	0.0093691815
170	0xbd261650	-0.040548623
171	0x3d9bee59	0.076138206
172	0xbc89795b	-0.0167815
173	0x3d72ee22	0.059309132
174	0xbd73791d	-0.059441675
175	0x3d998b52	0.07497276
176	0x3dc12ca7	0.09432345
177	0xbd77e794	-0.060523584
178	0x3ddc1217	0.10745638
179	0x3dff9172	0.12478913
180	0xbdc5e3cf	-0.09662592
181	0x3e04f83c	0.12985319
182	0x3d766b89	0.060161147
183	0xbe2f6c4a	-0.17131153
184	0x3d2ee0f2	0.042694993
185	0x3dc2a80c	0.09504709
186	0xbc119a33	-0.008886862
187	0xbd9e8c54	-0.07741609
188	0x3db7a660	0.089672804
189	0x3e14953b	0.14510052
190	0xbe3aaad5	-0.1822923
191	0x3cfb2996	0.030659478
192	0x3d8ea8f1	0.06965817
193	0xbd5d0d4d	-0.053967763
194	0x3df641f9	0.12024302
195	0x3dd11e23	0.10210826
196	0xbddea249	-0.10870797
197	0xbcef3f17	-0.029204888
198	0xbd8a18b5	-0.06742994
199	0xbd378d03	-0.044812214
200	0xbd2965e7	-0.041356947
201	0xbe1803b2	-0.1484516
202	0xbd350133	-0.044190597
203	0xbcf584a9	-0.029970484
204	0xbd172110	-0.036896765
205	0x3cd601ed	0.026123965
206	0x3dba0f27	0.09084921
207	0xbd5fe15f	-0.05465829
208	0xbd8e4fd0	-0.06948817
209	0x3beeb4d3	0.0072847395
210	0x3d4e5d4f	0.050381955
211	0xbdc81919	-0.09770412
212	0xbc5f848d	-0.013642442
213	0xbd941bf8	-0.07231897
214	0x3c7b8d34	0.01535349
215	0xbe1de1c0	-0.15418148
216	0xbd98c2d8	-0.074590385
217	0xbd56c243	-0.052431356
218	0xbe04e2b3	-0.12977104
219	0x3e10950b	0.14119355
220	0x3c5529d6	0.013010463
221	0x3d62d66b	0.055380266
222	0xbdc91977	-0.0981931
223	0xbd17d781	-0.037070755
224	0x3d9238b7	0.07139724
225	0xbda331ed	-0.07968507
226	0x3c992dc5	0.018698582
227	0xbc9db24e	-0.019250061
228	0x3da90bc5	0.08254198
229	0x3a719a96	0.00092164555
230	0x3dbaa2f1	0.0911311
231	0xbd670002	-0.05639649
232	0xbdec3ba6	-0.115348145
233	0x3d79b16c	0.06096022
234	0xbcf52438	-0.029924497
235	0x3d9a5ec4	0.07537606
236	0x3d4eff31	0.05053634
237	0x3dbc67da	0.091994956
238	0xbdf75eca	-0.120786265
239	0x3c99c632	0.018771265
240	0xbddab285	-0.10678581
241	0xbd2a42ca	-0.0415676
242	0xbd6241d1	-0.05523855
243	0x3bc73200	0.0060789585
244	0x3e151092	0.14557102
245	0xbda662dd	-0.081243254
246	0x3d1543ef	0.03644174
247	0xbe12cba0	-0.1433549
248	0xbd1bf91e	-0.038079374
249	0xbd2baeac	-0.041914627
250	0x3cf6906b	0.03009816
251	0xbdc1c6e9	-0.09461767
252	0xbd97babf	-0.07408666
253	0xbdaafbc2	-0.083488
254	0xbbbfe8a1	-0.005856589
255	0xbc9e2dcc	-0.019308947
