signals/signal_classifier_model2.pth (torch, 93215 bytes, 5 tensors)

shared_layer.0.weight f4 [64, 320]
00000000: 1ae0 193d 9e9a 393d 7be8 8e3a 1815 1abc
00000010: 13aa 8bbd 377c 07bd 1eae d5bc 4815 1ebd
00000020: ee45 e0bb c702 d63c 27d7 003d b1b6 343d
00000030: f326 8e3d 95bd 34bb ba8a 47ba 2ea2 c83a
00000040: 2af8 973d 63a0 733d 81e6 223d 53ee d23c
00000050: 0c44 433d 85b4 ae3c a485 a53d 1127 633d
00000060: 2a67 833c e7bf b73d 7531 ce3d a73d a33d
00000070: 5fd5 8d3d a738 043e febe f73d 77fa f33d
00000080: 9507 b33d f411 873d 2c85 ec3d ca74 903b
00000090: 15fc 6a3d f7c1 3ebd 2192 e2bb 4d50 9dbd
000000a0: 9163 03bd caea b6bd fa15 e3bd 4b90 c5bd
000000b0: 747b 12bd 2031 82bd 09d4 74bd 0764 0e3b
000000c0: 351a b63b d36d 2bbd 783c d13c f465 6d3d
000000d0: 2cfe eabb fc74 333c b2f2 913d 4112 523d
000000e0: 131a fc3d 72e5 df3d 22fe 913d 33a1 f33d
000000f0: 7156 d03d 2ce6 0e3e da4c ba3d 9e5e d73d
00000100: 1c67 9c3d 117f be3d 58c8 093e fe8c f13d
00000110: ee46 0e3e a953 e93d 18da 213e b4a3 003e
00000120: 11a5 283e afdf cd3d f857 383e 1383 3b3e
00000130: f3e3 263e 2205 2d3e 2074 fc3d f932 f03d
00000140: 94c9 253d cf79 133d af8f 3f3d bc51 893d
00000150: a463 84bb 5483 a13d 5d5f db3c 4a1d 263d
00000160: 023b 92bc dac9 22bc 6f3e 57bd 3382 57bd
00000170: 7f8e 9fbc f95b e9bc 2ccc 26bd 22f6 a139
00000180: 3c03 173c b201 ea3d d95c f23d a6d8 e53c
00000190: 572f 7f3d 580e f53d 671c 0b3d b6cf f33c
000001a0: 0050 bd3d d7de f63d f8be a43d 97cd 013e
000001b0: a7fc 8f3d b0c6 123e 280c 433d 4389 953d
000001c0: d279 e83d 8e99 953d 9717 0b3e bf7e b73d
000001d0: 57a8 a33d 04c5 873d 9de2 a23d 587f 473d
000001e0: 9cbf d0bc 6064 f2bc f80d a33d e8b2 2f3d
000001f0: 4041 923d 48a8 983d 489b 2d3c f72d 923d
00000200: 1083 fe3d f113 cc3d 357c 983d f6cb e13d
00000210: 7d87 c53d d39d 0d3e 5803 d63d d343 293e
00000220: 1e11 8a3d e2f1 ec3d 3ceb 8a3d fb7e 243e
00000230: 5ca0 2b3e d741 0f3e 0248 b53d 5690 163e
00000240: 62b9 b43d ebe2 bb3d f9ef e03d 21bc ec3d
00000250: 80d6 7c3d a12c 083d 3b21 94bc 908b 0fbd
00000260: 6314 353d f41d d1bc 6b0f 603b 007a 02bb
00000270: 9b26 453d be52 023d 22b5 d1bc 8154 343d
00000280: c510 38bd ac69 5a3d 42cf fabc 107f a63b
00000290: 2b60 ec3b 3d4a 753c 048f 323b 584e 243d
000002a0: d45f 51bc 54a5 32bc d117 e9bc 9283 33bd
000002b0: d517 473d 6c2d f43c 7e68 593d 3593 a1bc
000002c0: a761 883c 304a 513d 77d6 743d b070 ec3c
000002d0: 7979 cb3d 49d4 553d 1651 af3d b9b8 f93d
000002e0: 2cfe 4c3d f92a e13c 8bb4 9b3d 360d a83d
000002f0: 6242 88bb e75e 6e3b 09cc 49bc 145d 9a3d
00000300: 9062 4d3d cfd6 803a 0381 84bb f80f e1bc
00000310: 46bb 2fbb 495f 8abd 418d d3bd 9cdc 09bd
00000320: 1148 bfbd 5b05 bcbd 7fcb e2bd 4e63 a4bd
00000330: 34f6 08bd bc88 893c 2363 963c a286 0d3d
00000340: ae96 a33d cc32 af3d ca27 a73d d16b fc3d
00000350: 09b0 4a3d 6a87 d03d 5d8b 013e dd03 203e
00000360: 6c78 133e 7a27 233e d348 f13d 6274 f43d
00000370: b2e3 a73d c364 cb3d 637d 0e3e b7da 193e
00000380: 3bb6 ae3d 27f5 363e 5ced 483e 186f 4e3e
00000390: 6806 e03d fa83 633d d9bf bf3d 5b9e be3d
000003a0: e686 673d 1009 bc3d 8f8f 943c 6eb2 673c
000003b0: 1837 a43b b8ff 153d a6cf 933d 5f6e 6c3d
000003c0: 8ead 903d 8237 d13d eeac 3a3e 58ae f23d
000003d0: e186 313e fb01 443e 28ad cb3d cdfe cd3d
000003e0: 4cc1 ee3d 7420 e53d 258e ee3d 7926 b23d
000003f0: 9a23 d03d 6c33 d43d 9cf5 293e d242 643e
0.037567236 0.04531347 0.0010903025 -0.009404443 -0.068195485 -0.033077445 -0.026084002 -0.038594514
-0.006844274 0.026124371 0.031455185 0.04411954 0.06941023 -0.002757882 -0.00076119194 0.0015307122
0.074203804 0.05947913 0.039770607 0.025748407 0.047672316 0.021326313 0.080821306 0.05545718
0.016040403 0.08972149 0.10068027 0.079707436 0.06925463 0.12912236 0.12096976 0.11913007
0.087416805 0.06595221 0.11548838 0.0044084536 0.05736931 -0.046571698 -0.0069143926 -0.07681332
-0.032077376 -0.08931501 -0.11088176 -0.09646662 -0.035762265 -0.06357026 -0.059772525 0.0021727101
0.0055573233 -0.041852783 0.025541529 0.05795856 -0.007171413 0.010953184 0.071263686 0.05128694
0.12309661 0.10932435 0.0712855 0.11895981 0.101727374 0.13954991 0.090966895 0.10516094
0.07636854 0.0930158 0.13455331 0.1179447 0.13894245 0.1139291 0.15805852 0.12562448
0.16469218 0.1005243 0.18002307 0.1831172 0.16297893 0.1689649 0.123268366 0.11728472
0.040475443 0.036004838 0.046767887 0.06705043 -0.0040401984 0.07886377 0.026778871 0.040555276
-0.017850403 -0.0099358205 -0.052549776 -0.052614402 -0.019477127 -0.028486239 -0.040722057 0.00030891696
0.00921708 0.114261046 0.118341155 0.028057408 0.062301006 0.119656265 0.033962633 0.02976213
0.092437744 0.12054222 0.08044237 0.12676083 0.070306115 0.14333606 0.047619015 0.07301571
0.113513604 0.07304679 0.13583218 0.08959722 0.07991093 0.066293746 0.07953379 0.04870543
-0.025481991 -0.029588878 0.07961649 0.042895228 0.07141352 0.07453972 0.010596104 0.07137673
0.12427342 0.09964741 0.074455656 0.110252306 0.09644983 0.13829736 0.104498565 0.16529779
0.06741546 0.11569573 0.06783149 0.16064064 0.16760391 0.1398996 0.08851625 0.14703497
0.088244215 0.091741405 0.10983271 0.1155932 0.061728 0.033245686 -0.018082252 -0.035045207
0.044208895 -0.025526978 0.0034188877 -0.0019909143 0.04813252 0.03181719 -0.025599066 0.0440259
-0.044937868 0.053323433 -0.030616406 0.005081065 0.0072136126 0.014971313 0.0027245888 0.040113777
-0.012779195 -0.010903675 -0.02845374 -0.043826647 0.048606712 0.029806815 0.053078167 -0.019723514
0.016648127 0.05109614 0.059774842 0.028862327 0.099352784 0.052204404 0.08560388 0.12193436
0.050047085 0.027486311 0.07602795 0.08205645 -0.004158304 0.0036372484 -0.012316712 0.075372845
0.050142825 0.0009829643 -0.0040436997 -0.027473435 -0.0026814505 -0.067564555 -0.103296764 -0.033657655
-0.093399175 -0.09180709 -0.1107397 -0.08026753 -0.033437923 0.016788833 0.018357819 0.034552224
0.07987724 0.085546106 0.08161886 0.12325252 0.049484286 0.10182078 0.12650819 0.15626474
0.14401406 0.15933028 0.11781468 0.11936261 0.08197726 0.09931328 0.13915019 0.1502484
0.085308515 0.17866956 0.19621795 0.20159566 0.10938722 0.055545785 0.09362764 0.09307548
0.056525134 0.09181416 0.01813486 0.014141662 0.0050114505 0.036620826 0.0721734 0.057722446
0.07064353 0.102156654 0.1823003 0.1184966 0.17336608 0.1914138 0.09945136 0.10058365
0.11657962 0.111878306 0.11648206 0.08698744 0.101630405 0.103613704 0.16597599 0.22291115

shared_layer.0.bias f4 [64]
00000000: dc43 693e 7ca6 bf3a 2689 513e 2f47 023c
00000010: b1f5 453e a03e 1cbd 40e2 7b3e 5a74 ecbd
00000020: 5de2 63bd 2ab0 e9bc 30b1 453e 865f 44bd
00000030: dc01 6a3e 20d9 983e e672 013c 01c6 553c
00000040: 5cc8 153e ef46 f2bc 85e5 54bc 94cf 5cbd
00000050: 5188 0ebe 1abd d6bc fe95 77bc 9465 6d3e
00000060: cc96 213e c8a2 1c3e 9019 08be 3796 4e3e
00000070: 12ef 493e 4d1f 723e 9c6e 443e d644 6c3e
00000080: b57c e0bb 3c90 2bbd b288 f13d 97fe 8dbc
00000090: b8a9 933c 0b26 03be 27ba 7d3e 4a2d 833e
000000a0: cc13 8fbb 8225 833e baff 09bd aa30 003c
000000b0: ac7c 683e 52a0 d33a be0b f6bd 774e 11bd
000000c0: 1f82 4dbd ba9a 153e 0bc0 4d3e aa05 2dbc
000000d0: 01b8 3c3e 51dd 0abe 1e82 02be a2f6 873e
000000e0: 0896 813e 024d a83b e894 7a3e b15e 903e
000000f0: 5e78 5abd ee19 3a3c f81f 083e 0b30 a0bb
0.22779793 0.001462176 0.20462474 0.007951542 0.19332005 -0.03814566 0.24598026 -0.1154563
-0.0556358 -0.028526384 0.19305873 -0.04794266 0.22852272 0.29853153 0.007900929 0.013047696
0.14627212 -0.02957484 -0.012994175 -0.0539089 -0.13919188 -0.026213218 -0.0151114445 0.2318328
0.1578018 0.15296471 -0.13291001 0.2017449 0.19720104 0.23644753 0.19182819 0.23073134
-0.0068508037 -0.0418856 0.11793651 -0.017333312 0.018025264 -0.12807481 0.24778043 0.2562049
-0.0043663736 0.25614554 -0.033691145 0.007824102 0.22703809 0.0016145802 -0.120139584 -0.03547522
-0.05017292 0.14609805 0.2009279 -0.010560432 0.18429567 -0.13560988 -0.12744948 0.26555353
0.25309777 0.005136133 0.24470866 0.28197244 -0.053337447 0.011358721 0.13293445 -0.0048885397

shared_layer.2.weight f4 [32, 64]
00000000: 5809 aa3d 16d2 d1bc 8a1e 733d af50 61bd
00000010: 24f4 b23d fa8a c7bc 0281 d63e 9fe7 acbe
00000020: 3867 273d 8c52 bd3c f355 593e 8e87 e43d
00000030: aa1f 333e 639c 8c3e 9bed 7cbd 5aa6 aabd
00000040: 2a3d ed3d 70a1 6dbd e0df b9bd 8ee4 d9bd
00000050: 5f1c 9abe f003 9a3c 2824 cdbd acbe 803e
00000060: a207 453e e2a6 553e 24dc 34be 5ff1 3b3e
00000070: 5b41 2a3d 8d2b 843c b8ef 363e ce10 533d
00000080: bb04 ea3d a930 ec3c fdd0 f03c 8f7e 40bc
00000090: 63dd 97bd 6451 65be e899 933e 6432 1a3e
000000a0: fbbf 303d 997e eb3d b4c9 6f3d 1482 1dbd
000000b0: febc 0f3e 2c9e fe3d ce5d 03be e04f 523c
000000c0: 10fc 71ba b8e0 113e b9c6 393e 6f10 17ba
000000d0: bb98 873d b98c 99be e1c0 c4be 4a96 913e
000000e0: bc6f b03d 9c45 acbc ac69 293e 0118 9e3e
000000f0: 1476 c6bd 8282 293d 3cb8 443e ffa2 c7bd
00000100: 2894 2c3d 1996 793d 50e0 16bd a217 e2bd
00000110: 3a9a 78bd b02c 31bb 0a44 f33a d723 7b3d
00000120: 0879 84bc d6e3 a7bd 85fd de3d a02a c2bc
00000130: 6e27 113c c89c 22bd ef03 e4bd 4819 25bd
00000140: 0038 ddb9 804d f2bc fca4 9c3d 9c4d 7c3c
00000150: f649 c73d 6e6c 983d 247f 05be b87e e9bd
00000160: eeb0 233d 7769 99bd 02a4 e5bd d692 e3bb
00000170: 0d14 4fbd 19ad b5bd cbc9 e9bd 7f1d 82bd
00000180: a88b 5bbd 7aab 9f3d d7fa 4fbd 1fb8 263d
00000190: 4b65 ed3d 63fc 54bd ca48 debd 113f 6e3d
000001a0: 90f1 53bb 78bb e13c 9a05 c9bd 15c1 df3d
000001b0: a65b 05be 459c ee3d b7aa 073d 4cf8 7c3d
000001c0: 608b acbd 01d4 71ba 9c28 c8bd e405 52bc
000001d0: 4701 f7bd 9063 373d f0d7 8fbd 90b4 7b3d
000001e0: a8e9 fdbb 8130 10bd 6dc5 5f3d 7d99 94bd
000001f0: b53b ec3d 0464 db3c d56f 063d 5b41 913d
00000200: b9e0 d33d 1eb1 c3bd 50a8 98bc e042 c8bd
00000210: f672 c03d d473 efbd 11a8 1d3f ce2b 4fbe
00000220: 18ec c5bc c490 f23d 9ecf c6bc 043e 973d
00000230: b8bb 143e 009c ff3e acd3 be3c a9f7 183d
00000240: 673f 873d 20f7 9e3c b010 9bbc 6018 3a3d
00000250: 220f 79be f0c8 c0bd e895 993d 7652 2b3e
00000260: 1d63 413e 76d6 b2bc f0bd a4be 2b46 883d
00000270: 39d9 0c3e 5dce ba3d 9c8b 023e b6e1 303f
00000280: 180c 88bd 8025 0bbc a171 033d dae8 bc3d
00000290: 0423 4fbd d6aa 50be d458 503e 7472 503e
000002a0: 880f a1bd 9146 3c3e c69f f6bd 283e bf3d
000002b0: b8ba 8d3c 08d4 b7bd 21cc 4fbe 4a4b 963d
000002c0: 2ccd 9abd 81cc 333e 3024 363e ecfc aebd
000002d0: 541f 4d3e 2a1b 9ebe a15b 87be b81a ee3e
000002e0: 4ce2 3a3e 9c7c b0bd 5688 0d3f a9b7 ad3e
000002f0: 60b6 af3b 10b6 c1bd 4777 d03c 20fa 71bd
00000300: 2201 493e 1de7 073d 88f4 cc3d ae13 6fbc
00000310: 89ee 993d 0c21 b5bd 8839 833e 902f 8abe
00000320: a9a8 01bd a4a0 e7bc ddcf 2f3e a6f9 9c3d
00000330: f251 3f3c cfa8 473e 2cf9 da3d ce62 6d3d
00000340: 76ce 3e3e c8dc f3bd eb5e a0bc a9c1 823c
00000350: f15d bfbe a07d 95bb cdae f73d 5635 003e
00000360: 7653 283e 7844 363e 0745 abbe e39f 143e
00000370: 5e0a 803d e589 593e f70d 903d 95f1 ca3d
00000380: ed0a 46bc e099 f7bc b94c 273e 6225 c23d
00000390: 847a 523d a77d 87be b747 c43d e12f 313e
000003a0: 5e85 d1bb 0d68 723e 02b5 f0bd 93fc c3bc
000003b0: 0759 fb3d 5576 cc3c a5ff 46be bcb1 693d
000003c0: d960 c03d ef8c 403e 70ee 3c3e b7d9 babd
000003d0: e3f4 c63c 6dd4 0bbe cff8 54be 6f4c 323e
000003e0: 3e67 2e3d 5b6d b7bd 46a8 753e 5a7b 6c3e
000003f0: efc7 9bbd 0272 e0bd 72c8 333e 94ef f0bd
0.083025634 -0.025612872 0.059355296 -0.055008586 0.087379724 -0.024358261 0.418953 -0.33770463
0.04086992 0.02311065 0.21224193 0.111586675 0.17492548 0.27463064 -0.061750036 -0.0833251
0.11583932 -0.058015287 -0.09075904 -0.106392965 -0.3009977 0.018800706 -0.10016662 0.2514547
0.19241193 0.20864442 -0.17662102 0.18353795 0.041566234 0.016134048 0.17864883 0.051529698
0.114266835 0.028831797 0.029396528 -0.011748924 -0.07415273 -0.2239433 0.2882836 0.15058285
0.043151837 0.11498756 0.05854197 -0.03845413 0.14036939 0.12432513 -0.12828752 0.0128364265
-0.00092309806 0.1424588 0.18142213 -0.00057626417 0.06620928 -0.29990175 -0.38428405 0.28434974
0.08615062 -0.021029286 0.16544217 0.3087769 -0.0969049 0.041384228 0.19210905 -0.09747886
0.04213348 0.06093416 -0.036835015 -0.11039664 -0.060693957 -0.0027034692 0.0018559706 0.061313476
-0.016170993 -0.08197753 0.10888199 -0.023701966 0.008859498 -0.0397003 -0.11133563 -0.040307313
-0.00042194128 -0.02957797 0.07648656 0.015399363 0.09730904 0.07442556 -0.13036782 -0.11401123
0.039963655 -0.07490819 -0.11212923 -0.0069449944 -0.05055623 -0.088709064 -0.11415442 -0.06353282
-0.053599983 0.077963784 -0.05077633 0.040702935 0.11591586 -0.051998507 -0.10853727 0.058165614
-0.0032340027 0.027555212 -0.098155215 0.10925499 -0.13023242 0.116509 0.03312179 0.06176023
-0.08425021 -0.00092250115 -0.097733706 -0.012818787 -0.120607905 0.044772685 -0.07023609 0.061451495
-0.0077488013 -0.035202507 0.05463164 -0.07255838 0.11534826 0.02678109 0.032821495 0.07092544
0.10345597 -0.09555267 -0.018634945 -0.097783804 0.09396927 -0.11692014 0.61584574 -0.20231554
-0.02416043 0.11844018 -0.024268921 0.073848754 0.14524734 0.49923706 0.023294292 0.037345562
0.0660389 0.019404948 -0.018928856 0.045433402 -0.24322179 -0.09413326 0.074992955 0.16730675
0.18885465 -0.021830779 -0.3217616 0.066540085 0.13754739 0.09121392 0.12748569 0.6909441
-0.06642932 -0.008492827 0.032090787 0.092241004 -0.050570503 -0.20377669 0.20346385 0.2035616
-0.078642905 0.18386294 -0.12042193 0.09338027 0.017300949 -0.089759886 -0.20292713 0.07338579
-0.07558665 0.17558481 0.17787242 -0.08544335 0.20031482 -0.308801 -0.26437095 0.4650476
0.18250388 -0.08617517 0.5528616 0.33929184 0.005362317 -0.09458554 0.0254475 -0.05907643
0.19629338 0.03317939 0.10007578 -0.014592094 0.075162 -0.08844194 0.2562983 -0.26989412
-0.031654987 -0.028274842 0.17169137 0.07664804 0.011677252 0.19497989 0.10692057 0.057955556
0.18633446 -0.11907345 -0.01957651 0.015961485 -0.3737636 -0.004562095 0.120938875 0.12520346
0.16438088 0.17799556 -0.334511 0.14514117 0.062519774 0.21244009 0.070339136 0.09909359
-0.012087566 -0.03022474 0.16337861 0.094797865 0.05138637 -0.26463053 0.09583991 0.1730342
-0.0063940724 0.23672505 -0.117532745 -0.023924148 0.1227284 0.024958769 -0.19433458 0.057054266
0.09393472 0.18803762 0.18450332 -0.09123557 0.024286693 -0.13655253 -0.20798038 0.1741197
0.04257893 -0.08956405 0.23989972 0.2309393 -0.07606494 -0.10959245 0.17556933 -0.11764446

shared_layer.2.bias f4 [32]
00000000: d291 013e 4dba d03b 0759 8c3d 95d7 fb3d
00000010: ec6e 2e3e 2a97 acbd af6e f2bd 7580 943d
00000020: 7c63 b43d c497 cebd e8f1 d7bd e03b efbc
00000030: ae7c e3bd 2e8f 41bc 6935 c93d 5232 97bd
00000040: 1415 6f3d 420a 673c 22f2 06be fde4 8e3e
00000050: 215f 503e 694a 4c3e 1ba3 483e d116 0c3e
00000060: ba8e 343d 5099 603d 3c4a 55bd b189 643e
00000070: ee37 f3bd 24a5 4b3e b004 dabd 8a43 d13d
0.12653282 0.006369865 0.06852918 0.122969784 0.17034501 -0.0842727 -0.118375175 0.07251064
0.08808038 -0.10087541 -0.10544187 -0.029203355 -0.11107765 -0.011813922 0.0982464 -0.07382645
0.05836971 0.014101567 -0.13178304 0.2790908 0.20348789 0.1995026 0.1959347 0.13680579
0.044081427 0.05483371 -0.05207275 0.2231815 -0.11875902 0.19887215 -0.10645425 0.1021796

shared_layer.4.weight f4 [1, 32]
00000000: 4b39 a2be 4f7f 073d e646 c7be b0c2 9ebe
00000010: 5be0 97be 5fcd 4a3d 12d8 9e3d ff72 983d
00000020: ec36 81be d4a6 5cbd a931 1dbe 9a39 e73d
00000030: e050 2f3c 8b87 cf3d f694 b5be 475c 0e3e
00000040: 7983 163e f8de 01bc dc60 bc3e 8146 51be
00000050: 2c93 93be b25a 37be 49ec 8abe 8a57 90be
00000060: b8af 883e 215e b13d 009e 4d3c cb10 9abe
00000070: e470 70bd 5dfa 88be bc1e a73e c79f 9cbe
-0.31684336 0.033080395 -0.3892128 -0.3100791 -0.29663357 0.049512263 0.07756056 0.07443809
-0.25237215 -0.053870037 -0.15350975 0.112902835 0.010700434 0.10133275 -0.3546521 0.13902389
0.1469859 -0.007926695 0.36792648 -0.20437051 -0.2882322 -0.17905691 -0.27133396 -0.28191787
0.26696563 0.08660532 0.012549877 -0.30090937 -0.05870141 -0.26753512 0.32640636 -0.3059065
