signals/test-FPD.onnx (onnx, 305636 bytes, 11 tensors)

shared_layer.0.weight f4 [128, 360]
0	0x3e060ec9	0.13091578
1	0x3e0a8392	0.13526753
2	0x3da1b058	0.07894963
3	0x3cd7d202	0.026345257
4	0x3d1eabc2	0.03873802
5	0xbce4b9c6	-0.027920615
6	0x3cad0232	0.02111921
7	0x3d672d18	0.05643949
8	0x3b9c1806	0.004763606
9	0xbd0391ab	-0.03212134
10	0xbd0d4a59	-0.03449473
11	0xbc07b0fe	-0.008281944
12	0xbb92ec55	-0.0044837394
13	0x3caf5fc7	0.021407975
14	0x3ab38bcc	0.0013698279
15	0xbcc52536	-0.024065595
16	0x3d6d7816	0.05797585
17	0x3e25f6ca	0.16207424
18	0x3dfdb9cd	0.12388954
19	0x3d0905b9	0.033452723
20	0xbcd67452	-0.026178513
21	0xbb884108	-0.004158143
22	0x3dbf8d3a	0.09353109
23	0x3bb9ffc2	0.0056762407
24	0xbd103bb1	-0.035213176
25	0x3bd91445	0.006624731
26	0x3cb5bb02	0.022183899
27	0xbc300f39	-0.010745817
28	0xbb1b81aa	-0.002372841
29	0x3ccae111	0.024765523
30	0x3d834090	0.06408799
31	0xbd647661	-0.055776957
32	0xbdb97e6a	-0.09057315
33	0xbcf7c3a2	-0.030244652
34	0x3da0671e	0.07832168
35	0x3cb8fc4b	0.02258124
36	0xbce2751a	-0.027643729
37	0xbdf3b647	-0.11900001
38	0xbcd6b346	-0.026208531
39	0xbc9b779b	-0.01897793
40	0xbb318b91	-0.0027091245
41	0xbe033fae	-0.1281726
42	0xbd69b367	-0.057055857
43	0xbd947059	-0.07247991
44	0xbd6372c6	-0.05552938
45	0x39cb25cb	0.00038747335
46	0xbb4e9257	-0.003152033
47	0xbd14157c	-0.0361533
48	0xbd255264	-0.040361777
49	0x3d25a585	0.040441055
50	0x3ce37b76	0.027768832
51	0xbd913268	-0.07089692
52	0x3d3add25	0.045621056
53	0x3da9d5be	0.08292721
54	0x3d4b6c88	0.04966405
55	0xbbcbf9d8	-0.006224852
56	0x3b309cc7	0.0026948915
57	0x3c9b4ace	0.018956568
58	0xbd3de92b	-0.046364944
59	0xbdbbfb3c	-0.091787785
60	0x3d9a3f6f	0.0753163
61	0x3be70b94	0.0070509408
62	0xbd978346	-0.07398085
63	0x3cb1c56c	0.021700583
64	0x3ba26426	0.0049557863
65	0xbd80c309	-0.062872
66	0xbaeb6669	-0.0017959598
67	0x3d5913fd	0.052997578
68	0xbd5130c3	-0.051071893
69	0x3cb524a8	0.022112206
70	0xbc97c36c	-0.018525802
71	0x3cf41eaf	0.029799787
72	0xbc7fc723	-0.015611443
73	0x3d24ed52	0.04026539
74	0xbd015ade	-0.0315808
75	0xbc398a2c	-0.011324447
76	0xbcd3823c	-0.025818937
77	0xbce907c1	-0.02844608
78	0x3cf4b8de	0.029873308
79	0xbcb1b68c	-0.02169349
80	0x3cb853b8	0.022500858
81	0xbd23496b	-0.03986494
82	0x3c98001d	0.018554742
83	0xbc8942bf	-0.01675546
84	0xbde63b88	-0.112418234
85	0xbdc02afe	-0.093832
86	0x3c22fd25	0.00994805
87	0xbd50539b	-0.050860982
88	0xbe0d4c1e	-0.13798568
89	0xbd55d1d9	-0.05220208
90	0x3be19e74	0.006885344
91	0x394aab16	0.00019327956
92	0xbdff20da	-0.12457438
93	0xbcfd06f7	-0.03088711
94	0x3c04a293	0.008095401
95	0x3c660fbb	0.014041836
96	0xbc04a7d7	-0.008096657
97	0xbd3a7965	-0.045525927
98	0xbd4bf4dd	-0.049794067
99	0xbd6eb3b6	-0.058276854
100	0xbcfa93cb	-0.030588051
101	0xbb4e4419	-0.0031473695
102	0x3cc37679	0.023860203
103	0x3cc206b0	0.02368483
104	0x3d878e7f	0.06618976
105	0x3d6eed7f	0.058331963
106	0x3dbeff98	0.093260944
107	0x3c97c21c	0.018525176
108	0xbc83fbbb	-0.016111245
109	0x3d8c1449	0.068398066
110	0xbc2fb8f4	-0.010725249
111	0x3c1da321	0.0096214125
112	0x3bfe0ea8	0.007753212
113	0x3d883621	0.06650949
114	0x3cb9b914	0.02267126
115	0x3dd2bb10	0.102895856
116	0x3dc127b0	0.09431398
117	0xbc55f2c4	-0.013058368
118	0xbd01e46b	-0.031711977
119	0x3d70302e	0.058639698
120	0xbd40bd59	-0.047055576
121	0xbca654ac	-0.020304047
122	0xbd8bf76f	-0.068343036
123	0x3d1c2f77	0.038131204
124	0x3919f49c	0.00014682341
125	0x3c8119d1	0.01575938
126	0x3c07e1fa	0.008293623
127	0x3c2208bc	0.009889778
128	0x3bec1f51	0.0072058816
129	0x3d4a7222	0.04942525
130	0x3d44f0b7	0.048081126
131	0x3a6f9c2d	0.00091403985
132	0x3d10e491	0.035374228
133	0x3d6bebdc	0.05759798
134	0x3d6a8ce2	0.057263263
135	0x3c90bb87	0.017667545
136	0xbd83a9bb	-0.06428858
137	0xbd6a3ed0	-0.05718881
138	0x3c8ea1db	0.017411163
139	0x3d85480d	0.06507883
140	0xbc369533	-0.01114397
141	0xbddc71a6	-0.10763864
142	0xbd61231e	-0.05496513
143	0xbc68b045	-0.014202182
144	0x3cf129be	0.02943885
145	0xbd32d3ce	-0.043659024
146	0xbda69f1c	-0.081358165
147	0xbdfce08e	-0.12347518
148	0xbe385d74	-0.180044
149	0xbd13b124	-0.036057606
150	0x3d82b01f	0.06381249
151	0x3da64683	0.08118918
152	0x3d2cd7d4	0.042198017
153	0xbd74b1cf	-0.059739884
154	0x3d4b1626	0.04958167
155	0x3e1fab00	0.15592575
156	0xbcfbf030	-0.030754179
157	0xbda74330	-0.08167112
158	0xbcc4eb0e	-0.024037864
159	0x3d942877	0.072342806
160	0x3d04adcd	0.03239231
161	0xbd001ff9	-0.03128049
162	0xbd14bf6d	-0.03631537
163	0x3db9349f	0.0904324
164	0x3dc59cc4	0.09649041
165	0x3d663705	0.056204814
166	0xbcf0b5d0	-0.02938357
167	0x3cd79f20	0.026320994
168	0x3e1aa925	0.15103586
169	0x3d9fc145	0.07800535
170	0x3dd3cea3	0.10342147
171	0x3df1f706	0.11814694
172	0x3dc196ec	0.09452614
173	0x3ce6bad2	0.028165255
174	0x3d175f07	0.03695586
175	0xbaf701d0	-0.0018845145
176	0x3d53ab5f	0.051677104
177	0x3e2efaa6	0.17087802
178	0x3d04bc35	0.03240605
179	0xbd19683f	-0.037452932
180	0xbd39cfd3	-0.045364212
181	0x3d977410	0.07395184
182	0x3df0402f	0.11730992
183	0x3bd16964	0.0063907374
184	0xbd57f401	-0.052722935
185	0x3d4e7440	0.050403833
186	0x3d67f738	0.05663225
187	0xbc022e48	-0.007945605
188	0xbc0a4ed6	-0.0084416475
189	0x3d8b1ba7	0.06792384
190	0xbc0671c4	-0.008205835
191	0x3cdcf89a	0.026974011
192	0xbbed8f4a	-0.0072497474
193	0x3d846fe2	0.064666525
194	0x3d8875dd	0.06663106
195	0x3d335136	0.04377862
196	0x3d574a8a	0.05256132
197	0x3dc37577	0.09543889
198	0x3cf991dc	0.030465059
199	0x3cc3fc74	0.02392409
200	0x3b519981	0.0031982365
201	0x3c6e34ce	0.014538957
202	0x3cf0f66a	0.029414374
203	0x3acff750	0.0015866552
204	0x3db7b022	0.089691415
205	0x3dc1c751	0.09461845
206	0x3dff0c6a	0.1245354
207	0x3d049bea	0.032375254
208	0x3ce4e33c	0.027940385
209	0xbcdce0dc	-0.02696269
210	0x3d45db4a	0.048304833
211	0x3d53d6bf	0.05171847
212	0x3d52500b	0.051345866
213	0x3ca2336c	0.01979991
214	0xbd46b297	-0.04851016
215	0xbd26ffeb	-0.040771406
216	0xbcd5257e	-0.026018854
217	0xbccdd370	-0.025125235
218	0xbc9d7684	-0.019221552
219	0x3c9debd1	0.019277485
220	0x39adebb4	0.00033172744
221	0xbcb5acad	-0.022177065
222	0xbd829b08	-0.06377226
223	0xbd072c10	-0.033001006
224	0x3d2226a4	0.03958763
225	0x3c275244	0.010212485
226	0xbd006a1b	-0.03135119
227	0xbdb3dd39	-0.08782429
228	0x3d8cb0a7	0.06869631
229	0x3d8c6c00	0.06856537
230	0xbd1ca693	-0.038244795
231	0xbce6185f	-0.028087793
232	0x3c675622	0.014119657
233	0x3dfafccf	0.12255251
234	0x3cd123e8	0.025529817
235	0xbce70c89	-0.02820422
236	0x3d82bbf8	0.063835084
237	0x3df068d6	0.11738746
238	0x3d9e74b5	0.07737104
239	0x3cb83492	0.022486005
240	0xbbcb6ba4	-0.0062079
241	0x3d20de7d	0.03927468
242	0x3d2d1407	0.042255428
243	0x3baec996	0.0053340895
244	0x3c7d614b	0.015465091
245	0x3c20e978	0.009821288
246	0x3d1139f1	0.035455648
247	0x3d63c881	0.055611137
248	0x3d2f67d8	0.042823642
249	0xbb663203	-0.0035125024
250	0xbcf17303	-0.029473787
251	0x3d8bb6c2	0.06821968
252	0x3e19feea	0.15038648
253	0x3dea6344	0.11444715
254	0x3d297209	0.041368518
255	0x3de92497	0.11383932

shared_layer.0.bias f4 [128]
0	0xbce91c36	-0.028455835
1	0xbc8ba446	-0.017046105
2	0x3b743cd2	0.0037267697
3	0xbd5624d0	-0.0522812
4	0xbc903a45	-0.01760591
5	0xbd29f9f9	-0.041498158
6	0x3c8d6082	0.017257933
7	0x3c570bdd	0.013125387
8	0xbd113feb	-0.035461348
9	0xbd5bc978	-0.053658932
10	0x3d5161e5	0.05111875
11	0xbb9fd2aa	-0.004877408
12	0xbc6d2408	-0.014473923
13	0x3b904146	0.0044023125
14	0xbb4c18a6	-0.0031142621
15	0x3d27642c	0.040867016
16	0xbc2a070c	-0.010377657
17	0xbd245b9d	-0.04012643
18	0x3c6c54d8	0.014424525
19	0xbd0a55e1	-0.033773307
20	0xbd17edef	-0.037092146
21	0xbcc3e487	-0.023912681
22	0xbd2319b2	-0.039819427
23	0xbcece754	-0.0289189
24	0xbcb9909e	-0.022651967
25	0xbd4c57e5	-0.04988851
26	0x3cb413e3	0.021982139
27	0xbc5dd3ec	-0.013539296
28	0x3d430a9d	0.047617543
29	0x3e8e0db9	0.27744845
30	0xbb9865f9	-0.004650828
31	0xbd425086	-0.047440074
32	0xbd113fe1	-0.03546131
33	0xbd325daf	-0.043546375
34	0xbd2d2257	-0.042269077
35	0x3d1ddd9a	0.038541414
36	0x3d05b097	0.032639112
37	0xbd8484fa	-0.06470676
38	0x3d3a9f79	0.04556224
39	0xbd472012	-0.04861457
40	0xbcc8186d	-0.02442571
41	0x3ac15b8f	0.0014752018
42	0xbbb2324a	-0.005438124
43	0xbd1ee725	-0.038794655
44	0x3c45e82e	0.012079282
45	0xbd2b7bff	-0.0418663
46	0xbcc2078d	-0.023685241
47	0x3cd2952c	0.025705896
48	0xbbbe343d	-0.005804567
49	0x3d34d662	0.044149764
50	0xbb780d10	-0.0037849583
51	0xbbdc8f6b	-0.006730964
52	0x3d230680	0.03980112
53	0x3ba29194	0.004961202
54	0xbd210792	-0.03931386
55	0xbb8e5f50	-0.004344858
56	0xbc209d49	-0.009803125
57	0x3d1158a8	0.03548494
58	0xbcd2b8c1	-0.025722863
59	0x3dfdee97	0.12399023
60	0x3e6d22c9	0.231578
61	0x3c025bed	0.007956487
62	0xbc16bee9	-0.00920079
63	0x3cada6f3	0.021197772
64	0xbd298885	-0.04138996
65	0x3bc0472b	0.005867859
66	0xbc5bdc30	-0.013419196
67	0xbd494828	-0.04914108
68	0x3bf734ab	0.0075441203
69	0xbd046031	-0.032318298
70	0x3d16ddae	0.036832504
71	0xbd43c617	-0.047796335
72	0x3b6b32ba	0.003588839
73	0x3c199ee4	0.009376261
74	0xbce022b0	-0.02736029
75	0xbc29cee4	-0.010364268
76	0xbd32df1b	-0.0436698
77	0xbd51ac99	-0.051189993
78	0xbbb7e304	-0.005611779
79	0x3cdd9e34	0.027052976
80	0xbbfc1966	-0.0076934574
81	0x3c8c8780	0.017154455
82	0xbcee0f9d	-0.02906018
83	0x3d36429b	0.044497114
84	0xbd6d0add	-0.05787169
85	0x3cf3eda4	0.029776402
86	0xbd4d2e0e	-0.05009275
87	0x3e614832	0.22000197
88	0xbd2d077d	-0.04224347
89	0x3c5d060e	0.013490213
90	0xbc1e4a83	-0.00966132
91	0x3cf7a1f5	0.030228594
92	0x3cbe58cd	0.023235703
93	0x3cd1daa5	0.025616953
94	0xbc122675	-0.008920302
95	0xbd20346c	-0.039112493
96	0x3db42daf	0.08797776
97	0xbd6a65da	-0.05722604
98	0x3cf9a570	0.030474395
99	0xbcd7bb1d	-0.02633434
100	0x3d8378cb	0.06419524
101	0xbc9d26d8	-0.019183561
102	0xbcd2869f	-0.025698958
103	0xbcf04cec	-0.029333554
104	0x3d1ba45c	0.037998542
105	0xbba1fe1e	-0.004943623
106	0x3df4da66	0.11955719
107	0x3cde3f6a	0.027129848
108	0xbd38b85c	-0.045097694
109	0xbd2a667c	-0.041601643
110	0x3d2d04e0	0.042240977
111	0xbcc6e82d	-0.024280632
112	0xbcc4a053	-0.02400223
113	0xbcf731c2	-0.030175094
114	0xbbd250f3	-0.0064183413
115	0x3ec79537	0.3898103
116	0xbd189f36	-0.03726121
117	0xbc5f43c5	-0.013626997
118	0xb95eaa00	-0.000212349
119	0x3cad8482	0.021181349
120	0x3d2b05d4	0.041753605
121	0x3d47b15b	0.048753124
122	0xbb3c0100	-0.002868712
123	0xbd650355	-0.05591138
124	0xbc141ca1	-0.009040029
125	0x3d0c810a	0.03430275
126	0xbc0fa791	-0.008767978
127	0x3cbc74a5	0.02300484

shared_layer.2.weight f4 [64, 128]
0	0x3a9abb42	0.0011805075
1	0xbdaa4af6	-0.08315079
2	0x3ddd3468	0.10801011
3	0x3bac5d90	0.005260177
4	0xbc584b61	-0.0132015655
5	0xbd310e92	-0.043226786
6	0x3dbd8996	0.09254758
7	0x3e12fd6b	0.14354484
8	0x3c2703e8	0.010193802
9	0x3d37f8dc	0.044915065
10	0x3d883ed9	0.06652612
11	0x3d2f53e4	0.042804614
12	0x3da55ff7	0.080749445
13	0xbd3868f7	-0.045021977
14	0x3d7ee00d	0.06222539
15	0xbdb5ce0d	-0.08877192
16	0x3d3788c0	0.04480815
17	0xbada5c40	-0.0016659573
18	0x3e056024	0.13024956
19	0xbe1459ff	-0.14487456
20	0xbe2b896e	-0.16751644
21	0xbd184ab9	-0.037180636
22	0x3d07079b	0.032966238
23	0xbd91afd8	-0.07113618
24	0x3d56208a	0.052277125
25	0xbb2fce0d	-0.0026825697
26	0x3c5a5d91	0.013327972
27	0x3d0170d8	0.031601757
28	0xbd867c70	-0.06566703
29	0x3ee8630d	0.4538807
30	0xbd977913	-0.0739614
31	0xbdaad2c0	-0.083409786
32	0xbdad49bf	-0.084613316
33	0xbd8d61be	-0.069034085
34	0x3baeacf4	0.005330676
35	0x3e145506	0.14485559
36	0xbdcaad6f	-0.09896361
37	0x3d24f8ad	0.04027622
38	0xbd6cae48	-0.057783395
39	0x3c51c3f6	0.012803068
40	0xbd5c048e	-0.05371528
41	0x3d2d72e1	0.042345885
42	0x3bf7bda2	0.007560448
43	0xbd329c67	-0.04360619
44	0xbd2bb304	-0.04191877
45	0xbd085166	-0.033280753
46	0xbba75722	-0.0051068226
47	0xbd0815d3	-0.03322394
48	0xbe09cee3	-0.13457827
49	0xbd4a901f	-0.04945385
50	0x3dae274d	0.0850359
51	0xbda1f9d2	-0.079089776
52	0xbb75f072	-0.003752735
53	0xbd3edac8	-0.046595365
54	0x3d728808	0.05921176
55	0x3d6a0ace	0.05713921
56	0xbbf59e70	-0.007495694
57	0xbce4ea58	-0.027943775
58	0x3d8932a0	0.06699109
59	0x3d90ae8d	0.07064543
60	0x3f154852	0.5831348
61	0xbe2bb978	-0.1676997
62	0xbcebce14	-0.02878479
63	0xbdb24654	-0.0870482
64	0xbd6ffa8c	-0.05858855
65	0x3d84bde7	0.064815335
66	0xbc226e40	-0.009913981
67	0xbd2c4875	-0.042061288
68	0xbd9bc392	-0.076056615
69	0xbda09ad1	-0.07842029
70	0x3d701581	0.058614258
71	0x3c4c49ef	0.012468799
72	0x3d812458	0.0630576
73	0x3c21df1a	0.009879852
74	0xbd215e69	-0.039396677
75	0xbb5b46e8	-0.0033459011
76	0x3d5dd1bf	0.054155108
77	0x3d229e6a	0.039701857
78	0xbc21e3c8	-0.009880967
79	0x3d91d976	0.071215555
80	0xbe169d53	-0.14708452
81	0x3cbd64e5	0.0231194
82	0xbbdc82a0	-0.006729439
83	0xbe01dd72	-0.12682131
84	0x3daaaec7	0.083341174
85	0x3cea05d2	0.028567228
86	0xbdefcec7	-0.117093615
87	0x3f23a665	0.6392577
88	0x3d2fb3eb	0.042896193
89	0xbd817d85	-0.06322769
90	0x3e2b415a	0.16724148
91	0x3c8625ab	0.016375383
92	0x3c87ecf8	0.016592488
93	0xbd242afa	-0.04008005
94	0x3b647a30	0.0034862868
95	0x3c997b6f	0.018735616
96	0x3db35195	0.08755795
97	0x3d8d7197	0.06906431
98	0x3d803c8d	0.06261549
99	0x3cda35fe	0.026637074
100	0xbe17af9a	-0.1481308
101	0xbd862ad2	-0.06551136
102	0xbe28a753	-0.16470079
103	0xbc1b4aca	-0.00947828
104	0x3d95d617	0.07316225
105	0x3d4862a1	0.048922185
106	0x3ebae402	0.3650208
107	0x3ecff847	0.40619108
108	0x3b75f840	0.0037532002
109	0x3cd5fab6	0.026120525
110	0x3ea35046	0.3189718
111	0xbdb59ebc	-0.08868167
112	0xbde3fda9	-0.11132366
113	0xbccdddab	-0.025130114
114	0x3d743556	0.059621178
115	0x3f0472bd	0.51737577
116	0xbd0ffce2	-0.035153277
117	0x3da22487	0.07917123
118	0x3c189f38	0.009315304
119	0x3d02ea68	0.03196183
120	0xbc5d7c6a	-0.013518432
121	0xbd68e807	-0.056861904
122	0x3d3655ce	0.044515423
123	0xbd7e811b	-0.062134843
124	0x3d6cff11	0.057860438
125	0xbb877606	-0.0041339425
126	0xbc04e655	-0.008111556
127	0xbd497d98	-0.04919204
128	0x3ddb3cc9	0.10704953
129	0xbd98ed10	-0.07467091
130	0x3d558669	0.052130137
131	0xbd242ef8	-0.040083855
132	0x3de2d63e	0.1107602
133	0x3dfd8ee8	0.12380773
134	0x3dbe7f40	0.09301615
135	0x3da17952	0.07884468
136	0xbd26abc6	-0.04069116
137	0x3d96ab85	0.073569335
138	0xbd6e318b	-0.058152717
139	0xbc1686b2	-0.009187387
140	0xbc374dc8	-0.011187978
141	0xba4580c9	-0.0007534144
142	0x3da027f8	0.078201234
143	0xbd5bff8b	-0.0537105
144	0x3cf9c5b2	0.030489776
145	0x3c205f90	0.009788409
146	0xbd6505b4	-0.055913642
147	0x3d2e286e	0.042519026
148	0xbd51670c	-0.051123664
149	0x3c208c32	0.00979905
150	0xb90683fa	-0.00012828401
151	0xbd8108e3	-0.06300523
152	0x3d9283cb	0.07154044
153	0x3dfa99e3	0.12236383
154	0xbcc29150	-0.023750931
155	0xbd5a2701	-0.053259853
156	0xbb12840b	-0.0022356536
157	0x3b63b974	0.003474799
158	0xbda64794	-0.08119121
159	0xbbf10ac8	-0.0073560216
160	0x3d690452	0.056888886
161	0xbb2e9640	-0.002663985
162	0x3d3d76e2	0.046255954
163	0xbd792440	-0.060825586
164	0xbc6302fc	-0.013855692
165	0x3d16dec2	0.036833532
166	0x3d593cc6	0.053036474
167	0x3d91e4a1	0.07123686
168	0xbd999aff	-0.07500266
169	0x3dbd41d2	0.0924107
170	0x3da09ff3	0.07843008
171	0xbd84532f	-0.064611785
172	0xbcd83f9a	-0.026397515
173	0x3df85b21	0.121267565
174	0x3d052628	0.03250709
175	0x3a833d5b	0.0010012792
176	0x3c6f91fa	0.014622206
177	0x3d30636a	0.04306356
178	0x3da9f20d	0.08298121
179	0xbc23a8c3	-0.009988966
180	0xbd056736	-0.032569133
181	0xbd6b905e	-0.057510726
182	0x3ad1a762	0.0015995319
183	0x3d427286	0.0474725
184	0x3d089563	0.03334559
185	0x3daaf8ba	0.08348222
186	0xbd7ebb24	-0.06219019
187	0xbdec2ed4	-0.11532369
188	0xbe773c86	-0.24144182
189	0x3db82431	0.08991278
190	0xbc45f796	-0.012082955
191	0x3dcbe251	0.09955276
192	0xbb218bf0	-0.002465006
193	0x3d310293	0.043215346
194	0x3daeccef	0.08535182
195	0x3ac5e7a2	0.0015098939
196	0x39c84e69	0.00038205393
197	0xbc3e7251	-0.011623935
198	0xbd215016	-0.039383017
199	0x3d91b588	0.071147025
200	0xbc8bc6b0	-0.017062515
201	0x3dcb6670	0.09931648
202	0x3d702304	0.058627144
203	0x3bfc46ef	0.0076988856
204	0x3d59c2b6	0.053164206
205	0x3d497019	0.04917917
206	0xbda67846	-0.08128409
207	0x3dabfb50	0.083975434
208	0x3d4fa80d	0.050697375
209	0x3cd17f38	0.025573358
210	0x3dbd8bb9	0.092551656
211	0xbd2191da	-0.039445736
212	0x3d42db32	0.047572322
213	0x3d3cef9e	0.046126954
214	0x3d3bd3ff	0.045856472
215	0xbe2c3806	-0.16818246
216	0xbd537c73	-0.051632356
217	0x3dbba976	0.091631815
218	0xbbaa2b0d	-0.0051931203
219	0x3d7c3ad6	0.061579548
220	0xbcc88541	-0.024477603
221	0x3c2381d4	0.009979684
222	0xbd379718	-0.04482183
223	0x3ca204c1	0.019777657
224	0xbd86473b	-0.06556555
225	0x3c7654b7	0.015034846
226	0x3dac3891	0.08409227
227	0x3d053126	0.032517575
228	0x3dddc25a	0.10828085
229	0x3da07b94	0.07836071
230	0x3dc8391c	0.09776518
231	0x3de221c4	0.110415965
232	0x3dcd423d	0.100223996
233	0xbc615480	-0.0137530565
234	0x3def0e60	0.11672664
235	0x3e0718a9	0.13193001
236	0x3b0607e0	0.0020451471
237	0xbc246d2f	-0.010035797
238	0x3e153b5e	0.14573428
239	0x3dc01139	0.09378285
240	0x3da40435	0.08008615
241	0x3d322391	0.04349095
242	0x3c137815	0.009000798
243	0xb9e98a67	-0.0004454434
244	0xbd6308e0	-0.055428386
245	0x3c56443e	0.013077794
246	0x3da23765	0.07920722
247	0xbaae898a	-0.0013316136
248	0x3da1b720	0.078962564
249	0x3e01a0df	0.12659024
250	0xbbe975a0	-0.0071246177
251	0xbd413964	-0.047173873
252	0xbd507ca2	-0.05090011
253	0x3db68449	0.0891195
254	0xbd49a142	-0.049226053
255	0xbd2b2d1d	-0.04179107

shared_layer.2.bias f4 [64]
0	0x3d883dc2	0.06652404
1	0x3cd97541	0.026545169
2	0xbc6f0937	-0.014589599
3	0xbd9f0ec6	-0.0776649
4	0x3cb31825	0.021862099
5	0xbddbdde8	-0.10735685
6	0x3d737c92	0.05944497
7	0x3c58d32d	0.013233942
8	0x3e0c1801	0.13681032
9	0x3cb52ff7	0.022117598
10	0x3d16d557	0.03682455
11	0xbd9a1861	-0.07524181
12	0xbd3177ad	-0.043327022
13	0xbca56fa0	-0.020194829
14	0xbdb109ac	-0.08644423
15	0xbc6eb96d	-0.014570576
16	0x3c26620a	0.01015521
17	0x3d864d8c	0.0655776
18	0xbd6f52c0	-0.058428526
19	0x3d6c8bc4	0.05775048
20	0x3d33866c	0.043829367
21	0x3d3176f9	0.04332635
22	0xbde408ca	-0.11134489
23	0xbd3d7bf0	-0.046260774
24	0x3c2b39e4	0.010450814
25	0x3cf23ccc	0.029570006
26	0xbd2b30ca	-0.041794576
27	0xbda2788a	-0.07933147
28	0x3d19cf9a	0.0375515
29	0xbcd00c7d	-0.02539658
30	0x3d30ad55	0.043134052
31	0xbd8b29ae	-0.06795059
32	0xbcb8368c	-0.022486947
33	0xbd76288c	-0.060097262
34	0xbdc001f0	-0.093753695
35	0x3cb321d3	0.021866715
36	0xbca8f13c	-0.020622842
37	0xbc313e6b	-0.010818104
38	0x3d8dae68	0.06918031
39	0x3d12c349	0.03583077
40	0xbd8eac0b	-0.06966408
41	0x3d936f1c	0.07198927
42	0xbd5845e6	-0.052801035
43	0xbd7685aa	-0.060186066
44	0x3d88c86d	0.06678853
45	0x3bf737ca	0.0075444924
46	0x3d3b2502	0.04568959
47	0xbb18e936	-0.0023332364
48	0x3d175399	0.03694496
49	0x3da1db9f	0.079032175
50	0x3d928bad	0.07155547
51	0x3c8cfbeb	0.017209968
52	0xbd4e9349	-0.05043343
53	0xbd173bc7	-0.036922242
54	0x3aeb21ac	0.0017939112
55	0x3d6419e4	0.055688754
56	0xbd9da910	-0.07698262
57	0x3d03af61	0.032149676
58	0xbcd18f52	-0.025581036
59	0x3dbaa36c	0.091132015
60	0x3d3aa615	0.045568544
61	0x3dff7122	0.1247275
62	0xbd44b4cc	-0.048023984
63	0x3d694844	0.056953683

attention.in_proj_bias f4 [192]
0	0xbbe92df4	-0.0071160737
1	0xbc90bbd5	-0.01766769
2	0x3c1071b9	0.008816176
3	0xbc432bcb	-0.0119122965
4	0xbc57b69c	-0.013166096
5	0x3bd1dd73	0.0064045726
6	0xbb45f3f0	-0.0030205213
7	0x3d4e836b	0.0504183
8	0xbcb86f59	-0.022514032
9	0x3cdf5b72	0.027265284
10	0xbc9af0e3	-0.018913692
11	0x3bd9940c	0.006639963
12	0xbcdb51dd	-0.026772434
13	0xbc7b71b8	-0.015346937
14	0x3cccc6cf	0.024997143
15	0xbc4721eb	-0.012154083
16	0x3ce23617	0.027613683
17	0x3d83ec32	0.06441535
18	0xbd49d3d1	-0.04927427
19	0xbd3a5004	-0.045486465
20	0xbd8659fd	-0.06560133
21	0x3dab8fea	0.08377059
22	0x3d661461	0.05617178
23	0x3d73eb46	0.059550546
24	0xbd27fe7f	-0.04101419
25	0xbdb8eefa	-0.09029956
26	0xbd2e384e	-0.042534165
27	0xbd4a77e9	-0.04943076
28	0xbd61c652	-0.055120774
29	0x3d539d75	0.051663835
30	0xbd29e057	-0.041473713
31	0x3dd37002	0.10324098
32	0xbd1d1932	-0.038354106
33	0xbd5b35d8	-0.053518146
34	0xbd8554df	-0.065103285
35	0x3d4f7a5d	0.050653804
36	0xbd83286a	-0.06404193
37	0x3dacc628	0.08436233
38	0x3d81ed0a	0.0634404
39	0x3d730369	0.059329424
40	0x3d89f094	0.0673534
41	0xbd50775e	-0.050895087
42	0x3d8a9d8f	0.06768333
43	0xbd4d2ca9	-0.05009142
44	0x3cf5a35a	0.029985119
45	0xbda73fb0	-0.08166444
46	0xbddaa684	-0.106762916
47	0x3da356a2	0.07975508
48	0x3d1ce570	0.038304746
49	0xbb604504	-0.0034220824
50	0x3d1ab7ab	0.037772816
51	0x3da7f901	0.082017906
52	0x3d349933	0.044091415
53	0x3d8e957e	0.06962107
54	0xbd881ded	-0.06646333
55	0xbd3b1efd	-0.04568385
56	0x3d966b9b	0.07344743
57	0x3d285579	0.041097138
58	0x3d412d4d	0.047162343
59	0x3d5cffdb	0.05395494
60	0x39d9447e	0.00041440496
61	0x3d3e89a2	0.046517976
62	0x3d4bf23c	0.04979156
63	0xbd7e5446	-0.06209209
64	0xbaad5a8b	-0.0013225836
65	0xbaaef085	-0.0013346827
66	0x3aa35023	0.0012459796
67	0xba9c9fdf	-0.0011949501
68	0xb976efe0	-0.00023549749
69	0xbacea3ad	-0.0015765332
70	0xba4ca985	-0.0007807243
71	0x3a627abd	0.0008639505
72	0xb6b46592	-5.3762424e-06
73	0x3ac2fd50	0.0014876518
74	0xba88e8d9	-0.001044537
75	0x3aa7f795	0.0012814874
76	0x3a81b2e2	0.000989523
77	0xbab3ee11	-0.0013727566
78	0x3a437ec8	0.00074575515
79	0xba914b29	-0.0011085022
80	0x396f3426	0.00022812243
81	0x38995800	7.312e-05
82	0xb9cd64ef	-0.00039175848
83	0xb9884b53	-0.00025996062
84	0xb92c3040	-0.00016421173
85	0x398a33c4	0.0002635998
86	0x395e4183	0.00021195975
87	0x39f5afe6	0.00046861096
88	0xb7aaf528	-2.0379739e-05
89	0xb9476d15	-0.00019018755
90	0xb9eb080f	-0.00044828697
91	0x390864a3	0.00013007461
92	0xb9892aa8	-0.00026162458
93	0x3a04d198	0.00050666323
94	0xba01f9f8	-0.0004958208
95	0x3662c724	3.379254e-06
96	0xb85e490d	-5.299696e-05
97	0xba46c824	-0.0007582924
98	0xba340f01	-0.0006868691
99	0x38a0c174	7.665428e-05
100	0xba9adfd7	-0.0011815977
101	0x3912e324	0.00014008261
102	0x3a6055b7	0.00085576944
103	0x3acfc2a9	0.001585086
104	0x3a725d17	0.0009245439
105	0xbaa646cf	-0.0012685898
106	0x39c21c64	0.00037023716
107	0xbaa5dfa9	-0.0012655157
108	0x38a5a4b4	7.8984915e-05
109	0xb8c751d4	-9.504301e-05
110	0xb9a64c5c	-0.0003171888
111	0x3a014514	0.0004931253
112	0x3a0501f5	0.0005073839
113	0x382edac1	4.1688563e-05
114	0x38930b78	7.0116424e-05
115	0x38fa0fb1	0.00011923852
116	0x3a005173	0.00048949494
117	0x39613700	0.00021478161
118	0xb86d1080	-5.652057e-05
119	0xb8f01d39	-0.00011449535
120	0x38fb9c80	0.00011997763
121	0x38fa4414	0.000119336095
122	0x39fe20fa	0.00048471225
123	0x39edecfa	0.00045380724
124	0x38164069	3.5822773e-05
125	0xb89d4590	-7.4993004e-05
126	0x39b4c923	0.00034482134
127	0xb98137be	-0.00024646329
128	0xbd52dc6d	-0.051479746
129	0x3c3947b4	0.011308599
130	0x3b5a9ddb	0.003335825
131	0xbba07132	-0.0048963064
132	0x3c44d828	0.012014426
133	0x3aac981e	0.0013167893
134	0x3aad8c0a	0.0013240587
135	0x3a364c6e	0.0006954138
136	0xbca431b1	-0.020043226
137	0xbc718a22	-0.014742406
138	0x3c670998	0.014101408
139	0xbc5f0d1f	-0.013613968
140	0xbb460058	-0.0030212607
141	0xbbc8b5f4	-0.006125206
142	0x3be484e8	0.0069738515
143	0xbb93845a	-0.0045018615
144	0xbbeb0971	-0.0071727564
145	0x3b0c4352	0.002140243
146	0xbcaaf92d	-0.02087077
147	0x3c20262a	0.009774724
148	0xba3f2a6d	-0.0007292394
149	0xbaa08b0d	-0.0012248472
150	0xbca241aa	-0.019806702
151	0xbaf9a306	-0.0019045777
152	0x3bf9c4be	0.0076223304
153	0xbbfa0471	-0.007629924
154	0x3bf803ce	0.007568813
155	0x3c8aba45	0.016934523
156	0xb9074b62	-0.00012902686
157	0xbc143da2	-0.0090478975
158	0xbc441901	-0.011968852
159	0x3ba06299	0.0048945663
160	0xbc2fd563	-0.010732028
161	0x3bfd1668	0.0077236183
162	0xbd4bb396	-0.049731813
163	0xbba97e4c	-0.0051725265
164	0xbc32f6a9	-0.010923066
165	0x3bf3d553	0.0074412017
166	0xbbbbeca9	-0.005734999
167	0xbbcd3b0c	-0.0062631425
168	0xbb98f607	-0.0046680006
169	0xbc0dfb06	-0.008665806
170	0x3b8d838b	0.0043186597
171	0x3c0254e1	0.007954807
172	0x3b8f3b2d	0.004371068
173	0xbbc04733	-0.0058678626
174	0x3b9b3a12	0.004737147
175	0x3c0f473c	0.008745011
176	0x3c92d78c	0.017925046
177	0xba0883ef	-0.0005207648
178	0x3b14b0cb	0.0022688385
179	0x3c232534	0.0099576
180	0xbbad1857	-0.0052824426
181	0xbc205df5	-0.009788026
182	0xbbfb1580	-0.007662475
183	0xbb68cba4	-0.003552177
184	0x3b65cf27	0.00350661
185	0x3c076ab8	0.00826519
186	0xbb9ddc50	-0.004817523
187	0xbc13e753	-0.00902732
188	0xbbdec5b7	-0.006798472
189	0xbb398779	-0.0028309508
190	0x3c089d63	0.008338305
191	0xbb8c2ee6	-0.0042780517

attention.out_proj.weight f4 [64, 64]
0	0x3e04dd69	0.12975086
1	0xbdeaea36	-0.114704534
2	0xbd43b111	-0.047776286
3	0x3d14cfa7	0.036330845
4	0x3b897511	0.0041948636
5	0x3db4e5e5	0.088329114
6	0x3d8c6d72	0.068568125
7	0x3dcf7ba0	0.101310015
8	0xbb9a2022	-0.0047035376
9	0xbd4f1138	-0.05055353
10	0xbdce9c0d	-0.10088358
11	0x3d66984d	0.05629759
12	0xbdf8d3d5	-0.12149779
13	0x3ce51182	0.02796245
14	0xbd8ef922	-0.06981112
15	0x3dae1a53	0.08501115
16	0xbc8951f5	-0.016762713
17	0xbd995bc9	-0.0748821
18	0xba6b6604	-0.000897974
19	0xbd47ce58	-0.04878077
20	0xbda6d765	-0.08146552
21	0x3d84d1d1	0.06485332
22	0xb9ab360d	-0.00032655933
23	0xbc00436c	-0.007828575
24	0xbde475da	-0.11155291
25	0xbd181b58	-0.037135452
26	0x3c74b20e	0.01493503
27	0xbd846b3b	-0.06465765
28	0xbd0eaa28	-0.034830242
29	0xbdc3e91a	-0.09565945
30	0x3de8f825	0.11375455
31	0x3e06968b	0.13143365
32	0xbd8efcf7	-0.06981843
33	0x3e18f832	0.14938429
34	0x3e103de0	0.14086103
35	0xbd9fff5a	-0.07812376
36	0x3ccdac1b	0.02510648
37	0x3da227f3	0.07917776
38	0x3c0b1645	0.008489196
39	0xbdb81427	-0.08988219
40	0xbbc298dd	-0.005938633
41	0x3d07b36a	0.033130087
42	0xbdcc424b	-0.09973582
43	0xbddc5239	-0.1075787
44	0x3c9d460d	0.019198442
45	0xbdba7dd8	-0.09106034
46	0x3dc78e8d	0.09743986
47	0x3b8491b8	0.0040456913
48	0xbd9e1eea	-0.0772074
49	0x3dca42c5	0.098760165
50	0xbdc46365	-0.095892705
51	0x3d80028e	0.06250487
52	0x3d0e8ed5	0.034804184
53	0xbe01c9c2	-0.12674621
54	0xbd9c3116	-0.0762655
55	0xbcba5ff9	-0.022750841
56	0xbd933da2	-0.0718949
57	0x3db6f9bb	0.08934351
58	0x3d45ef1d	0.04832374
59	0xbdd98be1	-0.10622383
60	0xbdafa6b8	-0.08576721
61	0xbd55277b	-0.052039605
62	0x3dea7008	0.114471495
63	0x3cf5e911	0.030018361
64	0x3ccb4bf1	0.024816485
65	0xbcd363a3	-0.025804346
66	0x3da5f2d1	0.08102954
67	0xbd076f4d	-0.03306513
68	0xbdfc6378	-0.1232366
69	0x3df76448	0.12079674
70	0xbd871ed9	-0.065976806
71	0xbd246fd1	-0.0401457
72	0xbd5efada	-0.05443845
73	0x3df02f04	0.117277175
74	0xbd02b351	-0.03190929
75	0x3e01d58f	0.12679122
76	0xbbe86bdd	-0.0070929364
77	0xbe136a69	-0.14396061
78	0xbd43d505	-0.047810573
79	0xbd1bb2a8	-0.038012177
80	0xbdaf476f	-0.08558547
81	0x3ca5f295	0.020257274
82	0xbcac1b43	-0.021009093
83	0x3ba07997	0.004897307
84	0xbd88eacf	-0.06685411
85	0x3c8d0e6b	0.01721879
86	0x3d710e56	0.058851562
87	0xbdd4234c	-0.10358295
88	0xbd0c582c	-0.034263775
89	0x3d740771	0.05957741
90	0x3dd3faad	0.10350547
91	0x3c133a04	0.008986
92	0x3dd4f2a5	0.10397843
93	0xbd1e3da1	-0.038632993
94	0xbdc4a489	-0.09601695
95	0xbdc02e42	-0.09383823
96	0x3d4991f8	0.049211472
97	0x3da6fee4	0.08154085
98	0x3df13a72	0.11778726
99	0xbcb6fcd4	-0.022337355
100	0xbce690d0	-0.028145224
101	0xbd28ca64	-0.04120864
102	0xbd71627e	-0.05893182
103	0xbd38a395	-0.04507788
104	0xbddf04ee	-0.10889612
105	0xbda16643	-0.07880833
106	0x3be79d29	0.0070682955
107	0xbe05dec9	-0.13073267
108	0x3d94ebbd	0.07271526
109	0x3d1c140e	0.038105063
110	0x3dc68d08	0.09694868
111	0xbd2f5188	-0.042802364
112	0xbd12a8a3	-0.035805356
113	0xba383d58	-0.0007028184
114	0x3db833af	0.08994233
115	0x3d7980d0	0.06091386
116	0x3e103570	0.14082885
117	0x3ddebc94	0.10875812
118	0x3d219eff	0.03945827
119	0xbe0333ee	-0.12812778
120	0x3d849f35	0.06475679
121	0xbd07fc72	-0.033199735
122	0x3dadc673	0.08485117
123	0xbcc758a7	-0.024334265
124	0x3c8956e0	0.016765058
125	0xbd55b093	-0.052170347
126	0x3d8fa6f0	0.07014263
127	0xbda73ad5	-0.08165518
128	0xbd9f6c23	-0.07784297
129	0xbdae3eff	-0.08508109
130	0xbddf4c43	-0.10903218
131	0x3dc0a96d	0.094073154
132	0xbd38e251	-0.045137707
133	0xbca428d0	-0.020038992
134	0xbd6171db	-0.05504022
135	0x3da4c6de	0.080457434
136	0x3d6f9126	0.058488034
137	0xbceddaae	-0.029034939
138	0xbd39e3b0	-0.045383155
139	0xbddaeb26	-0.10689382
140	0xbd87ba45	-0.06627325
141	0x3dcbf720	0.09959245
142	0x3d37a4c7	0.04483488
143	0x3d35f217	0.044420328
144	0x3d004967	0.031320002
145	0x3dfc0914	0.12306419
146	0xbcb4c938	-0.022068605
147	0x3d90f2ac	0.07077536
148	0xbd6fc5e3	-0.05853833
149	0x3dd228c9	0.102616854
150	0xbde74c62	-0.11293866
151	0xbc2b3c91	-0.010451452
152	0x3d8ee477	0.0697717
153	0xbd9f6262	-0.07782437
154	0x3ddfc2ea	0.10925849
155	0x3d68fa7b	0.0568795
156	0x3da29f91	0.07940591
157	0xbd68c1ce	-0.05682545
158	0xbd62f249	-0.055406842
159	0x3de3d684	0.111249
160	0xbd946109	-0.072450705
161	0xbd815d7f	-0.06316661
162	0x3d00a6d7	0.03140911
163	0xbdb336ef	-0.08750712
164	0xbdc68da4	-0.096949846
165	0xbe09b74d	-0.1344883
166	0xbd7100a4	-0.0588385
167	0xbe0583d6	-0.13038573
168	0xbc8a9df1	-0.016921015
169	0xbda4854b	-0.08033236
170	0x3d9dc3b1	0.07703341
171	0x3df198d8	0.11796731
172	0xbddfdb00	-0.10930443
173	0xbdd06f35	-0.10177461
174	0x3ddfb59f	0.10923313
175	0xbdfd22e8	-0.123601735
176	0x3cc9b1c0	0.02462089
177	0xbd2af542	-0.041737802
178	0xb82584b0	-3.946264e-05
179	0xbcc15cd8	-0.023603842
180	0xbc2690bb	-0.010166342
181	0xbda23d44	-0.07921842
182	0xbdd919ba	-0.1060061
183	0x3d1b7d7a	0.03796146
184	0xbdf585c8	-0.119884074
185	0x3d271362	0.04078997
186	0x3c429375	0.011875977
187	0x3d078a2e	0.033090763
188	0x3deb91f6	0.11502449
189	0xbb325e3a	-0.0027216808
190	0xbc365ef2	-0.011131035
191	0x3d53e9b3	0.051736545
192	0x3c85f408	0.016351715
193	0xbc6aca5d	-0.014330474
194	0xbcc8a28b	-0.024491569
195	0xbdefeba4	-0.11714867
196	0x3d0fcede	0.035109393
197	0xbdc7d4e7	-0.09757405
198	0xbe0f8196	-0.14014277
199	0x3d9deacc	0.077107996
200	0x3d947234	0.07248345
201	0x3e17bc0f	0.14817832
202	0xbc190fcf	-0.009342148
203	0x3dd8ae10	0.10580075
204	0xbd4c0d87	-0.04981759
205	0x3d2699f3	0.04067416
206	0x3dfcd2f2	0.12344922
207	0xbd0e5a98	-0.034754366
208	0x3ca29283	0.019845253
209	0x3d2b4d85	0.041821975
210	0x3d3dab88	0.046306163
211	0xbc60d313	-0.013722199
212	0x3cde4293	0.027131354
213	0xbd34189e	-0.04396879
214	0x3df76ab4	0.12080899
215	0x3caa8959	0.020817446
216	0xbdc631ee	-0.09677492
217	0xbdd9d2e7	-0.106359296
218	0x3c35929a	0.011082316
219	0x3da5a1df	0.08087515
220	0x3dcaee33	0.09908714
221	0xbd4e45f1	-0.05035967
222	0x3d4d47f2	0.05011744
223	0x3d45638d	0.048190642
224	0xbd24b023	-0.04020704
225	0x3e001c14	0.12510711
226	0x3d8ef21e	0.06979774
227	0x3d7f4bd1	0.062328164
228	0x3dfc141b	0.12308522
229	0xbd0022d2	-0.031283207
230	0x3ddf2976	0.1089658
231	0xbd4d19f2	-0.05007357
232	0xbdec9a63	-0.115528844
233	0xbdfdce5e	-0.12392877
234	0xbddb83ee	-0.10718523
235	0xbdcfb26f	-0.101414554
236	0x3cb734d0	0.02236405
237	0x3d9bd21b	0.07608434
238	0xbdc2054c	-0.094736665
239	0x3dbe8588	0.09302813
240	0x3d912ce7	0.070886426
241	0x3d87e5c8	0.06635624
242	0xbe348938	-0.1763047
243	0xbd5cda64	-0.05391921
244	0xbde6ceb8	-0.11269897
245	0xbdd51c07	-0.104057364
246	0xbbf935e8	-0.007605303
247	0x3d02cae6	0.03193178
248	0x3cfd5661	0.030924978
249	0xbd41e0f9	-0.04733369
250	0x3dddb1ba	0.10824914
251	0x3cf276bc	0.029597633
252	0xbdc37afa	-0.0954494
253	0xbc5b84d3	-0.013398367
254	0xba9e2c16	-0.0012067582
255	0x3d190c57	0.037365284

attention.out_proj.bias f4 [64]
0	0xbcc237ff	-0.023708342
1	0x3c609725	0.013707911
2	0xbd18fab0	-0.03734845
3	0xbd070b36	-0.032969676
4	0xba40bdd5	-0.0007352506
5	0x3c87de48	0.016585484
6	0x3cb8af46	0.022544514
7	0xbb79c7fa	-0.003811358
8	0x3c49a849	0.012308189
9	0x3c39b9ca	0.0113357995
10	0xbc91eb7a	-0.01781248
11	0xbc8270f3	-0.015922999
12	0xbc5e2d2a	-0.013560573
13	0xbc198bb1	-0.009371684
14	0x3bbcec46	0.0057654707
15	0x3c22d091	0.009937421
16	0x3c6aaaa0	0.014322907
17	0x3c57c92d	0.013170523
18	0x3c8d1c1c	0.017225318
19	0xbc1f3858	-0.009718023
20	0x3c7299bd	0.014807162
21	0x3c7a8cf2	0.015292393
22	0x3c11134a	0.0088546965
23	0xbbf8e91b	-0.0075961477
24	0xbbce571f	-0.0062970067
25	0xbc064714	-0.008195657
26	0x3c655c16	0.013999006
27	0x3c904993	0.017613208
28	0xbc7d8c56	-0.015475353
29	0x3b2a29b2	0.0025964794
30	0x3c550cfd	0.013003585
31	0x3c614e36	0.013751557
32	0x3c64e507	0.01397062
33	0xbcc684d7	-0.024233265
34	0x3cbe428f	0.023225097
35	0x3bce7105	0.006300094
36	0xbbb75bce	-0.005595661
37	0xbcb1a547	-0.021685256
38	0xbbf659f4	-0.0075180475
39	0xbc53d78b	-0.012929807
40	0x3bb1db2b	0.005427738
41	0x3cc2a288	0.023759142
42	0xbcbd346d	-0.023096288
43	0xbc89329f	-0.01674777
44	0xbc87800b	-0.016540548
45	0xbca67c36	-0.0203229
46	0xbc98fe66	-0.018675994
47	0xbc6c5c80	-0.014426351
48	0x3b1ea7b0	0.0024208836
49	0x3c4567e7	0.012048698
50	0xbc8b3942	-0.016995076
51	0x3c97a5c1	0.018511655
52	0x3b6b10d3	0.0035868182
53	0xbc9ffe2a	-0.019530375
54	0x3c8fc1f6	0.017548542
55	0xbc88d310	-0.016702205
56	0xbcb32497	-0.021868033
57	0xbc47a4fe	-0.012185333
58	0x3c6a4170	0.014297828
59	0xbce3145b	-0.027719667
60	0xbc4346b5	-0.011918713
61	0xbc8d8949	-0.017277377
62	0x3c535fac	0.012901228
63	0x3ac795aa	0.0015227098

classifier.0.bias f4 [32]
0	0x3caf2c75	0.021383503
1	0x3dc181fd	0.094486214
2	0xbdf2d374	-0.11856738
3	0xbddbeb9c	-0.10738298
4	0x3dc60bae	0.096701965
5	0xbdf00c31	-0.11721075
6	0xbdc2807e	-0.09497164
7	0x3df78eba	0.1208777
8	0xbde74a51	-0.112934716
9	0xbc916842	-0.01774991
10	0xbdcb5b5f	-0.09929537
11	0x3c7fd5d9	0.01561495
12	0xbd92d9a4	-0.07170418
13	0x3d2e4eec	0.042555735
14	0x3d606e1d	0.054792512
15	0x3d557863	0.052116763
16	0xbdb842fa	-0.0899715
17	0x3d09d537	0.033650603
18	0xbe22ac5b	-0.15886061
19	0x3cdcfe33	0.02697668
20	0x3d014aa6	0.03156533
21	0xbd9836ce	-0.07432328
22	0xbe0272d1	-0.12739111
23	0x3c78a4c7	0.015176005
24	0x3d6ddcec	0.058072016
25	0x3d14c64e	0.03632193
26	0x3dbc8e00	0.09206772
27	0x3ddef1ca	0.10885961
28	0xbdd5ef04	-0.10445979
29	0x3d6d5bb2	0.057948776
30	0x3e08e83c	0.1336984
31	0xbdaba103	-0.0838032

onnx::MatMul_128 f4 [64, 192]
0	0x3f02e552	0.51131165
1	0x3ef5c392	0.4800077
2	0xbeb9fbf0	-0.36325026
3	0x3e72c5d0	0.23708272
4	0x3dd5a58e	0.10431968
5	0x3f253c39	0.6454502
6	0x3f08cfd7	0.5344214
7	0xbe86e0a5	-0.26343265
8	0xbd868f42	-0.06570293
9	0xbe6a4928	-0.2287947
10	0x3e93c85a	0.28863794
11	0xbec3546d	-0.3815035
12	0xbf0709c9	-0.52749306
13	0x3f17271e	0.59044063
14	0xbeac8ee3	-0.33702764
15	0x3eadfa42	0.33979994
16	0xbeb5bc55	-0.35495248
17	0xbe996a3e	-0.2996387
18	0x3ecd0314	0.4004141
19	0x3ea5a70f	0.32354018
20	0x3eb44aaf	0.3521323
21	0xbdfb7818	-0.122787654
22	0xbeca9135	-0.3956391
23	0xbea6c204	-0.32569897
24	0x3f04a2c5	0.51810867
25	0x3ec47dd2	0.38377243
26	0x3ee326ed	0.44365636
27	0x3d9c1ba8	0.076224625
28	0x3e9054b3	0.2818962
29	0xbf0ce2ef	-0.55033773
30	0x3eda4a5d	0.4263486
31	0xbd8b38c4	-0.067979366
32	0x3e314f97	0.17315517
33	0x3ef989dc	0.4873799
34	0x3f0835ef	0.53207296
35	0xbd8b2f6b	-0.06796154
36	0x3e98378f	0.29729888
37	0xbdca531b	-0.09879132
38	0xbed9f3ee	-0.42568916
39	0xbec2f6e3	-0.38078985
40	0xbe9cf7ea	-0.30657893
41	0x3ea79788	0.32732797
42	0xbed2306e	-0.41052574
43	0x3ef3082c	0.47467172
44	0x3ca5d23e	0.020241853
45	0x3e31e3a3	0.17371993
46	0x3e7d2ceb	0.24724166
47	0xbeb3bf44	-0.35106862
48	0xbedcc918	-0.43122172
49	0xbd736f20	-0.05943215
50	0xbcc19a10	-0.023633033
51	0xbe56bd0b	-0.20970552
52	0xbebd42ba	-0.3696497
53	0xbed2f2a7	-0.41200754
54	0x3e4317db	0.19052069
55	0x3e5b2c41	0.214036
56	0xbe57cb5b	-0.21073668
57	0xbf0ace40	-0.5422096
58	0xbeca7126	-0.3953945
59	0xbeee2c6d	-0.4651827
60	0xbbf1e3a3	-0.0073818727
61	0xbe3d21ce	-0.18469927
62	0xbed8fac2	-0.42378813
63	0x3e98f9f9	0.29878214
64	0x3caa1db8	0.020766124
65	0xbd8189ee	-0.06325136
66	0xbdc3b31f	-0.09555649
67	0xbd8b2de5	-0.06795863
68	0xbd10b8c9	-0.035332475
69	0x3d7e3aa6	0.06206765
70	0xbd0ca0f2	-0.034333177
71	0xbe338150	-0.17529798
72	0x3d963839	0.07334942
73	0x3d687d32	0.05676002
74	0xbde0d470	-0.10978019
75	0xbe0738cb	-0.13205259
76	0xbe292737	-0.16518866
77	0x3da0d502	0.07853128
78	0xbdd1b175	-0.10238925
79	0xbafa006c	-0.0019073612
80	0xbe2de54b	-0.16982
81	0xbe657633	-0.2240837
82	0x3e0605cb	0.13088147
83	0xbc88845d	-0.016664678
84	0xbce25de7	-0.027632667
85	0xbcdb5e88	-0.026778474
86	0x3d9b1413	0.07572188
87	0xbd8466f4	-0.06464949
88	0xbd23fb96	-0.040034853
89	0x3e20df29	0.15710129
90	0xbdd04592	-0.101695195
91	0xbda45b59	-0.08025236
92	0x3dc9d562	0.09855153
93	0x3d3240d2	0.04351885
94	0x3e2a3e8a	0.1662542
95	0x3e419f03	0.18908314
96	0x3cc8bbe0	0.024503648
97	0x3e2d585f	0.16928242
98	0x3d89feee	0.06738077
99	0xbb14032f	-0.0022584905
100	0x3e332b80	0.17497063
101	0x3d58df1b	0.052947145
102	0xbe02f3a3	-0.12788253
103	0xbdb639cc	-0.08897743
104	0xbe09b828	-0.13449156
105	0x3da967b7	0.08271735
106	0xbdc039da	-0.09386034
107	0xbd1ec6a6	-0.038763665
108	0x3e20ce7f	0.15703772
109	0x3ca23f5f	0.019805608
110	0x3d07cf77	0.03315684
111	0x3d9ae659	0.075634666
112	0x3dad4be3	0.0846174
113	0x3d3bcb82	0.045848377
114	0xbdba2134	-0.09088364
115	0xbe0f5a5c	-0.13999313
116	0xbdcb79d8	-0.09935349
117	0xbc3ae3d5	-0.011406858
118	0xbda9e77d	-0.08296106
119	0x3e1f8b33	0.15580444
120	0xbb444090	-0.0029945709
121	0x3d9d38ec	0.076768726
122	0xbc503e58	-0.012710176
123	0x3d853d32	0.06505813
124	0x3dd6c053	0.10485902
125	0x3df6d80d	0.12052927
126	0xbe2fb84f	-0.17160152
127	0xbddf000c	-0.10888681
128	0xbe1e66b0	-0.1546886
129	0xbc8f792c	-0.017513834
130	0xba5d615b	-0.0008444988
131	0x3dc0accc	0.094079584
132	0x3da38016	0.07983415
133	0xbe4d319e	-0.20038459
134	0x3e3c4b46	0.1838809
135	0x3d87ba83	0.06627371
136	0xbe5e470c	-0.2170679
137	0xbdd018d7	-0.10160988
138	0x3debe30c	0.11517915
139	0xbe2b664e	-0.16738245
140	0x3de78c00	0.11306
141	0x3dd45469	0.103676625
142	0xbbd9033e	-0.006622701
143	0x3dabd939	0.08391041
144	0xbd853c94	-0.06505695
145	0xbda7cb9b	-0.081931315
146	0xbd9b89fa	-0.07594676
147	0x3c8346da	0.016024996
148	0x3da8faf9	0.08250994
149	0x3d308bc7	0.043102052
150	0x3c898b7d	0.016790146
151	0x3d05e42f	0.032688316
152	0x3e58e565	0.21181257
153	0xbdcfcc48	-0.101463854
154	0xbdf47537	-0.119364195
155	0x3c9d29ee	0.019185033
156	0xbe202a9d	-0.15641256
157	0x3e32576c	0.17416161
158	0xbdc3d4bc	-0.0956206
159	0xbe1f776a	-0.15572897
160	0x3da2baa9	0.07945759
161	0xbe37a7e4	-0.17935139
162	0xbe78b397	-0.24287258
163	0x3e0e7398	0.13911283
164	0x3d6789c2	0.05652786
165	0xbe006815	-0.12539704
166	0x3de1bc66	0.11022262
167	0x3d23a948	0.03995636
168	0x3dcb48f2	0.099260226
169	0xbe18a570	-0.1490686
170	0x3cae864a	0.021304268
171	0xbc97a107	-0.018509401
172	0xbc97ffe3	-0.018554633
173	0x3cd1a311	0.025590451
174	0x3d88b1dd	0.0667455
175	0xbd5f24a9	-0.05447832
176	0x3e0da74e	0.13833353
177	0xbdf355bf	-0.11881589
178	0x3e479c81	0.19493295
179	0x3e2f4629	0.17116608
180	0xbd9501f9	-0.07275767
181	0xbad4b930	-0.0016229507
182	0xbd5fdffa	-0.05465696
183	0xbcabb49e	-0.020960148
184	0xbe4ac975	-0.19803412
185	0xbe017ad6	-0.12644514
186	0xbdf9f10e	-0.12204181
187	0x3de6bfae	0.11267029
188	0x3d32d5c7	0.043660905
189	0xbe25e2aa	-0.16199747
190	0x3bfd760f	0.007735021
191	0xbd3f6083	-0.0467229
192	0xbd78cc03	-0.060741436
193	0xbdc2c5bc	-0.09510371
194	0xbdb5503a	-0.088531926
195	0x3de72a66	0.11287384
196	0x3dd76c4a	0.105187014
197	0x3e007261	0.12543632
198	0xbd3009fd	-0.042978276
199	0x3cc0ee46	0.023551118
200	0xbdddf34d	-0.108374216
201	0x3dc5626d	0.09637914
202	0xbdd86fa8	-0.10568172
203	0x3d126246	0.035738252
204	0x3c4a764c	0.012357306
205	0xbddf18db	-0.10893413
206	0xbdf88f2c	-0.12136683
207	0xbdc92202	-0.098209396
208	0xbe04fd1c	-0.12987179
209	0x3d9b5c75	0.07585994
210	0x3df0a98f	0.11751091
211	0x3e267e75	0.16259177
212	0x3df0b3ad	0.117530204
213	0xbde144bb	-0.109994374
214	0x3cdf784a	0.027279038
215	0xbda528df	-0.08064436
216	0x3c6c3e46	0.014419144
217	0x3d4fbe60	0.050718665
218	0x3d1079cc	0.035272405
219	0x3b85aa2c	0.004079124
220	0x3de55504	0.11197856
221	0xbe214b7b	-0.1575145
222	0x3d00d60d	0.031454135
223	0xbcdf4753	-0.02725569
224	0xbdc8ac75	-0.097985186
225	0xbd6911aa	-0.05690161
226	0xbd5b3d2b	-0.05352513
227	0x3e14c5a1	0.14528514
228	0x3d5bf44d	0.05369978
229	0x3da9b74c	0.08286914
230	0xbd34ec7c	-0.04417084
231	0xbddab73b	-0.1067948
232	0x3df12b94	0.1177589
233	0x3d873aff	0.066030495
234	0xbe006116	-0.12537035
235	0xbde91406	-0.11380772
236	0x3e0ddbaf	0.13853334
237	0xbe0d937c	-0.13825792
238	0x3de4623f	0.111515515
239	0xbdc08411	-0.0940019
240	0x3d314663	0.043280017
241	0xbd09bf59	-0.03362975
242	0xbd22a522	-0.039708264
243	0xbc9680f3	-0.018372035
244	0x3c36a08b	0.011146675
245	0x3da9b93b	0.08287283
246	0xbde2ae63	-0.11068418
247	0xbddeb16f	-0.108736865
248	0xbdb328b8	-0.08748001
249	0x3d4d473b	0.05011676
250	0xbe17b641	-0.14815618
251	0x3c2d97af	0.010595246
252	0x3da2cf0e	0.07949649
253	0x3cda4089	0.0266421
254	0xbcc1fb97	-0.023679538
255	0xbd4c4c20	-0.049877286

onnx::MatMul_129 f4 [64, 32]
0	0x3d0f7f88	0.035033733
1	0xbdc029f0	-0.09382999
2	0x3c807415	0.015680352
3	0x3d06b92e	0.032891445
4	0xbb8baa43	-0.00426224
5	0x3d1cf0a7	0.03831544
6	0x3dff7b1e	0.124746546
7	0xbd43c054	-0.04779084
8	0x3a15e5c8	0.0005718139
9	0xbe034280	-0.12818336
10	0x3ca04236	0.019562822
11	0xbe01b23e	-0.1266565
12	0xbda7f19e	-0.08200382
13	0xbddd4109	-0.1080342
14	0x3dcad879	0.0990457
15	0x3d440d5d	0.047864307
16	0x3d92a36a	0.07160075
17	0x3c988a3e	0.018620607
18	0x3e06d287	0.13166247
19	0xbe7b43b0	-0.2453754
20	0x3d3b04f0	0.045659006
21	0x3d9e2713	0.077222966
22	0xbc960f39	-0.018317806
23	0x3bc8ac7e	0.0061240783
24	0xbd3dad1c	-0.046307668
25	0xbe1551af	-0.14581941
26	0xbd5415f0	-0.051778734
27	0xbd6494d8	-0.05580601
28	0x3d389434	0.045063213
29	0xbcb98ef7	-0.022651179
30	0x3d54be42	0.051939256
31	0x3d14b48e	0.036305003
32	0x3c952dd5	0.018210331
33	0xbc46f5a0	-0.0121435225
34	0x3cbd54c9	0.023111718
35	0xbd82d92f	-0.06389081
36	0xbd89a4e7	-0.06720906
37	0xbd4b0de9	-0.049573813
38	0x3cac5cd2	0.021040354
39	0x3d95c891	0.07313646
40	0xbb7fa95e	-0.0039010863
41	0xbcb65040	-0.022255063
42	0xbdffa923	-0.12483432
43	0xbe49d9e8	-0.19712031
44	0x3d19c345	0.03753974
45	0x3cd01912	0.02540258
46	0x3dec2c37	0.11531871
47	0x3d80b652	0.06284775
48	0xbd268958	-0.040658325
49	0xbd261633	-0.040548515
50	0xbdf7a675	-0.12092296
51	0xbd83b89a	-0.06431694
52	0xbe02149f	-0.12703179
53	0xbda25d82	-0.079279914
54	0x3c6c2e2e	0.014415307
55	0xbe46caa6	-0.19413242
56	0xbdf38f74	-0.11892596
57	0xbd33c50b	-0.043889087
58	0x3d5b48a7	0.053536084
59	0x3bbb2735	0.005711461
60	0x3dc54f26	0.09634237
61	0xbe23599d	-0.15952154
62	0x3dc0ab9f	0.09407734
63	0x3db955e4	0.090495855
64	0x3dfbac83	0.122887634
65	0x3d97f3c2	0.0741954
66	0xbcbc0c63	-0.022955125
67	0x3d761045	0.06007411
68	0xbcc75951	-0.024334582
69	0x3d4d3b2b	0.050105255
70	0xbcaeaf5c	-0.021323852
71	0x3c003e78	0.007827394
72	0xbd677973	-0.056512307
73	0x3d2bf4de	0.04198157
74	0x3d2112b3	0.039324474
75	0x3e549231	0.20758893
76	0x3d69433e	0.056948893
77	0x3ced7f9a	0.02899151
78	0xbdb5fa32	-0.088856116
79	0x3db9836f	0.09058272
80	0xbdd68000	-0.10473633
81	0xbd6e470f	-0.058173236
82	0xbce220fe	-0.027603623
83	0x3c4bf2be	0.012448011
84	0x3cdd1f47	0.026992453
85	0xbc1aed33	-0.009455967
86	0x3d565ad9	0.052332733
87	0x3e36d975	0.17856391
88	0xbd1f9de9	-0.038968954
89	0x3d16d051	0.03681976
90	0xbdabad3d	-0.08382652
91	0x3da196ab	0.07890066
92	0xbdc2cc28	-0.09511596
93	0xbcc07bd4	-0.023496546
94	0xbdc93041	-0.09823657
95	0xbdb1c481	-0.08680058
96	0xbd9943e8	-0.07483655
97	0xbcbc2fd4	-0.022972025
98	0xbda8963c	-0.0823178
99	0x3d781a2d	0.06057184
100	0xbe0f6c5c	-0.1400618
101	0x3de48da3	0.111598276
102	0xbe456566	-0.19276962
103	0x3c4881be	0.012237964
104	0xbd3af092	-0.045639582
105	0xbe31997d	-0.17343707
106	0xbd90f530	-0.07078016
107	0xbdf86083	-0.12127783
108	0xbda90580	-0.08253002
109	0xbe08a176	-0.13342842
110	0xb97bc1c2	-0.00024009406
111	0xbd89274f	-0.06696951
112	0x3d4bf8ec	0.049797937
113	0xbd48e739	-0.049048636
114	0x3e02e0dc	0.1278109
115	0xbe3fced6	-0.18731245
116	0xbc29b221	-0.010357411
117	0x3dedfcb9	0.11620469
118	0xbdcd1f05	-0.10015682
119	0xbdcba1b7	-0.09942954
120	0xbd908202	-0.07056047
121	0xbe2b5f37	-0.1673554
122	0xbde1637d	-0.11005304
123	0xbdb8385a	-0.08995123
124	0xbdc37be4	-0.09545115
125	0xbdacbfc5	-0.08435015
126	0x3d3c9e0b	0.04604916
127	0x3c3d93de	0.011570899
128	0xbdb4ced0	-0.08828509
129	0xbc91090d	-0.017704511
130	0x3d8cba96	0.06871526
131	0xbdd46b93	-0.10372081
132	0x3e27f01c	0.16400188
133	0xbd89db4b	-0.0673128
134	0x3d8cbbc6	0.068717524
135	0x3d5a49c9	0.053293023
136	0x3dd83257	0.105564766
137	0x3df2e639	0.11860318
138	0xbbab7650	-0.00523261
139	0xbc9d3886	-0.019191992
140	0x3dc4802c	0.09594759
141	0x3e147a34	0.14499742
142	0x3c218655	0.009858687
143	0x3d69d23f	0.057085272
144	0xbdb04048	-0.08606011
145	0x3dcc2d4b	0.099695764
146	0x3ca58e30	0.020209402
147	0x3dd60723	0.1045058
148	0x3d330858	0.04370913
149	0xbbc035c5	-0.005865785
150	0xbd2f1f69	-0.042754564
151	0x3e1ab360	0.15107489
152	0x3e3644a2	0.17799619
153	0x3e147033	0.14495926
154	0x3d51a869	0.051186
155	0x3debbac3	0.11510231
156	0xbc31a9c0	-0.010843694
157	0x3e3cc8aa	0.18435922
158	0xbdd78465	-0.10523299
159	0xbd023c7d	-0.031795967
160	0xbe006ab0	-0.12540698
161	0x3ca394c9	0.019968407
162	0xbdb7bcef	-0.08971583
163	0x3d0ffabb	0.035151225
164	0x3d8930ba	0.06698747
165	0x3dad9f46	0.084776446
166	0xbdce16a3	-0.10062911
167	0x3da7223a	0.08160825
168	0xbc99ca1c	-0.018773131
169	0x3d07513c	0.033036456
170	0xbd83fa16	-0.064441845
171	0xbe14193e	-0.14462754
172	0xbda62b51	-0.08113731
173	0xbd82426d	-0.06360326
174	0x3da6697d	0.08125589
175	0x3d22a0e7	0.03970423
176	0xbd8d4d18	-0.0689947
177	0x3e05a8d4	0.13052684
178	0x3e03b04a	0.12860218
179	0xbe5a3226	-0.21308193
180	0xbd05b7d5	-0.03264602
181	0xbd8599ec	-0.06523499
182	0xbd441814	-0.047874525
183	0xbe424fd4	-0.18975765
184	0x3be37e7e	0.0069425693
185	0x3c7d6b7e	0.015467523
186	0x3d621b7e	0.055202
187	0xbd4f0afd	-0.05054759
188	0x3ca714a0	0.020395577
189	0xbdbecb02	-0.093160644
190	0xbddd8a91	-0.10817445
191	0x3d336909	0.04380134
192	0x3e0074fb	0.12544625
193	0x3c75d605	0.0150046395
194	0xbca935c3	-0.020655518
195	0x3de1f953	0.11033883
196	0xbcc15c8a	-0.023603696
197	0xbd56ddaa	-0.05245749
198	0xbdfb74a5	-0.122781076
199	0x3dd8c4ff	0.10584449
200	0x3da12ed4	0.0787026
201	0xbd9a941d	-0.075477816
202	0x3cfbccb6	0.030737262
203	0xbcd7ad3e	-0.026327725
204	0x3d49ad91	0.04923779
205	0x3d8e7536	0.0695595
206	0x3e0766f8	0.13222873
207	0xbdb60053	-0.088867806
208	0xbdea75be	-0.11448239
209	0x3db8dae2	0.090261236
210	0xbcfa5d71	-0.030562134
211	0xbe0fc768	-0.14040911
212	0xbdd1b2c3	-0.10239174
213	0xbcc6e27c	-0.024277918
214	0x3da0a95b	0.07844802
215	0xbcaf64f1	-0.021410437
216	0xbe30417c	-0.1721248
217	0x3d2de295	0.042452414
218	0x3c028d98	0.007968329
219	0xbdf9dba2	-0.12200095
220	0xbd6b6d34	-0.05747719
221	0xbd775d72	-0.06039185
222	0x3e1bcf86	0.15215883
223	0xbd00454e	-0.031316094
224	0xbd4219a3	-0.04738773
225	0x3d913a8e	0.070912465
226	0xbd3ef9fb	-0.04662512
227	0x3e0d86bd	0.1382093
228	0x3d1869ea	0.037210383
229	0xbd093bb4	-0.033504203
230	0x3cfb478d	0.030673767
231	0x3d1145cf	0.035466965
232	0x3c3130ef	0.010814889
233	0xbc71016c	-0.014709812
234	0x3dbff3bf	0.09372663
235	0xbe09cc28	-0.13456786
236	0xbc471213	-0.012150305
237	0xbc045b91	-0.008078472
238	0x3c931284	0.017953165
239	0x3e134eed	0.14385577
240	0xbdc387f4	-0.095474154
241	0xbdeccfa8	-0.11563045
242	0xbd200277	-0.03906485
243	0xbd4c2eee	-0.049849443
244	0x3d5601c2	0.05224777
245	0x3e0f598f	0.13999008
246	0xbde7b838	-0.11314434
247	0xbe3b0caa	-0.1826655
248	0x3d7d9fc6	0.06191995
249	0xbd7067f9	-0.058692906
250	0x3db8ebe3	0.09029367
251	0xbe044db8	-0.12920272
252	0x3def51d6	0.11685531
253	0xbc895b39	-0.016767131
254	0x3d909d94	0.07061306
255	0x3ce95c91	0.028486522

onnx::MatMul_130 f4 [32, 1]
0	0xbd8c0590	-0.068369985
1	0xbe51aba6	-0.20475635
2	0x3dabff9c	0.08398363
3	0xbe06c8cc	-0.13162535
4	0x3db5c6e8	0.08875829
5	0xbdf8c17b	-0.121462785
6	0x3dd619fc	0.10454175
7	0xbdfebe3e	-0.124386296
8	0x3e0d6b62	0.13810495
9	0x3e6f3408	0.23359692
10	0x3cfa72e4	0.030572362
11	0x3dee97bc	0.11650035
12	0xbdbe213c	-0.09283683
13	0x3d92465c	0.07142326
14	0xbe38b74c	-0.18038672
15	0xbd9237cc	-0.07139549
16	0xbd3e4b9c	-0.046458825
17	0x3c948f48	0.018134728
18	0xbdd001b5	-0.101565756
19	0x3e6dea1d	0.23233838
20	0x3e22c455	0.15895207
21	0xbd09fa1f	-0.0336858
22	0x3d34053d	0.043950308
23	0x3e8f014a	0.2793067
24	0x3dcaa0c0	0.09893942
25	0x3e91332e	0.2835936
26	0x3e35e9d0	0.17764974
27	0x3c610b70	0.013735637
28	0x3e06c481	0.13160898
29	0x3df05319	0.117345996
30	0xbe518a9e	-0.20463035
31	0x3c204feb	0.009784679
